checkpoints/long_term_forecast_ETTh2_48_24_DLinear_ETTh2_ftM_sl48_ll48_pl24_dm512_nh8_el2_dl1_df2048_fc3_ebtimeF_dtTrue_Exp_0/checkpoint.pth (torch, 11279 bytes, 4 tensors)

Linear_Seasonal.weight f4 [24, 48]
000000 5f 74 74 3d 34 95 09 3d 3f 96 e8 3c 2a f5 8d 3c
       0.059681293 0.033589557 0.028391955 0.017328817
000010 62 b3 76 3c 9c 42 16 3c 4a 3c b1 3b 1a d5 b0 3b
       0.015057417 0.009171154 0.0054087983 0.0053964974
000020 33 7a e7 39 7a 14 d2 3a 7e 33 0f bc 71 ea cd ba
       0.000441508 0.0016027831 -0.008740304 -0.0015710128
000030 83 67 2a b9 e7 62 54 bb 16 8b 11 bc a2 f0 4d bb
       -0.00016251024 -0.0032407583 -0.008883258 -0.0031423946
000040 49 7d 95 bb 8c 68 e5 ba f7 e8 89 3a 85 83 ca 3b
       -0.0045620543 -0.0017502471 0.00105217 0.006180229
000050 e8 c3 69 3c 04 c7 93 3c 99 4b e5 3c 71 e2 0d 3d
       0.014267899 0.018039234 0.02799015 0.03463978
000060 ee a6 64 3d 33 ce 21 3d c4 78 f6 3c 64 86 99 3c
       0.05582326 0.039503288 0.030086882 0.01874084
000070 3e e6 59 3c d3 bf 9f 3b 8c 24 6f b9 04 af 14 bb
       0.013299523 0.004875162 -0.00022806431 -0.0022687325
000080 27 6f d9 bb 1b 6d 0f bc 8e 89 77 bc 75 24 62 bc
       -0.006635565 -0.00875404 -0.015108479 -0.013802637
000090 6a a6 4f bc 58 bc 62 bc e9 56 98 bc d6 4f 35 bc
       -0.012673954 -0.01383885 -0.01859613 -0.011066398
0000a0 a3 6a f1 bb 0f e3 09 ba e7 9f ff 3b 72 73 ad 3c
       -0.0073674484 -0.00052599696 0.0078010443 0.021173213
0000b0 19 49 15 3d 2b 3a 4d 3d dd 10 7e 3d e4 98 90 3d
       0.036446664 0.0501043 0.0620278 0.070604116
0000c0 47 90 34 3d 12 c9 6e 3d ff 2c 33 3d db 4d 18 3d
       0.044082906 0.058297224 0.043744083 0.037183624
0000d0 cd e6 dc 3c ca fe b9 3c 4c 4b 87 3c a9 75 46 3c
       0.026965523 0.0227045 0.016515397 0.012113013
0000e0 61 ff 23 3c 02 72 a1 3b f5 98 28 3b b2 2a a9 bb
       0.010009618 0.004926921 0.0025725935 -0.0051625604
0000f0 b7 d0 57 b8 84 f1 2a 3a a7 8a 99 bb af c0 28 bc
       -5.1454375e-05 0.0006520974 -0.004685718 -0.010299846
000100 3b fc 90 bb 98 d0 ad bb 7f 75 60 bb 1f 9f 2c ba
       -0.0044245995 -0.0053044073 -0.003424972 -0.000658499
000110 96 24 a4 3b 7d b8 5b 3c 9c df 96 3c 05 52 e4 3c
       0.005009244 0.013410685 0.018417172 0.027871141
000120 e3 7f 21 3d 43 c5 66 3d e1 01 22 3d ab de f3 3c
       0.039428603 0.056340467 0.039552573 0.029769262
000130 47 8e 97 3c 4d 4d 56 3c 99 ab 91 3b bd 22 2b 3a
       0.01850046 0.013079953 0.004445505 0.0006528309
000140 fb c1 24 bb 0f c9 d1 bb 34 94 14 bc b2 07 70 bc
       -0.0025140035 -0.006402142 -0.0090685375 -0.014650272
000150 98 ac 4d bc 94 44 3d bc 5e 95 69 bc 2c 17 77 bc
       -0.012553357 -0.011551995 -0.014256803 -0.015081208
000160 bb 2a eb bb e5 2a 92 ba ae dd c8 3b 50 90 96 3c
       -0.0071767247 -0.00111517 0.006129942 0.01837936
000170 0b b3 0a 3d 68 98 49 3d 4a 74 74 3d 0e 0c 8e 3d
       0.033862155 0.04921761 0.059681214 0.06935893
000180 d0 44 0a 3d c7 c1 1e 3d aa 19 72 3d ab f4 36 3d
       0.03375703 0.03875902 0.059106506 0.044666927
000190 44 2a 21 3d 03 54 f2 3c 6a 78 d0 3c de 19 9f 3c
       0.03934695 0.029581076 0.025448043 0.019421514
0001a0 5b ba 69 3c 1f 1a 4d 3c 8c 9f 72 3b 10 f0 84 3b
       0.014265622 0.012518435 0.0037021367 0.004056938
0001b0 af c9 88 bb 8e a9 0f 39 3c b3 b8 ba 91 c5 aa bb
       -0.004174433 0.00013700707 -0.0014091502 -0.00521154
0001c0 38 68 32 bc f4 ed 89 bb ea ab cb bb e2 6d 88 bb
       -0.0108891055 -0.0042092744 -0.006215562 -0.0041634897
0001d0 cc 08 06 ba 5f 68 af 3b 00 1d 6e 3c 5f 95 98 3c
       -0.0005113005 0.005353018 0.014533281 0.018625913
0001e0 18 7a 08 3d b6 7e 22 3d 9b c2 65 3d 98 2f 23 3d
       0.033319563 0.039671622 0.056093793 0.03984031
0001f0 3f e3 f2 3c 6c 31 9d 3c ae 49 5d 3c 17 22 b7 3b
       0.029649375 0.019188605 0.013506336 0.0055887806
000200 1f ab 2c 3a 5f a1 fc ba 48 8d db bb e7 68 0a bc
       0.00065867783 -0.0019274167 -0.0067001916 -0.008447862
000210 ce 08 59 bc 7d 1c 46 bc 7a 62 44 bc c7 ba 34 bc
       -0.013246728 -0.012091753 -0.011986369 -0.011030859
000220 eb 41 3e bc cb a9 4d b9 e1 df b7 3b a4 26 85 3c
       -0.011612396 -0.00019613576 0.0056114052 0.016253777
000230 b2 ec f4 3c d5 77 3e 3d 73 60 73 3d 25 f3 8a 3d
       0.029898021 0.046501 0.059418153 0.067846574
000240 70 ed a9 3c 68 2b 08 3d 48 b0 33 3d 27 67 76 3d
       0.020743102 0.03324452 0.043869287 0.060156967
000250 ec dd 42 3d f3 1e 2d 3d 17 91 05 3d c5 d2 ec 3c
       0.047574922 0.042265844 0.03260907 0.028909096
000260 5b 1b b5 3c cf 11 87 3c 60 97 46 3c dd 09 b9 3b
       0.02210777 0.016487984 0.012121052 0.0056469277
000270 65 0a b2 3b 68 fd 94 bb 82 c7 22 bb 16 01 77 bb
       0.005433368 -0.00454681 -0.0024838154 -0.0037689856
000280 ed ec de bb 65 5f 42 bc e8 56 da bb 80 c4 f7 bb
       -0.006803146 -0.011863564 -0.006663192 -0.0075612664
000290 88 34 8b bb a6 67 d0 b9 9d ce bc 3b 74 4f 66 3c
       -0.0042482056 -0.00039750076 0.005761935 0.014057029
0002a0 67 f1 c3 3c cf 54 09 3d 33 95 21 3d 11 ed 65 3d
       0.02391882 0.033528145 0.039448928 0.056134287
0002b0 1a 7a 1e 3d 30 9e f0 3c 26 66 9a 3c ce 6b 63 3c
       0.038690664 0.029372305 0.018847536 0.013880683
0002c0 35 19 b2 3b 8d 01 ff 39 b3 ef 6e bb af 16 cf bb
       0.005435134 0.00048638546 -0.003645879 -0.0063198428
0002d0 3d f1 f8 bb 0e ba 5e bc 25 ea 51 bc 1c 3f 0f bc
       -0.007597117 -0.013594164 -0.012812172 -0.008743074
0002e0 3d b2 fc bb 90 95 dc bb 44 f7 98 3b 8e 02 67 3c
       -0.0077116773 -0.0067316964 0.0046681482 0.01409973
0002f0 65 46 da 3c 3a 2f 2e 3d 32 71 6b 3d 30 64 89 3d
       0.026644895 0.042525508 0.057481 0.067085624
000300 ac 26 52 3c 80 88 ab 3c fa 34 14 3d 2d c1 35 3d
       0.012826603 0.020939112 0.036183335 0.04437368
000310 d5 2d 75 3d 7f 3f 47 3d 40 6c 2c 3d 02 87 0d 3d
       0.059858162 0.04864454 0.042095423 0.03455258
000320 73 51 f7 3c b3 8f c0 3c 9d 18 86 3c e1 0b 59 3c
       0.030190205 0.023506021 0.016369158 0.013247461
000330 a8 56 dd 3b 01 0b b6 3b ee f0 e4 bb 35 3a 8c bb
       0.006754715 0.005555511 -0.006986729 -0.0042793998
000340 e1 4d 72 bb 0b bd da bb 14 55 4d bc 39 92 ee bb
       -0.003697269 -0.0066753677 -0.012532491 -0.0072806147
000350 0f 69 e7 bb 59 5c 4c bb 24 e2 a0 39 3d d9 b4 3b
       -0.0070620845 -0.0031182973 0.00030686066 0.005519061
000360 6e 70 9e 3c a5 23 c4 3c e7 bc 0a 3d 65 62 26 3d
       0.01934072 0.023942778 0.033871558 0.04062118
000370 68 a1 61 3d 99 83 1f 3d d0 b9 f1 3c 16 09 9d 3c
       0.05508557 0.03894386 0.029507548 0.019169372
000380 1d 64 60 3c 9d 09 b5 3b dd 42 45 ba af 8c 1a bb
       0.013695744 0.0055248276 -0.0007524917 -0.002358239
000390 ab 7c b0 bb da 68 db bb b1 4c 59 bc d2 3f 13 bc
       -0.0053859553 -0.006695849 -0.013262914 -0.008987384
0003a0 f4 9a b1 bb 68 d5 2a bb 32 5a 03 bb d1 16 68 3c
       -0.005420083 -0.0026067141 -0.0020042774 0.014165596
0003b0 35 d3 cb 3c 25 0e 22 3d 3a 13 5c 3d fe 2b 86 3d
       0.024880985 0.03956427 0.053729273 0.065513596
0003c0 19 10 c6 3b 78 9b 89 3c 16 42 d4 3c 8e 8d 21 3d
       0.0060443995 0.016797766 0.025910418 0.039441638
0003d0 6b 0b 3f 3d 89 3b 78 3d 4f 0e 46 3d 34 31 38 3d
       0.04664175 0.060603652 0.04835349 0.0449688
0003e0 96 c3 13 3d f5 38 05 3d 26 88 c1 3c c5 aa 8c 3c
       0.036075197 0.03252502 0.023624491 0.017171273
0003f0 e0 ae 63 3c bf 86 e7 3b 49 2e 24 3b 2a be f3 bb
       0.013896674 0.0070656235 0.0025052002 -0.007438441

Linear_Seasonal.bias f4 [24]
000000 5c 17 3a bd c1 61 91 bd 44 c1 44 3b 63 6c 9b 3d
       -0.045432433 -0.07098723 0.0030022422 0.075890325
000010 33 35 af 3d ba bb 4d 3d 6e 00 61 bd 1a 78 f4 bd
       0.08555069 0.050227858 -0.05493205 -0.1193697
000020 0c d7 96 bd c6 6f 95 bd bd 61 e6 bd fb 69 8e bd
       -0.07365236 -0.0729671 -0.11249111 -0.06953808
000030 8f 69 72 bc 53 ce 5a 3c 9d 4f 47 bd e5 2b f3 bc
       -0.014795675 0.013354856 -0.04865991 -0.029684016
000040 8e 4e 6d 3d ee 01 dc bb 9f d2 6c bc f4 57 87 3c
       0.057936244 -0.006714097 -0.014454513 0.016521432
000050 da 38 4c bb 79 91 cc bd 24 85 db bd 77 2c 1a bd
       -0.0031161816 -0.09988684 -0.10718754 -0.03764006

Linear_Trend.weight f4 [24, 48]
000000 0a 67 0f 3c cd db fd 3b de c1 da 3b 63 48 bc 3b
       0.008752594 0.0077471496 0.006675943 0.005745934
000010 bc 4b 9e 3b b9 2e 82 3b 7a 5d 4d 3b e7 8a 1a 3b
       0.0048308056 0.003972855 0.0031336234 0.0023581327
000020 ad 84 dc 3a 29 4c 88 3a 31 7f 0f 3a bc 68 1a 39
       0.0016824208 0.0010398674 0.000547397 0.00014725601
000030 7f 93 0e 39 6d ad 0e b9 25 6d 56 b9 10 c4 66 b9
       0.00013597122 -0.00013606781 -0.0002044929 -0.00022007548
000040 1c 0c f4 b8 c4 4e 25 38 bd 7f 9a 39 80 dd 31 3a
       -0.00011637082 3.941242e-05 0.0002946834 0.000678502
000050 a5 e3 92 3a 73 af e6 3a 16 f3 1d 3b b3 6f 5f 3b
       0.0011206759 0.0017599895 0.002410119 0.0034093678
000060 ff b9 95 3b 95 92 bf 3b b7 ae f0 3b 9c 2f 1a 3c
       0.0045692916 0.0058463314 0.0073450464 0.009410765
000070 b0 4e 3f 3c 57 39 6b 3c e3 df 8e 3c a2 39 ac 3c
       0.011676475 0.014356933 0.017440742 0.021023575
000080 06 71 cd 3c f2 e2 f1 3c 9c b7 0d 3d 1c b4 22 3d
       0.025078308 0.029527161 0.03459893 0.039722547
000090 4f 70 35 3d 15 c2 44 3d 64 fb 52 3d 6f 7c 5f 3d
       0.04429656 0.048036654 0.051509276 0.05456203
0000a0 bf 58 6a 3d d7 5e 73 3d 73 0b 7b 3d 2c bd 80 3d
       0.05721354 0.05941662 0.061290216 0.06286082
0000b0 6d 5f 83 3d e8 90 85 3d bb 64 87 3d 2d 01 89 3d
       0.064146854 0.06521779 0.0661101 0.066896774
0000c0 dc 92 dd 3b 03 8e c8 3b 05 c7 b1 3b d6 43 99 3b
       0.006761892 0.0061204447 0.0054253363 0.004677276
0000d0 38 d2 84 3b 33 68 61 3b 09 30 3b 3b af 64 17 3b
       0.0040533803 0.0034394383 0.0028562567 0.0023100784
0000e0 2b 22 ef 3a 0d 6d b9 3a 18 3c 8f 3a 65 c1 66 3a
       0.0018244436 0.001414688 0.0010927944 0.0008802622
0000f0 76 d7 5e 3a e9 cc 93 3a 82 71 83 3a a5 7a 86 3a
       0.0008500734 0.0011276278 0.0010028335 0.001025994
000100 80 3b 93 3a bd 71 b1 3a 00 a3 d3 3a 3a 9a 01 3b
       0.0011232942 0.0013537925 0.00161466 0.0019775764
000110 4b 36 20 3b 88 4b 46 3b f9 23 78 3b 65 b2 95 3b
       0.0024446424 0.0030257422 0.0037863238 0.0045683854
000120 67 62 bb 3b b7 4b e5 3b aa 09 0a 3c 2b 12 26 3c
       0.0057185176 0.0069975513 0.008425156 0.0101361675
000130 e3 15 4b 3c 45 d4 73 3c 4f a4 91 3c 07 d5 ac 3c
       0.012395355 0.014882152 0.017778544 0.021097673
000140 54 ee cb 3c b1 e2 ee 3c 51 63 0b 3d e7 64 1f 3d
       0.024893917 0.02916083 0.034030262 0.038914587
000150 48 3d 31 3d 93 c1 40 3d 47 51 4d 3d 51 3b 59 3d
       0.043271333 0.047059607 0.05012634 0.053035084
000160 4a bb 63 3d d6 d7 6c 3d 84 94 74 3d 38 34 7b 3d
       0.055598535 0.057823025 0.059711948 0.061329097
000170 43 5d 80 3d ae aa 82 3d 73 9e 84 3d 06 4b 86 3d
       0.06267788 0.06380211 0.06475534 0.06557278
000180 ed 0d d8 3b a3 57 c6 3b bf f3 b4 3b 5e 45 a2 3b
       0.006593457 0.0060529276 0.005522221 0.004952117
000190 3a 92 8d 3b 40 b3 79 3b 07 42 58 3b b8 b5 39 3b
       0.00432041 0.0038101226 0.003299834 0.0028337073
0001a0 62 fb 1d 3b 8a 50 05 3b 10 55 e9 3a b6 55 cf 3a
       0.0024106135 0.0020342194 0.001780184 0.001581839
0001b0 76 50 d1 3a 2a d9 df 3a 67 41 0c 3b 0e 58 0a 3b
       0.0015969414 0.001707827 0.0021401288 0.0021109614
0001c0 5e 77 13 3b ac 10 20 3b ef 15 35 3b e7 4b 4d 3b
       0.0022501568 0.0024424 0.0027631482 0.003132576
0001d0 fa ff 69 3b 5c ce 88 3b 08 0a a0 3b 64 9d bd 3b
       0.0035705552 0.0041749906 0.0048840083 0.0057865847
0001e0 f2 3b dc 3b 11 d5 02 3c 80 17 1a 3c d8 b3 34 3c
       0.006721013 0.007985369 0.009405017 0.011029206
0001f0 03 34 53 3c 3f f3 7a 3c 41 05 93 3c 4f f3 ab 3c
       0.0128908185 0.015316783 0.017946841 0.020990042
000200 68 3c c8 3c 74 60 e8 3c b6 fb 05 3d ce b5 19 3d
       0.024442866 0.028366305 0.032710753 0.037526898
000210 24 2f 2b 3d 7b 6c 3a 3d 23 8f 47 3d 52 f8 51 3d
       0.041793004 0.04551361 0.04872049 0.051262207
000220 af f2 5b 3d a8 b7 64 3d 30 74 6c 3d ad 1f 73 3d
       0.053698238 0.05583921 0.057727993 0.05935638
000230 99 e8 78 3d 3e c7 7d 3d fe ee 80 3d 81 b7 82 3d
       0.060768697 0.06195759 0.06295584 0.06382657
000240 19 66 c2 3b 9c b1 b3 3b 9b a3 a6 3b 27 85 9a 3b
       0.005932581 0.005483819 0.0050854213 0.00471558
000250 dc e9 8c 3b 53 96 7a 3b e5 2b 62 3b 4e 80 4a 3b
       0.004300339 0.0038236573 0.0034511026 0.003089923
000260 a6 3a 36 3b 54 9a 23 3b 1b 2d 17 3b e1 50 11 3b
       0.0027805953 0.0024963813 0.0023067656 0.0022173452
000270 7b dc 14 3b f7 1b 20 3b 9c 5f 31 3b ab 4e 54 3b
       0.0022714424 0.002443073 0.0027065044 0.0032395523
000280 2e 9f 59 3b 4e 08 69 3b 74 68 7b 3b de cc 8b 3b
       0.003320645 0.0035557928 0.003836182 0.0042663654
000290 d0 db 9a 3b 7d dd ad 3b 0f 80 c5 3b 13 1e e1 3b
       0.0047259107 0.0053059445 0.0060272287 0.00687004
0002a0 17 83 01 3c 5f 95 12 3c c3 97 29 3c 57 4f 44 3c
       0.007904789 0.008946746 0.010351124 0.011981807
0002b0 2a b5 61 3c cb 9d 81 3c 79 f2 96 3c cc 0e ae 3c
       0.013776103 0.015822312 0.018426167 0.02124729
0002c0 90 87 c8 3c 42 55 e6 3c af ab 04 3d ae 69 16 3d
       0.024478704 0.028116826 0.032390293 0.036721878
0002d0 e3 87 26 3d 98 dd 34 3d 79 53 41 3d b8 15 4c 3d
       0.040656935 0.04415664 0.047198746 0.0498254
0002e0 08 a1 54 3d ca e0 5c 3d b1 4a 64 3d dc f2 6a 3d
       0.051911384 0.053925313 0.055735294 0.057360515
0002f0 aa c5 70 3d 76 db 75 3d 47 3b 7a 3d 90 0e 7e 3d
       0.058782257 0.060023747 0.061091688 0.062025607
000300 ff 2e b9 3b 45 f5 b0 3b 70 e4 a4 3b cd e3 9a 3b
       0.0056513543 0.005400332 0.0050321147 0.004726863
000310 23 e0 91 3b a8 39 87 3b fb c1 74 3b 23 cd 62 3b
       0.004451768 0.004126746 0.0037347067 0.0034607134
000320 c2 5c 52 3b 61 f2 43 3b d1 f5 39 3b 81 4f 35 3b
       0.0032098745 0.0029899108 0.0028375278 0.0027665796
000330 2c 73 3c 3b f8 84 47 3b 1e 3f 5c 3b aa 8a 72 3b
       0.0028755171 0.0030444246 0.0033606957 0.003700892
000340 a6 7f 8d 3b a1 7d 92 3b e8 2c 9c 3b 02 6f a8 3b
       0.0043181954 0.0044705425 0.0047660954 0.0051401863
000350 79 a5 b8 3b 98 ff ca 3b 98 f8 e0 3b 0c 60 fc 3b
       0.0056349603 0.00619502 0.006865572 0.0077018794
000360 1e c9 0d 3c db 59 20 3c 50 87 33 3c 7b d6 4d 3c
       0.008653907 0.009787048 0.010957554 0.012563343
000370 b4 70 6b 3c 79 27 86 3c fe d0 9a 3c 22 e7 b2 3c
       0.014370132 0.016376244 0.018898483 0.021838728
000380 1c 17 cc 3c a4 c1 e7 3c e5 e8 02 3d 05 1a 13 3d
       0.024913363 0.028290577 0.031960387 0.035913486
000390 2b 12 22 3d 20 47 2f 3d d6 10 3b 3d 60 42 45 3d
       0.039568108 0.04279244 0.045670353 0.048159003
0003a0 16 1b 4e 3d 10 e7 54 3d 73 99 5b 3d 5d bb 61 3d
       0.0503188 0.05197817 0.053613137 0.055110324
0003b0 b5 5d 67 3d 7f 48 6c 3d d5 b2 70 3d 81 a4 74 3d
       0.05648585 0.057686325 0.058764298 0.059727196
0003c0 61 40 a5 3b fb 64 a0 3b 8d f9 9a 3b 97 5b 92 3b
       0.005043075 0.0048948503 0.004729456 0.0044664848
0003d0 c4 d6 8b 3b d1 b4 85 3b 63 1e 7c 3b 67 4a 69 3b
       0.0042675454 0.004080393 0.003847026 0.0035597326
0003e0 a9 95 5e 3b 13 ee 53 3b c9 11 4e 3b 4d 4e 4c 3b
       0.0033963716 0.0032337948 0.0031443706 0.00311746
0003f0 5d 48 55 3b ec 3a 64 3b 5e cb 77 3b 67 ab 88 3b
       0.0032544353 0.003482516 0.0037810425 0.0041708234

Linear_Trend.bias f4 [24]
000000 68 30 4c bd cd 53 92 3d 98 f9 a4 bd 56 cd 95 bd
       -0.04985085 0.0714489 -0.08055419 -0.07314555
000010 00 0d 1e 3d 74 a5 66 bd 9c 5b fc bc fb 84 ee 3d
       0.038586617 -0.056310132 -0.030805402 0.11646458
000020 2a 57 9f 3d 09 1a 26 3d fa e4 ee 3d f9 a3 99 bd
       0.07780297 0.040552173 0.116647676 -0.075019784
000030 56 19 2c 3d 2d 8e 4c bc bd 8b 82 3d 9a 23 62 3d
       0.04201635 -0.012485069 0.06374309 0.055209734
000040 e1 6d ab bd 7a 1e 3f 3d 31 b3 de 3c 86 36 a7 bd
       -0.08370567 0.046659924 0.027185054 -0.081646964
000050 88 84 4a 3a b1 23 a7 3d 30 53 dc 3d d2 55 d0 bc
       0.0007725437 0.081611045 0.10758054 -0.025431547
