checkpoints/long_term_forecast_ETTh1_96_336_DLinear_ETTh1_ftM_sl96_ll48_pl336_dm512_nh8_el2_dl1_df2048_fc3_ebtimeF_dtTrue_Exp_0/checkpoint.pth (torch, 262671 bytes, 4 tensors)

Linear_Seasonal.weight f4 [336, 96]
0	0x3d143c4c	0.036190316
1	0x3cf62411	0.030046495
2	0x3c52b02b	0.0128593845
3	0xbb428c40	-0.0029685646
4	0xbc6cbe1a	-0.014449621
5	0xbc999631	-0.018748375
6	0xbc7cd329	-0.015431204
7	0xbc58e2bd	-0.013237652
8	0xbc4aa012	-0.012367265
9	0xbc0bf99f	-0.008543401
10	0xbb5eceed	-0.003399785
11	0xb9a7f1bb	-0.00032032825
12	0xbae7a7c5	-0.0017673901
13	0x3a5345fc	0.000805944
14	0x3ac69ba0	0.0015152581
15	0xbab01aa3	-0.0013435673
16	0xbb9fda3c	-0.0048783105
17	0xbb88792b	-0.004164835
18	0xbbca9182	-0.0061818967
19	0xbbc09b4e	-0.0058778888
20	0x3ba0bb86	0.004905167
21	0x3c66d7f9	0.014089578
22	0x3ca78f25	0.020453999
23	0x3ce90578	0.02844499
24	0x3d0dcfb0	0.034621894
25	0x3d012188	0.03152612
26	0x3cce6056	0.02519242
27	0x3c9ee2e5	0.019395301
28	0x3c4220d8	0.011848651
29	0xbb0eaefe	-0.0021771784
30	0xbb7d6661	-0.003866576
31	0xbb7ba898	-0.003840005
32	0xbb90d92b	-0.0044204197
33	0xbb0b4dc8	-0.0021256078
34	0x3adae588	0.0016700486
35	0x3abe03fb	0.0014497036
36	0xba90aa93	-0.0011037163
37	0x39e64994	0.00043923839
38	0x39dfc0e0	0.00042677578
39	0xbb57c3c4	-0.0032923082
40	0xbc0c7638	-0.008573107
41	0xbc109deb	-0.008826713
42	0xbc222b3d	-0.009898004
43	0xbbd49027	-0.006486911
44	0x3ba77bd6	0.005111198
45	0x3c77a786	0.015115624
46	0x3cbdd253	0.02317158
47	0x3d01c41d	0.03168117
48	0x3d1c4867	0.038154986
49	0x3d11142f	0.03541964
50	0x3cef77db	0.029231956
51	0x3cc832f3	0.024438357
52	0x3c798965	0.015230511
53	0xba6f355b	-0.0009125077
54	0xbba0e7f1	-0.004910462
55	0xbbc7fd99	-0.0061032292
56	0xbc091413	-0.0083666025
57	0xbb9476d6	-0.004530768
58	0xba76fbdc	-0.0009421685
59	0x39cc2451	0.0003893697
60	0xbaa628ee	-0.0012676993
61	0x3ab24c67	0.0013603092
62	0x3b2672fd	0.0025398128
63	0xba10eb95	-0.00055282685
64	0xbb82217e	-0.0039712777
65	0xbba3bc89	-0.0049968404
66	0xbc0264ad	-0.007958573
67	0xbbf71195	-0.0075399377
68	0x3b204b5b	0.0024458978
69	0x3c33a2ad	0.010964078
70	0x3c9a581c	0.018840842
71	0x3cdf2a6a	0.027241904
72	0x3d099aaa	0.033594765
73	0x3cfd70ac	0.030937515
74	0x3ccf1cba	0.025282253
75	0x3c9b5253	0.018960154
76	0x3c1cf885	0.009580736
77	0xbb92dc6f	-0.004481844
78	0xbc0188a6	-0.007906115
79	0xbc13bee6	-0.009017682
80	0xbc3f43f2	-0.011673914
81	0xbc3e04d6	-0.011597833
82	0xbc3c94de	-0.011510102
83	0xbc54a558	-0.012978874
84	0xbc82b625	-0.015955994
85	0xbc8904c8	-0.016725913
86	0xbc926a5f	-0.017872987
87	0xbca514ea	-0.020151574
88	0xbcbf2b34	-0.02333603
89	0xbcbd871c	-0.023135714
90	0xbcbe2495	-0.023210803
91	0xbcc41da8	-0.023939922
92	0xbc0581aa	-0.00814859
93	0x3ca7f11e	0.020500716
94	0x3d21fc84	0.03954746
95	0x3d442ac9	0.047892366
96	0x3d00db1f	0.03145897
97	0x3d2911a2	0.04127658
98	0x3d0ca5d0	0.03433782
99	0x3cb23b5c	0.02175682
100	0x3bdfa252	0.00682477
101	0xbc03dae6	-0.008047795
102	0xbc775e5a	-0.015098179
103	0xbc61d2a3	-0.01378313
104	0xbc4435d9	-0.011975729
105	0xbc45b6cd	-0.012067509
106	0xbbe5c54d	-0.0070120455
107	0xba3cb592	-0.0007198687
108	0x3a80fa88	0.0009840289
109	0xbaa664f2	-0.0012694879
110	0x3b1b0d88	0.0023659188
111	0x3b2779e0	0.002555482
112	0xbad366ee	-0.0016128698
113	0xbba95a67	-0.0051682475
114	0xbba38616	-0.0049903495
115	0xbc04dc23	-0.008109125
116	0xbbf4046f	-0.0074468176
117	0x3b43cbdf	0.0029876155
118	0x3c3f74dc	0.011685576
119	0x3ca14dcc	0.019690417
120	0x3cf65756	0.030070942
121	0x3d14ec38	0.03635809
122	0x3d06dcd3	0.032925438
123	0x3cd6bcf3	0.026213145
124	0x3ca2ffbf	0.01989734
125	0x3c348243	0.011017385
126	0xbb004c93	-0.0019576892
127	0xbb9f4292	-0.0048602307
128	0xbb8facc3	-0.0043846085
129	0xbbb038a4	-0.005377846
130	0xbb01af48	-0.0019788314
131	0x3b0e5d88	0.002172323
132	0x3acb5e60	0.0015515797
133	0xba9c4a1f	-0.0011923945
134	0x3a6a0c39	0.0008928213
135	0x39dd90fa	0.0004226042
136	0xbba4a294	-0.0050242636
137	0xbc2178aa	-0.009855429
138	0xbc2a34c1	-0.010388554
139	0xbc49a4ec	-0.012307387
140	0xbc0e6064	-0.0086899735
141	0x3b207754	0.0024485188
142	0x3c5cad6f	0.013469084
143	0x3cbbb1ef	0.022911994
144	0x3d0a8ef4	0.033827737
145	0x3d24d5ee	0.04024308
146	0x3d14d7dd	0.036338676
147	0x3cff6be0	0.031179368
148	0x3ccfa93e	0.025349256
149	0x3c79acb6	0.015238931
150	0xbaa26cba	-0.0012392022
151	0xbbbc63eb	-0.005749216
152	0xbbf759d8	-0.007548552
153	0xbc0dc494	-0.008652825
154	0xbba4f74c	-0.005034363
155	0xb9e73072	-0.00044095848
156	0x380696fd	3.208871e-05
157	0xbac2196b	-0.00148086
158	0x3b061638	0.002046002
159	0x3b2f44d8	0.0026743915
160	0xba947181	-0.0011325331
161	0xbba2bb2c	-0.0049661603
162	0xbbeb81c6	-0.007187101
163	0xbc33f498	-0.010983609
164	0xbc1f5702	-0.009725334
165	0xb95fc24d	-0.0002133932
166	0x3c161e31	0.009162472
167	0x3c956c25	0.018240044
168	0x3cee71b2	0.029106949
169	0x3d105f54	0.035247162
170	0x3d04eef5	0.03245445
171	0x3cd865da	0.026415754
172	0x3ca13759	0.019679712
173	0x3c153ec3	0.009109202
174	0xbb9cb1c2	-0.0047819326
175	0xbc050050	-0.00811775
176	0xbc1dea0b	-0.00963832
177	0xbc42504f	-0.011859967
178	0xbc311f19	-0.010810637
179	0xbc23132a	-0.0099533
180	0xbc418c9b	-0.011813308
181	0xbc68e13b	-0.014213855
182	0xbc601df0	-0.013679013
183	0xbc719610	-0.01474525
184	0xbc9b1e19	-0.01893525
185	0xbcb27860	-0.021785915
186	0xbcace532	-0.021105383
187	0xbcaf4a06	-0.021397602
188	0xbc7a9388	-0.015293963
189	0x3c557679	0.013028734
190	0x3d1528e8	0.036415964
191	0x3d3bd7f8	0.04586026
192	0x3cbd0ee4	0.02307839
193	0x3d2046f9	0.039130185
194	0x3d32006f	0.043457445
195	0x3d1f597d	0.038903702
196	0x3ce54b18	0.027989909
197	0x3c652773	0.013986456
198	0xb997a429	-0.00028923273
199	0xbc56873a	-0.013093764
200	0xbc5667de	-0.013086287
201	0xbc4e5611	-0.012593762
202	0xbc3842a5	-0.011246358
203	0xbb9ff5fa	-0.0048816176
204	0xb916891b	-0.0001435619
205	0x3aa18952	0.001232425
206	0xb8845320	-6.309734e-05
207	0x3b21d180	0.0024691522
208	0x3ad22e80	0.0016035587
209	0xbb02194f	-0.001985151
210	0xbbc28bd7	-0.0059370804
211	0xbbf600d7	-0.0075074243
212	0xbc212e55	-0.009837707
213	0xbc1a4e07	-0.009418017
214	0x3994e1d3	0.00028397012
215	0x3c3b426a	0.011429409
216	0x3cb99d9d	0.022658164
217	0x3d0453f0	0.03230661
218	0x3d1a011a	0.037598707
219	0x3d0afaf7	0.033930745
220	0x3cdba442	0.026811723
221	0x3c9e6397	0.019334598
222	0x3c2e9903	0.010656598
223	0xbb22b351	-0.002482612
224	0xbbc315cc	-0.005953526
225	0xbbc181ef	-0.005905382
226	0xbbb68a59	-0.0055706915
227	0xbb04c8b6	-0.0020261235
228	0x3ac7169b	0.0015189232
229	0x3a90402a	0.001100545
230	0xbaa4ffa8	-0.0012588399
231	0x37bc19fa	2.2423443e-05
232	0xbab667eb	-0.0013916468
233	0xbbc1c5dd	-0.0059134797
234	0xbc355489	-0.011067518
235	0xbc6015aa	-0.01367704
236	0xbc60b1ce	-0.013714267
237	0xbc3d1d38	-0.011542611
238	0x3a39c550	0.0007086592
239	0x3c63dae2	0.013907166
240	0x3cd843ec	0.026399575
241	0x3d14b678	0.03630683
242	0x3d280f47	0.041030195
243	0x3d1b9840	0.037986994
244	0x3d051d8c	0.03249888
245	0x3ccdb949	0.025112765
246	0x3c75fed4	0.015014369
247	0xb9fb7f74	-0.0004796941
248	0xbbef92d9	-0.007311207
249	0xbc02b104	-0.007976774
250	0xbc21d70d	-0.009877932
251	0xbb9c64a5	-0.00477274
252	0xbaeaaafa	-0.0017903738
253	0xba268c40	-0.00063532963
254	0xbaab800f	-0.0013084429
255	0x3ab1f660	0.0013577454

Linear_Seasonal.bias f4 [336]
0	0x3d599b08	0.053126365
1	0x3be17b99	0.006881189
2	0xbd8ed1f7	-0.06973641
3	0x3c930b01	0.017949583
4	0x3cc06667	0.02348633
5	0xbcab3e15	-0.020903626
6	0xbb36ae2f	-0.0027874818
7	0x3d61a106	0.055085205
8	0x3d887ebe	0.06664799
9	0x3cc3b0b9	0.023887979
10	0x3c07be14	0.008285064
11	0xbcdfd133	-0.027321434
12	0x3d62be21	0.055357102
13	0xbda8aa5b	-0.08235618
14	0x3ce5cdbe	0.028052207
15	0xbd9cd23b	-0.07657286
16	0x3d16007e	0.036621563
17	0x3cb5b0fc	0.02217912
18	0xbd9a1bc7	-0.07524829
19	0xbc09d1b5	-0.008411814
20	0xbd8145e3	-0.06312158
21	0xbc58aaef	-0.0132243475
22	0x3d2550b9	0.040360186
23	0xbd24c36a	-0.040225424
24	0x3d86fae7	0.065908246
25	0x3c80c4a1	0.01571876
26	0x3d23cffc	0.03999327
27	0x3c493e85	0.012282972
28	0xbd405618	-0.046957105
29	0xbcd469b2	-0.025929306
30	0xbd85514d	-0.065096475
31	0xbd618a1e	-0.05506336
32	0xbd216ba1	-0.039409284
33	0x3cbc5e86	0.022994291
34	0x3cec7e27	0.028868748
35	0x3bb9ad4f	0.005666412
36	0x3daa99ad	0.083300926
37	0xbbe1aff0	-0.0068874285
38	0x3d6779ca	0.05651263
39	0xbc6bcf61	-0.014392705
40	0xbd79a8ec	-0.060952112
41	0xbce46307	-0.027879251
42	0x3d6db0c8	0.05802992
43	0xbc9cfddd	-0.01916402
44	0xbcf44731	-0.029819103
45	0xbd7c49d3	-0.06159384
46	0x3dba2032	0.09088172
47	0x3c45b132	0.012066172
48	0xbb5e713a	-0.0033942
49	0x3c7ac847	0.015306539
50	0x3c5e92c4	0.013584796
51	0x3bf27da3	0.007400231
52	0xbd3dc99b	-0.046334844
53	0xbd232abe	-0.039835684
54	0xbc80bb46	-0.015714299
55	0xbb8f4f78	-0.004373487
56	0x3d57b7f0	0.05266565
57	0x3d19f9be	0.03759169
58	0xbaaa8506	-0.0013009615
59	0xbd423f2a	-0.04742352
60	0x3c42761e	0.011868982
61	0xbd3ff47e	-0.046864025
62	0x3d034709	0.032050166
63	0xbd487b25	-0.048945565
64	0xbd0be888	-0.034157306
65	0xbd4f6e26	-0.050642155
66	0x3d2ece45	0.042677183
67	0x3d5f2b51	0.05448467
68	0xbc872857	-0.016498728
69	0xbd4f6edb	-0.05064283
70	0x3c1bc756	0.009507975
71	0xbd385da2	-0.04501117
72	0xbd1ff773	-0.039054345
73	0x3d099ec1	0.033598665
74	0x3c06d142	0.008228602
75	0x3d49a46b	0.049229067
76	0x3cb79835	0.022411445
77	0x3bb9b6bc	0.0056675356
78	0xbd2e4a24	-0.042551175
79	0xbdd7b29b	-0.10532113
80	0x3d90989d	0.07060359
81	0x3d97dbab	0.07414945
82	0xbd3cf7ca	-0.046134748
83	0x3d697953	0.05700047
84	0x3d9c391b	0.076280795
85	0xbd43a226	-0.04776206
86	0x3da256c4	0.079267055
87	0xbcba3042	-0.02272809
88	0x3d7e443b	0.06207679
89	0x3cd4e19f	0.02598649
90	0xbdcf92f1	-0.10135449
91	0x3d51b4e1	0.05119789
92	0x3d884927	0.06654578
93	0x3c712073	0.014717209
94	0x3c35e67b	0.011102314
95	0x3d315303	0.043292057
96	0xbc4b233a	-0.012398535
97	0xbb803871	-0.0039129783
98	0x3d4e8bb4	0.0504262
99	0x3d12028c	0.03564696
100	0x3d4b84de	0.04968726
101	0xbc7a2f5c	-0.01527008
102	0xbd02d821	-0.031944398
103	0xbdc52036	-0.096252844
104	0x3d6b196b	0.057397287
105	0x3d6d7e2f	0.057981666
106	0xbd12e944	-0.03586699
107	0x3bb79619	0.00560261
108	0xbd8f94eb	-0.07010826
109	0xbd84724b	-0.06467112
110	0x3c934dec	0.017981492
111	0x3d9e7848	0.077377856
112	0x3da38f0a	0.07986267
113	0xbcd5c06b	-0.026092729
114	0x3d8f7fe3	0.07006814
115	0x3c0e1c77	0.008673779
116	0xbd06a98d	-0.03287654
117	0x3db3fcd6	0.08788459
118	0x3b97c102	0.0046311626
119	0xbd63e582	-0.055638798
120	0xbd33771d	-0.043814767
121	0x3c9a5d4b	0.018843314
122	0x3d937e39	0.072018094
123	0x3c9fddaf	0.019514887
124	0xbb866fb7	-0.004102673
125	0x3cc87875	0.0244715
126	0x3d817333	0.06320801
127	0xbc5b1068	-0.013370611
128	0xbdbcc41b	-0.09217092
129	0x3da2302b	0.079193436
130	0xbd8f7288	-0.07004267
131	0x3b1a4718	0.002354091
132	0xbd46ff01	-0.048583034
133	0xbbe14be5	-0.0068755024
134	0xbd1fca4e	-0.039011292
135	0xbdd9bb5c	-0.10631439
136	0xbbde0a9a	-0.006776166
137	0x3d0569b6	0.032571517
138	0xbd398a49	-0.045297895
139	0xbd7b6866	-0.06137886
140	0x3d85368b	0.06504544
141	0xbd5530e5	-0.052048583
142	0x3c23a363	0.009987685
143	0xbabfd883	-0.0014636669
144	0x3aa46975	0.0012543636
145	0xbb6d3812	-0.003619675
146	0xbd2ae9fe	-0.04172706
147	0x3d6cd457	0.05781969
148	0x3db0bc1a	0.086296275
149	0xbd216ca3	-0.039410245
150	0xbcdd581e	-0.027019557
151	0x3d8319d2	0.06401409
152	0xbb9a45da	-0.004708034
153	0x3d5e9c6f	0.054348405
154	0x3d128365	0.03576984
155	0xbc959583	-0.01825977
156	0xbaa39c9e	-0.0012482589
157	0xbcb1209f	-0.021622
158	0xbcfe4b4e	-0.031041767
159	0x3cf19132	0.02948818
160	0x3bf4e32c	0.00747337
161	0xbb13efe0	-0.0022573397
162	0xbbcf7f17	-0.006332289
163	0xbd812e12	-0.06307615
164	0xbd5b3ec4	-0.053526655
165	0x3c851789	0.016246574
166	0xbd3be303	-0.045870792
167	0xbd5226c8	-0.051306516
168	0xbc3ee631	-0.011651562
169	0xbd056245	-0.03256442
170	0x3db3eef5	0.08785812
171	0xbd4119cd	-0.047143746
172	0x3d7c9214	0.06166275
173	0x3c95544a	0.018228669
174	0xbd38f4b5	-0.045155246
175	0x3c7e0203	0.015503409
176	0xbdb1c23e	-0.08679627
177	0xbd0634ef	-0.032765325
178	0xbdb1a7dd	-0.086745955
179	0xbc40cedb	-0.011768068
180	0xbd30f42a	-0.043201603
181	0xbb56d179	-0.0032778664
182	0xbd22598b	-0.039636176
183	0xbd389984	-0.04506828
184	0xbde3ef50	-0.111296296
185	0xbdaec912	-0.08534445
186	0x3d1eb3f7	0.038745847
187	0xbca3bad4	-0.019986548
188	0x3c9622c3	0.018327123
189	0xbb34544b	-0.0027516063
190	0xbdc4be5a	-0.09606619
191	0xbcf034d9	-0.029322075
192	0xbcf66d06	-0.030081283
193	0xbd8ca801	-0.06867982
194	0xbbcd8dbb	-0.006272999
195	0x3b4b462b	0.0031017165
196	0xbc9a5c13	-0.018842733
197	0xbd320ddd	-0.043470252
198	0xbc52b3f7	-0.01286029
199	0xbc693a9c	-0.014235165
200	0xbd585eb7	-0.052824702
201	0xbda33df2	-0.079707995
202	0xbb5e9441	-0.0033962878
203	0xbc11c580	-0.008897185
204	0xbd0da55d	-0.03458153
205	0x3cdaeb70	0.026723593
206	0xbbe8aa93	-0.007100412
207	0xbcd3f548	-0.025873795
208	0x3d46fa71	0.048578683
209	0x3d2e30b6	0.042526923
210	0xbd298f35	-0.04139634
211	0xbca32c23	-0.019918507
212	0xbcc08201	-0.02349949
213	0x3d84bd68	0.06481439
214	0x3d5beddd	0.05369364
215	0xbcdbc878	-0.02682899
216	0xbd1a2b06	-0.037638687
217	0xbcd540eb	-0.026031932
218	0xbd0f35ef	-0.034963544
219	0xbd2724bd	-0.04080652
220	0xbd4d2599	-0.050084684
221	0xbd80d265	-0.062901296
222	0xbd81d191	-0.063388
223	0xbaa5cdd2	-0.001264984
224	0x3c1859a0	0.009298712
225	0x3c649617	0.0139518
226	0x3c276adb	0.010218347
227	0xbd5dc98e	-0.054147296
228	0xbdc0ac2c	-0.09407839
229	0xbcf0ff27	-0.029418541
230	0xbcc623de	-0.024187025
231	0x3d417a47	0.047235753
232	0x3ca5c851	0.02023712
233	0xbdaeb8f6	-0.08531372
234	0x3c9ec892	0.019382749
235	0xbb0e44dd	-0.0021708526
236	0x3d8e500b	0.06948861
237	0xbd5b1a17	-0.053491678
238	0xbd17023a	-0.036867358
239	0xbb929bff	-0.0044741626
240	0xbd7db008	-0.061935455
241	0x3cdf78b4	0.027279235
242	0xbd9e1781	-0.07719327
243	0x3d409022	0.047012456
244	0xbc24be6f	-0.0100551685
245	0x3cf1cbe6	0.029516172
246	0xbd8197f3	-0.0632781
247	0x3d47e184	0.048799053
248	0xbd9852a9	-0.07437641
249	0x3caeb1fd	0.021325106
250	0x3d3556f3	0.044272374
251	0xbd8e5d94	-0.06951442
252	0x3d804259	0.06262655
253	0x3d2ceb9f	0.042216893
254	0x3d57bc1b	0.052669626
255	0xbd414c9d	-0.047192205

Linear_Trend.weight f4 [336, 96]
0	0x3ce86682	0.028369192
1	0x3cdbcfe8	0.026832536
2	0x3cce4c2e	0.02518281
3	0x3cbbd6f7	0.022929652
4	0x3ca379a9	0.019955473
5	0x3c87e530	0.016588777
6	0x3c532a85	0.012888555
7	0x3c149821	0.0090694735
8	0x3bb74175	0.00559252
9	0x3b2da0c2	0.0026493524
10	0x39a81c73	0.00032064653
11	0xba928a66	-0.0011180162
12	0xbae4a731	-0.0017444846
13	0xbb3a8198	-0.0028458592
14	0xbb82cdd7	-0.003991823
15	0xbb9d1805	-0.004794123
16	0xbbaecec1	-0.0053347056
17	0xbbbd9d56	-0.005786578
18	0xbbc03516	-0.0058657033
19	0xbbbf7012	-0.0058422172
20	0xbbbcef67	-0.0057658437
21	0xbbb45a12	-0.0055039013
22	0xbbaa7eea	-0.0052031176
23	0xbba5aa8a	-0.00505573
24	0xbba63a52	-0.0050728703
25	0xbba1070c	-0.00491417
26	0xbb9e414b	-0.004829561
27	0xbba0f126	-0.0049115596
28	0xbba4e8c5	-0.005032631
29	0xbba21182	-0.0049459348
30	0xbb9fdcbe	-0.0048786094
31	0xbb9a7dec	-0.004714718
32	0xbb8bc468	-0.004265357
33	0xbb6a9c31	-0.0035798664
34	0xbb275f98	-0.0025539156
35	0xba619296	-0.0008604912
36	0x3a92e85f	0.0011208168
37	0x3ad027f8	0.0015881052
38	0x3ad80be0	0.0016483031
39	0x3aec6bed	0.0018037535
40	0x3b028d39	0.00199206
41	0x3b0a0772	0.0021061567
42	0x3b1fdce2	0.002439313
43	0x3b2f7298	0.0026771184
44	0x3b324eff	0.002720773
45	0x3b45984b	0.0030150588
46	0x3b5f930c	0.0034114746
47	0x3b6efe8b	0.0036467637
48	0x3b78faa6	0.0037991195
49	0x3b898b18	0.0041974895
50	0x3b93bf01	0.0045088534
51	0x3b97c746	0.0046319095
52	0x3b9dfa24	0.004821079
53	0x3bace80e	0.0052766865
54	0x3bb66661	0.0055664037
55	0x3bbc8b05	0.005753877
56	0x3bc9ce97	0.0061586606
57	0x3bd98446	0.0066380827
58	0x3beb603a	0.007183102
59	0x3c020b0b	0.007937203
60	0x3c098781	0.008394123
61	0x3be7902f	0.0070667486
62	0x3bb9321b	0.005651725
63	0x3b996931	0.0046817292
64	0x3b82f361	0.003996298
65	0x3b68ac9c	0.0035503274
66	0x3b6af6cf	0.0035852676
67	0x3b7b2ead	0.0038327381
68	0x3b88985b	0.004168553
69	0x3ba12ea7	0.0049188915
70	0x3bbbd72b	0.005732437
71	0x3bd28f20	0.0064257532
72	0x3be6a17c	0.0070382934
73	0x3c02eb97	0.007990739
74	0x3c12571c	0.008931901
75	0x3c212e01	0.009837628
76	0x3c36b7a0	0.011152178
77	0x3c55e629	0.013055363
78	0x3c801154	0.015633263
79	0x3c9a5a3d	0.018841857
80	0x3cbad858	0.022808239
81	0x3cdea238	0.027176961
82	0x3d021217	0.031755533
83	0x3d147f3f	0.036254164
84	0x3d21a093	0.039459776
85	0x3d2afc67	0.041744616
86	0x3d32f78f	0.04369312
87	0x3d397c5b	0.04528461
88	0x3d3e890a	0.04651741
89	0x3d4224f6	0.04739853
90	0x3d449d0a	0.048001327
91	0x3d461206	0.048357032
92	0x3d46e2ad	0.04855602
93	0x3d475805	0.048667926
94	0x3d4785af	0.048711475
95	0x3d477f86	0.0487056
96	0x3cc998d7	0.024609013
97	0x3cbe7025	0.023246834
98	0x3cb38f0d	0.021918798
99	0x3ca5982d	0.020214165
100	0x3c92f607	0.01793958
101	0x3c7896fb	0.015172715
102	0x3c48800f	0.012237563
103	0x3c168163	0.009186122
104	0x3bcaa84b	0.006184613
105	0x3b6ab168	0.0035811309
106	0x3ac0fb19	0.001472327
107	0xb788815d	-1.6272703e-05
108	0xba0f05cf	-0.00054558826
109	0xb98fc5f5	-0.00027422575
110	0xbab317c4	-0.0013663699
111	0xbb265171	-0.0025378133
112	0xbb5a9980	-0.0033355653
113	0xbb817455	-0.0039506354
114	0xbb911668	-0.00442772
115	0xbb96031c	-0.0045780074
116	0xbb97af2c	-0.0046290364
117	0xbb9936a3	-0.0046757027
118	0xbb934a77	-0.004494961
119	0xbb8c282f	-0.004277251
120	0xbb8b9c36	-0.004260565
121	0xbb8e345a	-0.004339737
122	0xbb89ddd1	-0.004207351
123	0xbb8a3406	-0.0042176275
124	0xbb8f99a3	-0.0043823286
125	0xbb94d097	-0.0045414674
126	0xbb9381fc	-0.0045015793
127	0xbb922215	-0.0044596293
128	0xbb8db0f0	-0.004324071
129	0xbb7de3ab	-0.0038740437
130	0xbb523057	-0.003207227
131	0xbb0c5d14	-0.0021417784
132	0xb9aa6b46	-0.00032504852
133	0x3ada6bcd	0.0016664207
134	0x3b050e0c	0.0020302562
135	0x3b0383e4	0.0020067627
136	0x3b0f4892	0.0021863324
137	0x3b19c9fd	0.0023466342
138	0x3b239c46	0.0024964972
139	0x3b3befcb	0.0028676863
140	0x3b4d53e5	0.0031330523
141	0x3b537932	0.0032268283
142	0x3b6c7e1c	0.003608591
143	0x3b84961a	0.004046214
144	0x3b8dcf78	0.0043277107
145	0x3b9482d3	0.004532197
146	0x3ba2fbc5	0.004973861
147	0x3bad955f	0.0052973474
148	0x3bb25e79	0.005443391
149	0x3bb9f96d	0.005675486
150	0x3bc86a05	0.006116154
151	0x3bd184c4	0.0063940007
152	0x3bd72eb3	0.0065668463
153	0x3be52941	0.0069934432
154	0x3bf5386b	0.007483532
155	0x3c0435d4	0.008069474
156	0x3c131ba5	0.008978759
157	0x3c1ac09b	0.009445335
158	0x3c05bfcb	0.008163403
159	0x3be03d17	0.00684322
160	0x3bc3e981	0.0059787636
161	0x3baf0ff9	0.0053424803
162	0x3ba26198	0.0049554817
163	0x3ba59b80	0.0050539374
164	0x3baf18ef	0.0053435485
165	0x3bbcd38d	0.0057625235
166	0x3bd816d6	0.006594519
167	0x3bf4e02a	0.0074730115
168	0x3c06e22b	0.008232634
169	0x3c11db73	0.008902418
170	0x3c21b819	0.009870552
171	0x3c30c9fb	0.010790343
172	0x3c3e91ff	0.011631488
173	0x3c4fb4bc	0.012677368
174	0x3c6e1907	0.014532334
175	0x3c8b2a89	0.016988056
176	0x3ca62572	0.020281527
177	0x3cc5fcfd	0.024168486
178	0x3ce901ab	0.028443178
179	0x3d06c8e9	0.032906447
180	0x3d148cc5	0.03626706
181	0x3d1e69a8	0.03867498
182	0x3d25ad25	0.040448327
183	0x3d2c5cd6	0.042080723
184	0x3d32a1aa	0.043611206
185	0x3d37dbb4	0.04488726
186	0x3d3bf3c8	0.045886785
187	0x3d3edf16	0.04659947
188	0x3d40ae0f	0.047040995
189	0x3d41c8e8	0.04731074
190	0x3d426b56	0.047465645
191	0x3d42a52f	0.047520813
192	0x3ca48179	0.020081269
193	0x3c9ca0f0	0.01911971
194	0x3c929e9e	0.0178979
195	0x3c87931b	0.016549638
196	0x3c74df10	0.01494576
197	0x3c54f327	0.012997425
198	0x3c30946d	0.010777575
199	0x3c0c99a8	0.008581556
200	0x3bd10813	0.0063791364
201	0x3b8bcba9	0.0042662215
202	0x3b244d42	0.0025070463
203	0x3aa62246	0.0012675009
204	0x3a433018	0.0007445826
205	0x3a97dde6	0.0011586517
206	0x3aae6a24	0.0013306779
207	0x390df0c7	0.00013536504
208	0xba91947b	-0.0011106873
209	0xbb06a689	-0.002054604
210	0xbb32cee8	-0.002728397
211	0xbb5495a3	-0.0032437823
212	0xbb60b720	-0.0034288839
213	0xbb64e1eb	-0.0034924697
214	0xbb66b9bd	-0.0035205923
215	0xbb5c57b8	-0.003362162
216	0xbb533cbf	-0.0032232252
217	0xbb5332ee	-0.0032226401
218	0xbb5a53ac	-0.0033314032
219	0xbb593097	-0.0033140534
220	0xbb5f1bc6	-0.0034043654
221	0xbb6c35b2	-0.0036042747
222	0xbb7bbcaf	-0.0038412025
223	0xbb7c9d73	-0.0038545995
224	0xbb7d0043	-0.0038604892
225	0xbb75b509	-0.0037491939
226	0xbb5a0abf	-0.0033270565
227	0xbb287244	-0.0025702873
228	0xbaad1379	-0.0013204656
229	0x39fdedfa	0.00048433227
230	0x3b189360	0.0023281202
231	0x3b2f7b81	0.0026776495
232	0x3b308868	0.0026936773
233	0x3b394436	0.0028269417
234	0x3b43931c	0.0029842323
235	0x3b4e0979	0.0031438752
236	0x3b6284d5	0.0034564037
237	0x3b74e448	0.0037367512
238	0x3b7e6500	0.0038817525
239	0x3b8b9b16	0.004260431
240	0x3b99fae6	0.004699099
241	0x3ba3d552	0.004999795
242	0x3bab366c	0.0052249935
243	0x3bb9f984	0.0056754965
244	0x3bc4bae7	0.006003726
245	0x3bcb0552	0.0061957026
246	0x3bd27499	0.006422591
247	0x3be0d4d1	0.006861307
248	0x3be9ec72	0.007138782
249	0x3bf1272b	0.0073594055
250	0x3bffd897	0.007807802
251	0x3c091960	0.008367866
252	0x3c15b374	0.009137023
253	0x3c242194	0.010017771
254	0x3c2ac330	0.010422513
255	0x3c169038	0.009189658

Linear_Trend.bias f4 [336]
0	0xbd739e84	-0.059477344
1	0xbc4f41b8	-0.012649946
2	0x3d9df331	0.07712401
3	0xbc6b84b1	-0.014374898
4	0xbc97345f	-0.01845759
5	0x3d45c6a4	0.04828514
6	0xbd244ceb	-0.040112417
7	0xbcfc0205	-0.030762682
8	0xbd95e2b3	-0.0731863
9	0xbd8ad4bc	-0.06778857
10	0xbbbda754	-0.0057877693
11	0xbb9fa134	-0.004871512
12	0xbd9bbbef	-0.07604205
13	0x3da2f2c9	0.07956464
14	0xbc9545f3	-0.018221831
15	0x3d894ef6	0.06704514
16	0xbd0cd4cf	-0.034382638
17	0xbd331cc8	-0.04372862
18	0x3d975a84	0.07390311
19	0xb9a14b95	-0.00030764626
20	0x3d8037bb	0.0626063
21	0xbd779c54	-0.06045182
22	0xbd3a4093	-0.04547174
23	0x3d7e4c6f	0.06208461
24	0xbd6b9fc8	-0.057525426
25	0xbc7646b6	-0.015031507
26	0xbb7c5846	-0.0038504764
27	0x3d6d489d	0.057930578
28	0x3d630623	0.055425774
29	0x3c04a2a6	0.008095419
30	0x3c60757d	0.013699886
31	0x3ccd7106	0.025078308
32	0x3c1fe971	0.009760247
33	0xbd06ffb1	-0.03295869
34	0x3c76fcd3	0.015074926
35	0x3d37f203	0.044908535
36	0xbdb4ab87	-0.08821779
37	0xbd3ac2f7	-0.04559609
38	0xbd930b6a	-0.071799114
39	0xbc1f63d9	-0.009728395
40	0x3cacd55c	0.021097831
41	0x3c73ab7f	0.014872431
42	0xbd8672d6	-0.06564872
43	0x3c86ab8a	0.016439218
44	0xbcd1795f	-0.02557057
45	0x3d80840e	0.062751874
46	0xbdcfa8ea	-0.1013964
47	0xbd806d59	-0.062708564
48	0xbd154589	-0.036443267
49	0x3d60963d	0.05483078
50	0x3c8d8f2f	0.01728019
51	0x3b8ad25d	0.004236503
52	0x3d4eaab7	0.050455775
53	0x3c98076b	0.018558225
54	0x3be72f04	0.0070551652
55	0xbc019299	-0.007908487
56	0xbda35df9	-0.07976908
57	0xbbe7b738	-0.007071402
58	0xbd591cad	-0.053005863
59	0xbc94d3bf	-0.018167375
60	0x3c3600f4	0.011108626
61	0x3d51ea22	0.051248677
62	0x3d3ea90d	0.04654794
63	0xbd6a9590	-0.05727154
64	0x3ba39e99	0.0049932715
65	0xbc56395a	-0.013075197
66	0xbd9ae69e	-0.07563518
67	0xbd8368dd	-0.064164855
68	0xbaa94db1	-0.0012916831
69	0xbcd7c86e	-0.02634069
70	0x3b9b2ffe	0.0047359457
71	0x3c7f3b26	0.015578067
72	0x3d139d78	0.036038846
73	0xbcb72301	-0.022355558
74	0xbc70fa06	-0.014708048
75	0xbd6e5129	-0.05818287
76	0xbc912585	-0.017718086
77	0x3c5a78df	0.013334482
78	0x3c713b27	0.014723576
79	0x3dba1fcf	0.09088098
80	0xbd9e1157	-0.07718151
81	0xbd8ba8a2	-0.068192735
82	0x3cf13adf	0.029447017
83	0xbd96b1c6	-0.07358126
84	0xbdc5976b	-0.09648021
85	0x3cedcbbc	0.029027812
86	0xbdbdb843	-0.09263661
87	0x3d7e1c24	0.062038556
88	0xbd317b57	-0.043330517
89	0xbcfc3ea7	-0.030791594
90	0x3db0fb6b	0.08641704
91	0x3c487e2c	0.012237113
92	0xbd1cde9f	-0.038298246
93	0xbd4a43f4	-0.04938121
94	0xbce4380e	-0.02785876
95	0x3ceba21e	0.028763827
96	0xbd2aa443	-0.04166056
97	0xbd001c07	-0.03127673
98	0xbd3c22ca	-0.045931615
99	0xbd5f5b7a	-0.0545306
100	0xbd8f017e	-0.069827065
101	0x3d2e1ee0	0.042509913
102	0xbb23096b	-0.002487744
103	0x3d9a9481	0.07547856
104	0xbda4cba0	-0.08046651
105	0xbd922f89	-0.07137973
106	0xbab78482	-0.0014001282
107	0xbce4965d	-0.02790373
108	0x3d46a24d	0.048494626
109	0x3d41d60f	0.047323283
110	0xbd913dc3	-0.07091858
111	0xbdc79ac8	-0.09746319
112	0xbdbb6139	-0.09149403
113	0x3d6fcf0b	0.05854706
114	0xbdc3b0cd	-0.095552064
115	0xbd8780c7	-0.06616359
116	0x3c9ca2b9	0.019120561
117	0xbdda1165	-0.10647849
118	0x3c5b7ab9	0.013395959
119	0x3d3fe7ee	0.046852045
120	0x3d59fbe3	0.053218734
121	0xbc532637	-0.012887529
122	0xbdc09c88	-0.09404856
123	0x3c19952c	0.009373944
124	0x3cdd2e81	0.026999714
125	0xbd3618ce	-0.04445725
126	0xbc859d95	-0.016310493
127	0xbc357848	-0.011076041
128	0x3d9d9688	0.07694727
129	0xbdc3c7e7	-0.09559613
130	0x3d157422	0.036487706
131	0xbcc417cb	-0.023937127
132	0xbb94270c	-0.0045212563
133	0xbca96d91	-0.020682128
134	0x3ca5184e	0.020153191
135	0x3db4f559	0.08835859
136	0x3cbd2a16	0.023091357
137	0x3d680b26	0.056651257
138	0xbd0039cd	-0.031305123
139	0xbcae18cf	-0.021252064
140	0xbd9bbf3f	-0.07604837
141	0xbc853596	-0.016260903
142	0x3bd965dc	0.006634457
143	0x3b87893b	0.004136232
144	0x3d1e6da2	0.038678773
145	0xbd4d5eb3	-0.05013914
146	0x3d6aef72	0.05735726
147	0xbd8a4c00	-0.06752777
148	0xbdd96938	-0.10615772
149	0x3b12a984	0.0022378871
150	0x3d0e080b	0.03467564
151	0xbd92a6b1	-0.071607
152	0x3d36acda	0.044598438
153	0x3d3952f2	0.04524512
154	0xbc7689a4	-0.0150474645
155	0xbc872513	-0.01649717
156	0x3c974125	0.01846368
157	0xbd019421	-0.031635407
158	0x3c036f74	0.008022178
159	0xbd1e110d	-0.03859048
160	0x3ccdca25	0.025120804
161	0x3cc3e9f3	0.023915267
162	0xbc8dd7bf	-0.01731479
163	0x3d7c49ac	0.061593696
164	0x3d5b6d08	0.053570777
165	0xbcc10769	-0.023563104
166	0x3d84c4b2	0.06482829
167	0x3d22d84d	0.03975706
168	0xbcc47ac7	-0.023984326
169	0xbc4bf52c	-0.01244859
170	0xbde6aa96	-0.112630054
171	0xbd499f03	-0.04922391
172	0xbc520a4d	-0.012819839
173	0x3d13be5d	0.036070216
174	0xbaadde80	-0.0013265163
175	0xbcb0ba64	-0.021573253
176	0x3d899fc8	0.06719929
177	0xbd806164	-0.06268576
178	0x3d8a72a3	0.067601465
179	0x3d7151a0	0.058915734
180	0x3d1b16f9	0.037863705
181	0x3c56e1a8	0.013115324
182	0x3c358405	0.011078839
183	0x3cf40f37	0.029792411
184	0x3db05635	0.08610193
185	0x3d3b04eb	0.045658987
186	0xbc5861ed	-0.013206941
187	0xbb61514e	-0.0034380737
188	0x3bcb2d2f	0.0062004547
189	0xbd89348a	-0.06699474
190	0x3d7f8d11	0.06239039
191	0xbd4518a6	-0.04811921
192	0xbc39868a	-0.0113235805
193	0x3c226f50	0.009914234
194	0xbd4089e5	-0.047006506
195	0xbd016767	-0.031592753
196	0xba8c5d71	-0.0010709
197	0xbcaf4133	-0.021393394
198	0xbd22ff11	-0.03979403
199	0xbb65ae20	-0.0035046414
200	0x3d029fc5	0.03189065
201	0x3d4d6508	0.05014518
202	0xbc1503da	-0.009095157
203	0xbd73e2e0	-0.059542537
204	0x3bbafaec	0.0057061817
205	0xbd987b92	-0.07445444
206	0x3c5bce11	0.013415829
207	0x3d5941e5	0.053041358
208	0xbd67dae7	-0.056605246
209	0x3b8c1a1a	0.0042755725
210	0x3d032135	0.03201409
211	0x3d5e9889	0.054344688
212	0xbd896323	-0.06708362
213	0xbdcd93b4	-0.10037938
214	0xbdbcfa68	-0.09227449
215	0x3d1783bd	0.03699087
216	0xbc8bb639	-0.017054664
217	0xbb54cdf8	-0.00324714
218	0x3a27a81e	0.0006395596
219	0x3c4eadd2	0.012614684
220	0xbc36814f	-0.011139228
221	0x3cd91cb8	0.026502952
222	0x3c3bc3f3	0.011460292
223	0xbb18bc34	-0.0023305537
224	0xbd834a01	-0.064105995
225	0xbd26d551	-0.040730778
226	0xbd81444e	-0.06311856
227	0x3b87d9b3	0.004145825
228	0x3d7c13e4	0.061542407
229	0x3d64f457	0.055897083
230	0xbba8e1e2	-0.0051538805
231	0x3a230ae3	0.0006219579
232	0x3d5da3a1	0.054111127
233	0x3d813de6	0.06310634
234	0x3c90aeeb	0.017661532
235	0xbcc7a69d	-0.02437144
236	0xbdb4a925	-0.08821324
237	0x3d1dd01f	0.038528558
238	0x3c39506c	0.011310678
239	0x3c5f05f4	0.013612259
240	0x3d1991e8	0.037492663
241	0xbd07f2dc	-0.033190593
242	0x3d263a32	0.040582843
243	0xbdb1db3e	-0.08684395
244	0xbd6bd32a	-0.05757443
245	0xbd7b1290	-0.061297
246	0x3c0e8737	0.00869923
247	0x3a998206	0.0011711724
248	0x3b3a70dd	0.002844862
249	0xbd750d84	-0.059827343
250	0xbcd45026	-0.025917124
251	0xbc33fec1	-0.010986031
252	0xbdab8250	-0.083744645
253	0xbdb9e0be	-0.09076069
254	0xbdb24c63	-0.08705976
255	0xbd483af0	-0.048884332
