checkpoints/long_term_forecast_ETTh1_96_336_DLinear_ETTh1_ftM_sl96_ll48_pl336_dm512_nh8_el2_dl1_df2048_fc3_ebtimeF_dtTrue_Exp_0/checkpoint.pth (torch, 262671 bytes, 4 tensors)

Linear_Seasonal.weight f4 [336, 96]
0	0x3d143c30	0.03619021
1	0x3cf6231d	0.03004604
2	0x3c52b136	0.012859633
3	0xbb42858c	-0.002968165
4	0xbc6cbea4	-0.014449749
5	0xbc9996c0	-0.018748641
6	0xbc7cd451	-0.01543148
7	0xbc58e354	-0.013237793
8	0xbc4a9fc8	-0.012367196
9	0xbc0bf93c	-0.008543309
10	0xbb5ecdd3	-0.0033997193
11	0xb9a7d692	-0.0003201259
12	0xbae7ad0e	-0.0017675476
13	0x3a533f9e	0.0008058491
14	0x3ac6a6d7	0.0015155923
15	0xbab01c6d	-0.0013436206
16	0xbb9fd7dc	-0.0048780274
17	0xbb887686	-0.0041645197
18	0xbbca9541	-0.0061823432
19	0xbbc096bd	-0.0058773444
20	0x3ba0be00	0.0049054623
21	0x3c66d8db	0.014089788
22	0x3ca78fee	0.020454373
23	0x3ce905fc	0.028445236
24	0x3d0dcfc0	0.034621954
25	0x3d0121c2	0.031526335
26	0x3cce60dd	0.025192672
27	0x3c9ee3dd	0.019395763
28	0x3c4222f1	0.011849151
29	0xbb0eadaa	-0.0021770992
30	0xbb7d6422	-0.003866442
31	0xbb7ba9b1	-0.0038400705
32	0xbb90d684	-0.0044201035
33	0xbb0b49ea	-0.0021253773
34	0x3adaedb9	0.0016702927
35	0x3abe0bc0	0.0014499351
36	0xba90a06c	-0.0011034138
37	0x39e66ad1	0.00043948603
38	0x39dfdf18	0.00042700092
39	0xbb57c0e1	-0.0032921361
40	0xbc0c7572	-0.008572923
41	0xbc109ad4	-0.008825976
42	0xbc222ad2	-0.0098979045
43	0xbbd48e9b	-0.0064867265
44	0x3ba77d6a	0.005111386
45	0x3c77a763	0.015115592
46	0x3cbdd247	0.023171557
47	0x3d01c430	0.03168124
48	0x3d1c4831	0.038154785
49	0x3d11143a	0.03541968
50	0x3cef780b	0.029232046
51	0x3cc8322f	0.024437992
52	0x3c7989af	0.01523058
53	0xba6f5543	-0.00091298315
54	0xbba0e98a	-0.0049106525
55	0xbbc7fdbb	-0.006103245
56	0xbc091384	-0.008366469
57	0xbb94743b	-0.0045304573
58	0xba76ffcb	-0.00094222714
59	0x39cc36d2	0.00038950756
60	0xbaa62ac7	-0.0012677544
61	0x3ab24a20	0.0013602413
62	0x3b266f92	0.002539609
63	0xba10f794	-0.0005530056
64	0xbb822174	-0.003971273
65	0xbba3bd7b	-0.004996953
66	0xbc0264d6	-0.0079586115
67	0xbbf7135f	-0.007540151
68	0x3b2046b6	0.002445621
69	0x3c33a278	0.010964029
70	0x3c9a581b	0.01884084
71	0x3cdf2a81	0.027241947
72	0x3d099aac	0.033594772
73	0x3cfd6ff5	0.030937174
74	0x3ccf1c51	0.025282057
75	0x3c9b51e1	0.018959941
76	0x3c1cf748	0.009580441
77	0xbb92de5e	-0.0044820746
78	0xbc0188e0	-0.007906169
79	0xbc13bfd0	-0.0090179
80	0xbc3f44f9	-0.011674159
81	0xbc3e0440	-0.011597693
82	0xbc3c95e5	-0.011510347
83	0xbc54a625	-0.012979065
84	0xbc82b669	-0.01595612
85	0xbc89044f	-0.016725687
86	0xbc926a5e	-0.017872985
87	0xbca5150e	-0.020151641
88	0xbcbf2af3	-0.02333591
89	0xbcbd8696	-0.023135465
90	0xbcbe244f	-0.023210673
91	0xbcc41e22	-0.02394015
92	0xbc05804c	-0.008148264
93	0x3ca7f1ae	0.020500984
94	0x3d21fcc2	0.03954769
95	0x3d442aeb	0.047892492
96	0x3d00da88	0.031458408
97	0x3d29114b	0.041276257
98	0x3d0ca5d5	0.034337837
99	0x3cb23c90	0.021757394
100	0x3bdf9e8f	0.0068243216
101	0xbc03db1f	-0.008047848
102	0xbc775f90	-0.0150984675
103	0xbc61d33b	-0.013783271
104	0xbc443552	-0.011975603
105	0xbc45b5e8	-0.012067296
106	0xbbe5c288	-0.0070117153
107	0xba3cbfa1	-0.0007200186
108	0x3a80fada	0.0009840385
109	0xbaa667c4	-0.001269572
110	0x3b1b169d	0.0023664602
111	0x3b278096	0.002555882
112	0xbad35654	-0.001612375
113	0xbba95910	-0.005168088
114	0xbba38380	-0.0049900413
115	0xbc04dbc3	-0.008109036
116	0xbbf40433	-0.0074467896
117	0x3b43cc18	0.0029876288
118	0x3c3f75de	0.011685817
119	0x3ca14e36	0.019690614
120	0x3cf65696	0.030070584
121	0x3d14ec66	0.03635826
122	0x3d06dcfc	0.03292559
123	0x3cd6bdd5	0.026213566
124	0x3ca300cb	0.019897839
125	0x3c3484b4	0.011017967
126	0xbb0046bd	-0.0019573413
127	0xbb9f43d8	-0.0048603825
128	0xbb8fac0d	-0.0043845237
129	0xbbb03931	-0.0053779115
130	0xbb01ad44	-0.0019787112
131	0x3b0e6434	0.0021727206
132	0x3acb6cfb	0.001552015
133	0xba9c41f8	-0.0011921516
134	0x3a6a21ea	0.0008931445
135	0x39ddbe41	0.00042294155
136	0xbba4a019	-0.005023968
137	0xbc2176de	-0.009855
138	0xbc2a3218	-0.01038792
139	0xbc49a498	-0.012307309
140	0xbc0e5ec0	-0.008689582
141	0x3b2076e7	0.0024484934
142	0x3c5cacfd	0.013468978
143	0x3cbbb1a2	0.02291185
144	0x3d0a8ea1	0.033827428
145	0x3d24d5e1	0.040243033
146	0x3d14d80b	0.036338847
147	0x3cff6b81	0.031179192
148	0x3ccfa969	0.025349336
149	0x3c79ae20	0.015239269
150	0xbaa277b4	-0.0012395293
151	0xbbbc639f	-0.0057491804
152	0xbbf75da3	-0.007549004
153	0xbc0dc3c0	-0.0086526275
154	0xbba4f76e	-0.0050343787
155	0xb9e7397f	-0.0004410259
156	0x3806bdb1	3.2124753e-05
157	0xbac2192c	-0.0014808527
158	0x3b061a9d	0.002046264
159	0x3b2f48d7	0.0026746297
160	0xba946ba4	-0.0011323583
161	0xbba2bbc5	-0.0049662315
162	0xbbeb81d5	-0.007187108
163	0xbc33f4e9	-0.010983684
164	0xbc1f58cb	-0.00972576
165	0xb96014e0	-0.00021370081
166	0x3c161e95	0.009162565
167	0x3c956c4a	0.018240113
168	0x3cee717e	0.029106852
169	0x3d105f08	0.03524688
170	0x3d04eeaa	0.03245417
171	0x3cd8659c	0.026415639
172	0x3ca136b0	0.019679397
173	0x3c153df2	0.009109007
174	0xbb9cb363	-0.0047821268
175	0xbc0500a7	-0.008117831
176	0xbc1deaeb	-0.009638528
177	0xbc4250e9	-0.011860111
178	0xbc31202d	-0.010810894
179	0xbc23144d	-0.009953571
180	0xbc418cb3	-0.01181333
181	0xbc68e011	-0.014213578
182	0xbc601d2b	-0.013678829
183	0xbc7195e0	-0.014745206
184	0xbc9b1e49	-0.01893534
185	0xbcb27807	-0.02178575
186	0xbcace506	-0.0211053
187	0xbcaf4a5e	-0.021397766
188	0xbc7a91b0	-0.015293524
189	0x3c557755	0.013028939
190	0x3d1528f1	0.036415998
191	0x3d3bd80a	0.045860328
192	0x3cbd0df5	0.023077944
193	0x3d2046fc	0.039130196
194	0x3d320096	0.04345759
195	0x3d1f59b5	0.03890391
196	0x3ce54ad7	0.027989788
197	0x3c6527cf	0.013986542
198	0xb99771bc	-0.00028885703
199	0xbc5689ee	-0.013094408
200	0xbc5666e8	-0.013086058
201	0xbc4e55c1	-0.0125936875
202	0xbc384148	-0.011246033
203	0xbb9ff5ea	-0.00488161
204	0xb916bce1	-0.00014375478
205	0x3aa17d83	0.0012320731
206	0xb8841e93	-6.2999454e-05
207	0x3b21d496	0.0024693361
208	0x3ad23be4	0.0016039577
209	0xbb0216b8	-0.0019849967
210	0xbbc28adf	-0.005936965
211	0xbbf5fee2	-0.007507191
212	0xbc212f1f	-0.009837895
213	0xbc1a4e3e	-0.009418068
214	0x3994ea45	0.00028403304
215	0x3c3b4298	0.011429451
216	0x3cb99dbc	0.022658221
217	0x3d04542b	0.03230683
218	0x3d1a017a	0.037599064
219	0x3d0afb56	0.0339311
220	0x3cdba556	0.026812237
221	0x3c9e642c	0.019334875
222	0x3c2e999f	0.010656743
223	0xbb22afa3	-0.0024823926
224	0xbbc317b2	-0.0059537524
225	0xbbc180bc	-0.005905239
226	0xbbb6887d	-0.00557047
227	0xbb04c61a	-0.002025968
228	0x3ac71fa7	0.0015191928
229	0x3a90499e	0.0011008268
230	0xbaa4ff83	-0.0012588355
231	0x37be49eb	2.2684186e-05
232	0xbab6584a	-0.001391181
233	0xbbc1c1af	-0.0059129815
234	0xbc35532a	-0.011067191
235	0xbc601560	-0.013676971
236	0xbc60b1de	-0.013714282
237	0xbc3d1d01	-0.01154256
238	0x3a39c94f	0.0007087187
239	0x3c63db55	0.013907273
240	0x3cd8436f	0.026399342
241	0x3d14b669	0.036306772
242	0x3d280f96	0.04103049
243	0x3d1b9854	0.03798707
244	0x3d051d66	0.03249874
245	0x3ccdb955	0.025112787
246	0x3c75fd1c	0.015013959
247	0xb9fbcbc0	-0.00048026256
248	0xbbef9524	-0.00731148
249	0xbc02b134	-0.007976819
250	0xbc21d7bc	-0.009878095
251	0xbb9c6442	-0.004772694
252	0xbaeab1a6	-0.0017905727
253	0xba2681d1	-0.00063517416
254	0xbaab7b46	-0.0013083003
255	0x3ab207f5	0.0013582694

Linear_Seasonal.bias f4 [336]
0	0x3d599b37	0.05312654
1	0x3be17b9c	0.0068811905
2	0xbd8ed1fd	-0.06973646
3	0x3c930b15	0.01794962
4	0x3cc0662a	0.023486216
5	0xbcab3e42	-0.02090371
6	0xbb36aebd	-0.0027875148
7	0x3d61a0f9	0.055085156
8	0x3d887eb1	0.066647895
9	0x3cc3b09c	0.023887925
10	0x3c07bd9b	0.008284952
11	0xbcdfd158	-0.027321503
12	0x3d62be21	0.055357102
13	0xbda8aa69	-0.08235628
14	0x3ce5cd83	0.028052097
15	0xbd9cd22d	-0.07657275
16	0x3d160089	0.036621604
17	0x3cb5b0e2	0.02217907
18	0xbd9a1bd1	-0.07524837
19	0xbc09d204	-0.008411888
20	0xbd8145e8	-0.06312162
21	0xbc58ab3b	-0.013224418
22	0x3d2550b6	0.040360175
23	0xbd24c36e	-0.04022544
24	0x3d86fae9	0.06590826
25	0x3c80c478	0.015718684
26	0x3d23cfe8	0.039993197
27	0x3c493e81	0.0122829685
28	0xbd40561b	-0.046957117
29	0xbcd46a3e	-0.025929566
30	0xbd855154	-0.06509653
31	0xbd618a44	-0.0550635
32	0xbd216bb3	-0.03940935
33	0x3cbc5e5b	0.022994211
34	0x3cec7dcf	0.028868584
35	0x3bb9acee	0.005666367
36	0x3daa9996	0.083300754
37	0xbbe1b0a1	-0.006887511
38	0x3d677986	0.05651238
39	0xbc6bcfe1	-0.014392824
40	0xbd79a910	-0.060952246
41	0xbce463b8	-0.02787958
42	0x3d6db0b4	0.058029845
43	0xbc9cfdf6	-0.019164067
44	0xbcf4478c	-0.029819272
45	0xbd7c49f8	-0.06159398
46	0x3dba2024	0.090881616
47	0x3c45b0d0	0.012066081
48	0xbb5e70c3	-0.0033941723
49	0x3c7ac825	0.015306507
50	0x3c5e92a9	0.013584771
51	0x3bf27da9	0.0074002338
52	0xbd3dc99c	-0.046334848
53	0xbd232af8	-0.0398359
54	0xbc80bb45	-0.015714297
55	0xbb8f501d	-0.004373564
56	0x3d57b7dc	0.052665576
57	0x3d19f9a2	0.037591584
58	0xbaaa8a1d	-0.0013011132
59	0xbd423f49	-0.047423635
60	0x3c4275c3	0.011868897
61	0xbd3ff472	-0.04686398
62	0x3d034712	0.0320502
63	0xbd487b3c	-0.04894565
64	0xbd0be8a8	-0.034157425
65	0xbd4f6e3b	-0.050642233
66	0x3d2ece2c	0.04267709
67	0x3d5f2b28	0.054484516
68	0xbc872880	-0.016498804
69	0xbd4f6eda	-0.050642826
70	0x3c1bc712	0.009507911
71	0xbd385d9b	-0.045011144
72	0xbd1ff784	-0.03905441
73	0x3d099ea6	0.033598565
74	0x3c06d10f	0.008228554
75	0x3d49a46d	0.049229074
76	0x3cb797f6	0.022411328
77	0x3bb9b5ac	0.005667409
78	0xbd2e4a2b	-0.0425512
79	0xbdd7b2ac	-0.10532126
80	0x3d90988e	0.070603475
81	0x3d97db93	0.07414927
82	0xbd3cf7e4	-0.046134844
83	0x3d697922	0.057000287
84	0x3d9c38fc	0.076280564
85	0xbd43a252	-0.047762223
86	0x3da256c0	0.079267025
87	0xbcba3076	-0.022728186
88	0x3d7e4408	0.0620766
89	0x3cd4e132	0.025986288
90	0xbdcf9304	-0.10135463
91	0x3d51b4d1	0.05119783
92	0x3d88491f	0.06654572
93	0x3c712002	0.014717104
94	0x3c35e5e0	0.01110217
95	0x3d3152e8	0.043291956
96	0xbc4b232d	-0.012398523
97	0xbb803893	-0.003912994
98	0x3d4e8bab	0.050426167
99	0x3d12026c	0.03564684
100	0x3d4b84d9	0.04968724
101	0xbc7a2fc2	-0.015270175
102	0xbd02d82c	-0.03194444
103	0xbdc52040	-0.09625292
104	0x3d6b193e	0.05739712
105	0x3d6d7dfd	0.05798148
106	0xbd12e968	-0.035867125
107	0x3bb79577	0.0056025344
108	0xbd8f94f4	-0.070108324
109	0xbd847251	-0.064671166
110	0x3c934dc6	0.017981421
111	0x3d9e7837	0.07737773
112	0x3da38ef7	0.07986253
113	0xbcd5c09e	-0.026092824
114	0x3d8f7fe2	0.070068136
115	0x3c0e1c89	0.0086737955
116	0xbd06a9aa	-0.032876648
117	0x3db3fcce	0.08788453
118	0x3b97bfdc	0.0046310257
119	0xbd63e586	-0.055638812
120	0xbd33772a	-0.043814816
121	0x3c9a5d23	0.01884324
122	0x3d937e25	0.072017945
123	0x3c9fddbc	0.01951491
124	0xbb8670b1	-0.0041027893
125	0x3cc87845	0.024471411
126	0x3d817327	0.06320792
127	0xbc5b107f	-0.013370632
128	0xbdbcc431	-0.09217108
129	0x3da23018	0.079193294
130	0xbd8f72a4	-0.07004288
131	0x3b1a4597	0.0023540014
132	0xbd46fef5	-0.04858299
133	0xbbe14ba9	-0.0068754745
134	0xbd1fca63	-0.03901137
135	0xbdd9bb73	-0.10631456
136	0xbbde0b58	-0.0067762546
137	0x3d0569bc	0.03257154
138	0xbd398a5f	-0.045297977
139	0xbd7b687e	-0.06137895
140	0x3d853689	0.065045424
141	0xbd5530f2	-0.05204863
142	0x3c23a2ff	0.009987592
143	0xbabfd8c7	-0.0014636748
144	0x3aa4667f	0.0012542753
145	0xbb6d38a7	-0.0036197098
146	0xbd2aea1d	-0.041727174
147	0x3d6cd458	0.057819694
148	0x3db0bc17	0.08629625
149	0xbd216cb2	-0.0394103
150	0xbcdd5835	-0.0270196
151	0x3d8319bf	0.06401395
152	0xbb9a4691	-0.004708119
153	0x3d5e9c5c	0.054348335
154	0x3d128348	0.03576973
155	0xbc9595ad	-0.018259848
156	0xbaa39e3a	-0.0012483068
157	0xbcb120ca	-0.02162208
158	0xbcfe4b4e	-0.031041767
159	0x3cf19125	0.029488156
160	0x3bf4e2bc	0.007473318
161	0xbb13f10a	-0.002257409
162	0xbbcf7ff0	-0.00633239
163	0xbd812e1a	-0.06307621
164	0xbd5b3ee3	-0.05352677
165	0x3c851735	0.016246418
166	0xbd3be329	-0.045870934
167	0xbd5226d9	-0.05130658
168	0xbc3ee60b	-0.011651526
169	0xbd05623c	-0.032564387
170	0x3db3eef4	0.08785811
171	0xbd4119d6	-0.04714378
172	0x3d7c920a	0.06166271
173	0x3c955437	0.018228633
174	0xbd38f4d5	-0.045155365
175	0x3c7e017b	0.015503283
176	0xbdb1c244	-0.08679631
177	0xbd0634fa	-0.032765366
178	0xbdb1a7e9	-0.086746044
179	0xbc40cef5	-0.011768092
180	0xbd30f440	-0.043201685
181	0xbb56d228	-0.0032779071
182	0xbd225986	-0.039636157
183	0xbd389982	-0.04506827
184	0xbde3ef4f	-0.11129629
185	0xbdaec927	-0.085344605
186	0x3d1eb3ed	0.03874581
187	0xbca3baf1	-0.019986602
188	0x3c962288	0.018327013
189	0xbb34549a	-0.0027516247
190	0xbdc4be61	-0.096066244
191	0xbcf034ba	-0.029322017
192	0xbcf66cdc	-0.030081205
193	0xbd8ca807	-0.06867986
194	0xbbcd8d90	-0.006272979
195	0x3b4b4661	0.003101729
196	0xbc9a5c14	-0.018842734
197	0xbd320dec	-0.04347031
198	0xbc52b463	-0.01286039
199	0xbc693ab9	-0.014235192
200	0xbd585ebf	-0.052824732
201	0xbda33de9	-0.07970793
202	0xbb5e94fd	-0.0033963316
203	0xbc11c601	-0.0088973055
204	0xbd0da56a	-0.03458158
205	0x3cdaeb3d	0.026723498
206	0xbbe8aa88	-0.007100407
207	0xbcd3f56d	-0.025873864
208	0x3d46fa5c	0.048578605
209	0x3d2e30aa	0.04252688
210	0xbd298f4c	-0.041396424
211	0xbca32c38	-0.019918546
212	0xbcc08205	-0.023499498
213	0x3d84bd6a	0.0648144
214	0x3d5beddf	0.05369365
215	0xbcdbc887	-0.026829017
216	0xbd1a2af2	-0.037638612
217	0xbcd540ec	-0.026031934
218	0xbd0f35ea	-0.034963526
219	0xbd2724cb	-0.040806573
220	0xbd4d25b2	-0.050084777
221	0xbd80d26f	-0.06290137
222	0xbd81d196	-0.063388035
223	0xbaa5cee8	-0.0012650164
224	0x3c18597d	0.009298679
225	0x3c6495d2	0.013951736
226	0x3c276a75	0.010218252
227	0xbd5dc99e	-0.054147355
228	0xbdc0ac25	-0.09407834
229	0xbcf0ff56	-0.029418629
230	0xbcc62422	-0.024187151
231	0x3d417a3e	0.04723572
232	0x3ca5c839	0.020237075
233	0xbdaeb900	-0.0853138
234	0x3c9ec870	0.019382685
235	0xbb0e45d3	-0.00217091
236	0x3d8e4ffa	0.06948848
237	0xbd5b1a38	-0.0534918
238	0xbd170251	-0.036867443
239	0xbb929cb2	-0.004474246
240	0xbd7db007	-0.06193545
241	0x3cdf7897	0.027279181
242	0xbd9e177d	-0.07719324
243	0x3d40901e	0.04701244
244	0xbc24beaa	-0.0100552235
245	0x3cf1cbea	0.02951618
246	0xbd819800	-0.0632782
247	0x3d47e178	0.048799008
248	0xbd9852a4	-0.074376374
249	0x3caeb1ee	0.021325078
250	0x3d3556ed	0.044272352
251	0xbd8e5d97	-0.069514446
252	0x3d804253	0.0626265
253	0x3d2ceb81	0.04221678
254	0x3d57bc34	0.05266972
255	0xbd414cb1	-0.04719228

Linear_Trend.weight f4 [336, 96]
0	0x3ce867a0	0.028369725
1	0x3cdbd447	0.02683462
2	0x3cce4ee4	0.025184102
3	0x3cbbd94b	0.022930762
4	0x3ca37b85	0.01995636
5	0x3c87e64b	0.016589304
6	0x3c532dc5	0.01288933
7	0x3c149562	0.009068819
8	0x3bb73ccc	0.0055919643
9	0x3b2d9928	0.0026488993
10	0x39a7d8ae	0.0003201416
11	0xba928913	-0.0011179767
12	0xbae4b6ee	-0.0017449537
13	0xbb3a8e1e	-0.0028466056
14	0xbb82d70a	-0.00399292
15	0xbb9d1c8f	-0.004794664
16	0xbbaed1d0	-0.00533507
17	0xbbbda2ef	-0.0057872455
18	0xbbc037f1	-0.0058660437
19	0xbbbf737a	-0.0058426233
20	0xbbbcf41c	-0.005766405
21	0xbbb45aff	-0.0055040116
22	0xbbaa80bb	-0.005203334
23	0xbba5b1cc	-0.0050565954
24	0xbba63ee7	-0.0050734165
25	0xbba10d53	-0.0049149184
26	0xbb9e4620	-0.004830137
27	0xbba0f7f4	-0.004912371
28	0xbba4ef55	-0.0050334134
29	0xbba21a70	-0.0049469993
30	0xbb9fe5e3	-0.0048796996
31	0xbb9a8227	-0.0047152224
32	0xbb8bc6fe	-0.004265665
33	0xbb6a9e6b	-0.003579999
34	0xbb276243	-0.0025540746
35	0xba619b07	-0.000860617
36	0x3a92e1ee	0.0011206248
37	0x3ad03ade	0.0015886684
38	0x3ad814f6	0.0016485739
39	0x3aec77b4	0.0018041045
40	0x3b02998c	0.0019927947
41	0x3b0a0b9e	0.0021064053
42	0x3b1feb15	0.0024401594
43	0x3b2f782b	0.0026774507
44	0x3b324db7	0.0027206966
45	0x3b459848	0.003015058
46	0x3b5f9a46	0.0034119054
47	0x3b6efe51	0.0036467502
48	0x3b7902ac	0.0037995977
49	0x3b898dec	0.0041978266
50	0x3b93bfd7	0.004508953
51	0x3b97c6bb	0.004631845
52	0x3b9df963	0.004820989
53	0x3bace436	0.0052762283
54	0x3bb66282	0.0055659423
55	0x3bbc8952	0.0057536745
56	0x3bc9ced1	0.0061586876
57	0x3bd98584	0.0066382308
58	0x3beb5e92	0.0071829045
59	0x3c020b66	0.007937288
60	0x3c0987c1	0.008394183
61	0x3be790c7	0.0070668194
62	0x3bb92d99	0.0056511876
63	0x3b9960f4	0.004680747
64	0x3b82eed5	0.003995756
65	0x3b689e8d	0.0035494894
66	0x3b6ae728	0.0035843346
67	0x3b7b26b9	0.003832264
68	0x3b889690	0.004168339
69	0x3ba134d2	0.0049196268
70	0x3bbbe0e7	0.0057335976
71	0x3bd29bc5	0.0064272606
72	0x3be6b0de	0.007040127
73	0x3c02f5be	0.00799316
74	0x3c125f60	0.008933872
75	0x3c2132f7	0.009838811
76	0x3c36ba35	0.011152794
77	0x3c55e40e	0.013054861
78	0x3c800f34	0.01563225
79	0x3c9a5766	0.018840503
80	0x3cbad655	0.02280728
81	0x3cdea059	0.02717607
82	0x3d02115a	0.03175483
83	0x3d147ea1	0.036253575
84	0x3d219fe4	0.039459124
85	0x3d2afc3d	0.04174446
86	0x3d32f72f	0.043692764
87	0x3d397bfe	0.045284264
88	0x3d3e88fa	0.04651735
89	0x3d4224b5	0.047398288
90	0x3d449cce	0.048001103
91	0x3d4611c9	0.048356805
92	0x3d46e262	0.04855574
93	0x3d4757d0	0.04866773
94	0x3d478579	0.048711274
95	0x3d477f61	0.048705462
96	0x3cc99e96	0.024611752
97	0x3cbe6fab	0.023246607
98	0x3cb38fd5	0.02191917
99	0x3ca597c4	0.020213969
100	0x3c92f5f4	0.017939545
101	0x3c7897f5	0.015172948
102	0x3c48808d	0.01223768
103	0x3c167dc7	0.009185261
104	0x3bcaa743	0.00618449
105	0x3b6aa379	0.0035803004
106	0x3ac0ea95	0.0014718348
107	0xb7881032	-1.6220005e-05
108	0xba0f0e15	-0.00054571155
109	0xb98fe767	-0.00027447494
110	0xbab33450	-0.0013672207
111	0xbb265c99	-0.0025384782
112	0xbb5a9d5a	-0.003335795
113	0xbb8176d1	-0.0039509316
114	0xbb911902	-0.00442803
115	0xbb960248	-0.0045779087
116	0xbb97af45	-0.004629048
117	0xbb993770	-0.004675798
118	0xbb934941	-0.0044948165
119	0xbb8c274f	-0.004277147
120	0xbb8b9e33	-0.004260802
121	0xbb8e353d	-0.0043398426
122	0xbb89dfd8	-0.0042075925
123	0xbb8a35be	-0.0042178323
124	0xbb8f9957	-0.004382293
125	0xbb94d401	-0.0045418744
126	0xbb938652	-0.004502096
127	0xbb922752	-0.0044602538
128	0xbb8db19f	-0.0043241526
129	0xbb7de15b	-0.0038739059
130	0xbb52309d	-0.0032072433
131	0xbb0c5d02	-0.0021417742
132	0xb9aa7737	-0.0003251375
133	0x3ada6e66	0.0016664981
134	0x3b051480	0.0020306408
135	0x3b038233	0.0020066618
136	0x3b0f4d65	0.00218662
137	0x3b19cd2b	0.0023468237
138	0x3b239fe4	0.0024967128
139	0x3b3bf4f8	0.0028679948
140	0x3b4d5452	0.0031330776
141	0x3b537583	0.0032266087
142	0x3b6c7bd3	0.0036084547
143	0x3b84966c	0.004046252
144	0x3b8dd05c	0.004327817
145	0x3b948560	0.004532501
146	0x3ba2fdb2	0.0049740905
147	0x3bad9737	0.005297567
148	0x3bb25eff	0.0054434533
149	0x3bb9faa2	0.0056756297
150	0x3bc868f8	0.006116029
151	0x3bd18570	0.006394081
152	0x3bd730ef	0.0065671126
153	0x3be52e96	0.006994079
154	0x3bf53cae	0.00748404
155	0x3c043723	0.008069786
156	0x3c131dc8	0.008979268
157	0x3c1ac295	0.009445806
158	0x3c05c24a	0.008163998
159	0x3be03b33	0.0068429946
160	0x3bc3e81b	0.005978597
161	0x3baf0efe	0.0053423634
162	0x3ba25cae	0.004954896
163	0x3ba596a4	0.005053358
164	0x3baf1565	0.0053431266
165	0x3bbccfd7	0.005762081
166	0x3bd817ab	0.0065946183
167	0x3bf4e15e	0.007473155
168	0x3c06e2e9	0.008232811
169	0x3c11dc87	0.0089026755
170	0x3c21b942	0.009870829
171	0x3c30cac9	0.010790535
172	0x3c3e92a5	0.0116316425
173	0x3c4fb4d6	0.012677392
174	0x3c6e16a1	0.014531762
175	0x3c8b2a9c	0.016988091
176	0x3ca6260b	0.020281812
177	0x3cc5fdc3	0.024168855
178	0x3ce901f5	0.028443316
179	0x3d06c8e1	0.032906417
180	0x3d148c6a	0.03626672
181	0x3d1e699c	0.038674936
182	0x3d25ad00	0.04044819
183	0x3d2c5c7b	0.042080384
184	0x3d32a192	0.043611117
185	0x3d37db73	0.044887017
186	0x3d3bf3b3	0.045886707
187	0x3d3ede9d	0.04659902
188	0x3d40ad84	0.047040477
189	0x3d41c8ab	0.047310513
190	0x3d426af3	0.047465276
191	0x3d42a4d6	0.04752048
192	0x3ca48448	0.020082608
193	0x3c9ca39c	0.019120984
194	0x3c92a0a2	0.017898861
195	0x3c879390	0.016549855
196	0x3c74df65	0.0149458395
197	0x3c54f36c	0.012997489
198	0x3c3093d8	0.010777436
199	0x3c0c9568	0.008580543
200	0x3bd1049b	0.006378723
201	0x3b8bc2eb	0.0042651794
202	0x3b2449c8	0.002506839
203	0x3aa61b7f	0.0012672989
204	0x3a4312fa	0.00074414874
205	0x3a97d744	0.001158454
206	0x3aae5bd3	0.0013302512
207	0x390d7401	0.00013490023
208	0xba91a432	-0.0011111556
209	0xbb06a8b1	-0.0020547325
210	0xbb32cf2c	-0.0027284129
211	0xbb549462	-0.0032437076
212	0xbb60b147	-0.0034285353
213	0xbb64e06b	-0.0034923803
214	0xbb66bdcb	-0.003520834
215	0xbb5c566e	-0.0033620852
216	0xbb53389a	-0.0032229782
217	0xbb533585	-0.0032227945
218	0xbb5a55c2	-0.0033315276
219	0xbb59352b	-0.0033143263
220	0xbb5f18e5	-0.0034041938
221	0xbb6c366a	-0.0036043175
222	0xbb7bc2e8	-0.0038415734
223	0xbb7ca644	-0.003855125
224	0xbb7d0888	-0.0038609821
225	0xbb75b6b2	-0.0037492928
226	0xbb5a0730	-0.0033268444
227	0xbb2871e9	-0.0025702661
228	0xbaad1a11	-0.0013206621
229	0x39fdd99f	0.0004841806
230	0x3b18903e	0.0023279334
231	0x3b2f7cb6	0.0026777214
232	0x3b308238	0.0026933085
233	0x3b394149	0.0028267673
234	0x3b43938f	0.002984259
235	0x3b4e05c8	0.0031436551
236	0x3b62852b	0.0034564238
237	0x3b74dfe8	0.0037364904
238	0x3b7e5e96	0.0038813702
239	0x3b8b97e6	0.004260051
240	0x3b99fc79	0.0046992865
241	0x3ba3d483	0.0049996986
242	0x3bab38d3	0.00522528
243	0x3bb9fada	0.005675656
244	0x3bc4bd34	0.006004
245	0x3bcb0570	0.0061957166
246	0x3bd2756a	0.0064226883
247	0x3be0d3f7	0.0068612057
248	0x3be9ebe4	0.007138716
249	0x3bf12937	0.0073596495
250	0x3bffdb9d	0.0078081624
251	0x3c091a8a	0.008368144
252	0x3c15b34f	0.009136989
253	0x3c242253	0.010017949
254	0x3c2ac39e	0.010422615
255	0x3c16906a	0.009189704

Linear_Trend.bias f4 [336]
0	0xbd739e54	-0.059477165
1	0xbc4f41bb	-0.012649949
2	0x3d9df327	0.07712393
3	0xbc6b848b	-0.014374862
4	0xbc97349a	-0.0184577
5	0x3d45c682	0.048285015
6	0xbd244cef	-0.040112432
7	0xbcfc0242	-0.030762795
8	0xbd95e2c0	-0.0731864
9	0xbd8ad4c0	-0.0677886
10	0xbbbda866	-0.005787897
11	0xbb9fa1a0	-0.004871562
12	0xbd9bbbf8	-0.076042116
13	0x3da2f2bb	0.079564534
14	0xbc95461f	-0.018221913
15	0x3d894f01	0.06704522
16	0xbd0cd4d2	-0.03438265
17	0xbd331cdf	-0.043728705
18	0x3d975a78	0.073903024
19	0xb9a156c7	-0.00030772967
20	0x3d8037b9	0.06260628
21	0xbd779c5a	-0.060451843
22	0xbd3a4097	-0.045471754
23	0x3d7e4c6e	0.062084608
24	0xbd6b9fe4	-0.05752553
25	0xbc76471f	-0.015031605
26	0xbb7c593a	-0.0038505332
27	0x3d6d4898	0.05793056
28	0x3d630617	0.05542573
29	0x3c04a199	0.0080951685
30	0x3c607542	0.013699831
31	0x3ccd70bc	0.02507817
32	0x3c1fe930	0.009760186
33	0xbd06ffca	-0.032958783
34	0x3c76fc2f	0.015074774
35	0x3d37f1fd	0.044908512
36	0xbdb4ab9e	-0.08821796
37	0xbd3ac30f	-0.04559618
38	0xbd930b83	-0.0717993
39	0xbc1f6444	-0.009728495
40	0x3cacd529	0.021097736
41	0x3c73aa13	0.014872092
42	0xbd8672e4	-0.065648824
43	0x3c86ab73	0.016439175
44	0xbcd179c0	-0.02557075
45	0x3d80840b	0.06275185
46	0xbdcfa8f8	-0.1013965
47	0xbd806d66	-0.06270866
48	0xbd15458d	-0.036443282
49	0x3d609630	0.05483073
50	0x3c8d8f27	0.017280174
51	0x3b8ad24d	0.0042364956
52	0x3d4eaaaf	0.050455745
53	0x3c9806fc	0.018558018
54	0x3be72f16	0.0070551736
55	0xbc0192ea	-0.007908562
56	0xbda35e15	-0.07976929
57	0xbbe7b813	-0.007071504
58	0xbd591cd1	-0.053005997
59	0xbc94d3f9	-0.018167483
60	0x3c3600a3	0.01110855
61	0x3d51ea1d	0.05124866
62	0x3d3ea91d	0.046547998
63	0xbd6a959e	-0.057271592
64	0x3ba39d84	0.0049931426
65	0xbc563981	-0.013075233
66	0xbd9ae6aa	-0.07563527
67	0xbd8368f7	-0.06416505
68	0xbaa95116	-0.0012917842
69	0xbcd7c88f	-0.026340751
70	0x3b9b2f61	0.0047358726
71	0x3c7f3b21	0.015578062
72	0x3d139d66	0.03603878
73	0xbcb72333	-0.022355651
74	0xbc70fa3e	-0.0147081
75	0xbd6e5127	-0.05818286
76	0xbc9125ce	-0.017718222
77	0x3c5a7863	0.0133343665
78	0x3c713ae2	0.014723511
79	0x3dba1fbe	0.090880856
80	0xbd9e1164	-0.07718161
81	0xbd8ba8bb	-0.06819292
82	0x3cf13a9f	0.029446898
83	0xbd96b1d4	-0.07358137
84	0xbdc5978a	-0.096480444
85	0x3cedcb5d	0.029027635
86	0xbdbdb847	-0.09263664
87	0x3d7e1bfe	0.062038414
88	0xbd317b84	-0.043330684
89	0xbcfc3eee	-0.030791726
90	0x3db0fb58	0.0864169
91	0x3c487daa	0.012236992
92	0xbd1cdeb6	-0.03829833
93	0xbd4a4412	-0.049381323
94	0xbce43851	-0.027858885
95	0x3ceba1f1	0.028763743
96	0xbd2aa448	-0.041660577
97	0xbd001c05	-0.03127672
98	0xbd3c22dc	-0.045931682
99	0xbd5f5b9a	-0.054530717
100	0xbd8f017f	-0.06982707
101	0x3d2e1ec2	0.0425098
102	0xbb2309fe	-0.0024877782
103	0x3d9a9477	0.07547849
104	0xbda4cbb1	-0.080466636
105	0xbd922f9c	-0.07137987
106	0xbab787ce	-0.0014002265
107	0xbce4967f	-0.027903793
108	0x3d46a239	0.04849455
109	0x3d41d5f7	0.047323193
110	0xbd913dca	-0.070918635
111	0xbdc79ad9	-0.09746332
112	0xbdbb614c	-0.09149417
113	0x3d6fcef9	0.058546994
114	0xbdc3b0ce	-0.09555207
115	0xbd8780c5	-0.06616358
116	0x3c9ca275	0.019120434
117	0xbdda116d	-0.10647855
118	0x3c5b79fc	0.013395783
119	0x3d3fe7e8	0.046852022
120	0x3d59fbcf	0.05321866
121	0xbc53268c	-0.012887608
122	0xbdc09c9c	-0.09404871
123	0x3c199524	0.009373937
124	0x3cdd2e4d	0.026999617
125	0xbd3618e0	-0.044457316
126	0xbc859db9	-0.01631056
127	0xbc35785f	-0.011076062
128	0x3d9d9672	0.07694711
129	0xbdc3c7fa	-0.09559627
130	0x3d15740c	0.036487624
131	0xbcc417f1	-0.023937197
132	0xbb942675	-0.004521186
133	0xbca96d87	-0.02068211
134	0x3ca5183c	0.020153157
135	0x3db4f542	0.08835842
136	0x3cbd29fd	0.02309131
137	0x3d680b2a	0.056651272
138	0xbd0039e2	-0.0313052
139	0xbcae18f0	-0.021252126
140	0xbd9bbf40	-0.076048374
141	0xbc853584	-0.01626087
142	0x3bd96530	0.006634377
143	0x3b8788f0	0.0041361973
144	0x3d1e6d9b	0.038678747
145	0xbd4d5ebf	-0.050139185
146	0x3d6aef56	0.057357155
147	0xbd8a4c10	-0.06752789
148	0xbdd9693b	-0.10615774
149	0x3b12a8af	0.0022378375
150	0x3d0e0803	0.03467561
151	0xbd92a6c0	-0.07160711
152	0x3d36acc2	0.04459835
153	0x3d3952e6	0.045245074
154	0xbc7689f5	-0.01504754
155	0xbc87253d	-0.016497249
156	0x3c97410b	0.018463632
157	0xbd01943c	-0.031635508
158	0x3c036f71	0.008022175
159	0xbd1e110d	-0.03859048
160	0x3ccdc9e6	0.025120687
161	0x3cc3e9d3	0.023915207
162	0xbc8dd7fa	-0.0173149
163	0x3d7c4981	0.061593536
164	0x3d5b6ce4	0.053570643
165	0xbcc107b4	-0.023563243
166	0x3d84c49b	0.06482812
167	0x3d22d83a	0.03975699
168	0xbcc47aa3	-0.023984259
169	0xbc4bf4fa	-0.012448544
170	0xbde6aa97	-0.11263006
171	0xbd499f0e	-0.049223952
172	0xbc520a8e	-0.012819899
173	0x3d13be51	0.03607017
174	0xbaade2aa	-0.0013266404
175	0xbcb0ba98	-0.02157335
176	0x3d899fc2	0.067199245
177	0xbd806161	-0.062685736
178	0x3d8a7297	0.067601375
179	0x3d715194	0.05891569
180	0x3d1b16e3	0.037863623
181	0x3c56e192	0.013115304
182	0x3c358417	0.011078856
183	0x3cf40f33	0.029792404
184	0x3db05636	0.086101934
185	0x3d3b04d7	0.045658913
186	0xbc586209	-0.013206967
187	0xbb615286	-0.0034381463
188	0x3bcb2c57	0.006200354
189	0xbd89348a	-0.06699474
190	0x3d7f8d1d	0.062390435
191	0xbd451899	-0.04811916
192	0xbc398680	-0.011323571
193	0x3c226f38	0.009914212
194	0xbd4089e7	-0.047006514
195	0xbd01675e	-0.03159272
196	0xba8c5d63	-0.0010708984
197	0xbcaf4147	-0.021393431
198	0xbd22ff2b	-0.03979413
199	0xbb65ae89	-0.0035046658
200	0x3d029fbd	0.03189062
201	0x3d4d651e	0.05014526
202	0xbc1503ff	-0.009095191
203	0xbd73e2f2	-0.059542604
204	0x3bbafa6a	0.005706121
205	0xbd987b98	-0.07445449
206	0x3c5bce1a	0.013415838
207	0x3d5941d4	0.053041294
208	0xbd67db02	-0.056605347
209	0x3b8c1a0c	0.004275566
210	0x3d032115	0.03201397
211	0x3d5e9868	0.054344565
212	0xbd896320	-0.0670836
213	0xbdcd93b2	-0.10037936
214	0xbdbcfa60	-0.09227443
215	0x3d1783b6	0.036990844
216	0xbc8bb5fd	-0.017054552
217	0xbb54cdad	-0.0032471225
218	0x3a27a8d6	0.0006395703
219	0x3c4ead7f	0.012614607
220	0xbc36818b	-0.011139284
221	0x3cd91ca8	0.026502922
222	0x3c3bc3b6	0.011460235
223	0xbb18bcbb	-0.0023305852
224	0xbd834a0b	-0.06410607
225	0xbd26d559	-0.040730808
226	0xbd814455	-0.063118614
227	0x3b87d8c8	0.0041457154
228	0x3d7c13f8	0.06154248
229	0x3d64f447	0.055897024
230	0xbba8e2d7	-0.0051539945
231	0x3a23076f	0.0006219064
232	0x3d5da392	0.05411107
233	0x3d813ddc	0.06310627
234	0x3c90aec9	0.017661469
235	0xbcc7a6b8	-0.02437149
236	0xbdb4a936	-0.08821337
237	0x3d1dcffe	0.038528435
238	0x3c394ff1	0.011310563
239	0x3c5f05ba	0.013612205
240	0x3d1991e9	0.037492666
241	0xbd07f2ef	-0.033190664
242	0x3d263a39	0.04058287
243	0xbdb1db38	-0.08684391
244	0xbd6bd349	-0.057574544
245	0xbd7b1287	-0.061296966
246	0x3c0e86e0	0.008699149
247	0x3a99822f	0.0011711771
248	0x3b3a7093	0.0028448447
249	0xbd750d87	-0.059827354
250	0xbcd45031	-0.025917144
251	0xbc33fefa	-0.010986084
252	0xbdab8258	-0.083744705
253	0xbdb9e0ce	-0.09076081
254	0xbdb24c5e	-0.08705972
255	0xbd483b04	-0.048884407
