checkpoints/long_term_forecast_ETTh1_96_720_DLinear_ETTh1_ftM_sl96_ll48_pl720_dm512_nh8_el2_dl1_df2048_fc3_ebtimeF_dtTrue_Exp_0/checkpoint.pth (torch, 560655 bytes, 4 tensors)

Linear_Seasonal.weight f4 [720, 96]
00000000: 6165 243d 2a8e e73c efea c93b 769c 32bc
00000010: e454 90bc b685 afbc bb13 8abc 55e8 55bc
00000020: a1ec 68bc 79fe 20bc 8be1 27bb 035f b139
00000030: d57e 39bb a8c6 173b dba2 803b 1220 3f3a
00000040: d857 6abb d07c 8cba cea4 88bb 25be 0fbc
00000050: 0caa 87ba dd1f e33b 5688 683c 203a e13c
00000060: 5499 253d 5b53 0c3d a4f4 bb3c a405 833c
00000070: 08f9 0b3c a8b1 86bb 10db 2dbb 78af b2ba
00000080: 92cc 7cbb 4b9e aaba 9e93 953b cc40 3d3b
00000090: dd6b 1bbb 16f5 d83a 60c4 3e3b aad9 00bb
000000a0: e5ba 14bc 8b58 f3bb f0e8 1dbc 0761 46bc
000000b0: fc2d 11bb 592e 053c 4e4d 943c b1e1 053d
000000c0: a798 3a3d 825e 233d 2955 fc3c 9d09 be3c
000000d0: 8521 663c 9eb5 27ba ebc8 8fbb 8458 91bb
000000e0: 0dfa 1dbc 0051 91bb 807a 203a 2450 c13a
000000f0: d742 aeba cac7 953b f7df f33b d789 8f3b
00000100: b4ea 6a39 5fb8 93b8 5cac a0bb 7875 43bc
00000110: 47f5 66bb 935a 7e3b 70a0 433c b1e0 d23c
00000120: d53e 1a3d c19d 033d ce59 ad3c 2fcd 4d3c
00000130: c822 f93a 334f 36bc 6680 4ebc 4daf 58bc
00000140: 43fc 8abc 6f1f 91bc 8911 96bc dc27 b5bc
00000150: e7bc d8bc 05f4 d8bc 9192 dfbc 0d92 fcbc
00000160: 041d 0dbd 02c1 08bd d570 08bd 6bec 0bbd
00000170: 8882 93bc 25f5 9b3c 0272 433d 4262 7d3d
00000180: 4a37 fe3c 8216 4f3d 51c9 283d 614b 9f3c
00000190: 2915 5d3b b19f 2dbc 9906 8fbc e874 58bc
000001a0: c3ed 41bc 3a14 5dbc 323e eebb 7266 843a
000001b0: 1b91 3f3b 6e2e a4ba 2e5a 883b c77f bb3b
000001c0: b49c 1c39 d725 a1bb 5e7c 42bb a5ee 07bc
000001d0: 9a7f 48bc 6f7c b6bb dc33 3e3b adbb 563c
000001e0: af4a 033d 3c80 343d 6c28 173d fdf5 cb3c
000001f0: eb68 893c 23b0 023c 0dd1 8bbb 9424 8abb
00000200: ec6c 2abb a882 abbb e9e5 74ba 1f68 a23b
00000210: df13 303b a3bf f8ba b83e 1c3b f864 4f3b
00000220: e50f 73bb 064f 35bc 1176 28bc f90e 5bbc
00000230: 2ced 84bc 0716 c3bb d130 a83b 792c 903c
00000240: 2025 1a3d e2c5 493d 7ed5 313d ef80 073d
00000250: f74e d23c 267f 693c 6278 ccba 8df8 a2bb
00000260: 7c4f f2bb 1990 3cbc 0c6d b4bb 9a00 b639
00000270: 940a 643a 1a2c beba b143 9c3b 6a9b f23b
00000280: 2773 2c3b 9b46 d5ba 478a 44bb 819d 1cbc
00000290: 26c0 7ebc d785 07bc 13c1 0bba 3c69 2e3c
000002a0: 6cff f03c af50 2a3d 33d4 0e3d 731a bf3c
000002b0: 2c78 673c f789 0f3b 3af2 39bc f2c6 4cbc
000002c0: 8723 58bc e11e 87bc b13d 7ebc 05f5 81bc
000002d0: 2f5e 9dbc 6834 bbbc cdb3 aebc e176 bbbc
000002e0: 7fa7 e3bc b9da 03bd ac32 f4bc a602 e9bc
000002f0: 9647 b8bc 6c24 363c f787 313d 488b 713d
00000300: 444d 8b3c a759 353d e185 603d 8868 343d
00000310: 1178 e13c 5b84 3e3c 275b 4fbb c61c 5fbc
00000320: e8e6 52bc 8966 39bc caaf 3dbc 0d2d 94bb
00000330: 7ac5 403b 613a 7d3b 2341 6539 d406 b83b
00000340: aefa 9d3b 2382 12ba d4b6 b6bb 8b9d d8bb
00000350: 51a5 38bc 1916 8abc bbfb 05bc 0633 423b
00000360: 4110 9b3c fd4b 113d 0190 393d 6425 1a3d
00000370: 9353 d23c 74a2 873c a528 db3b d193 dfbb
00000380: 9f9f c5bb a570 98bb 75ff aebb 0a36 88ba
00000390: 75bf 893b 3226 243b 177d ecba c8a9 e33a
000003a0: 20ea a039 c1b7 c6bb 57fc 58bc 68b2 5fbc
000003b0: 15e1 8fbc ea0e a9bc c1bf 10bc 105c b43b
000003c0: 20a5 c93c 1fad 2c3d a2d0 513d 1f8b 353d
000003d0: 1789 0e3d 946e cb3c dd54 5f3c 5068 50bb
000003e0: 502b 13bc 08d2 1bbc 44e2 54bc f933 d1bb
000003f0: 7644 86ba 979f d238 c924 e8ba 066c 8a3b
0.040135745 0.028266031 0.0061620395 -0.010901561 -0.017618604 -0.021426063 -0.016855111 -0.013055881
-0.014216573 -0.009826296 -0.0025616612 0.0003383086 -0.0028304358 0.002315918 0.003925664 0.00072908506
-0.0035757925 -0.0010718349 -0.004170037 -0.008773361 -0.001035036 0.0069312886 0.014192661 0.027493536
0.04042943 0.03425918 0.022943802 0.0159939 0.00854326 -0.0041105337 -0.0026528277 -0.0013632616
-0.0038574082 -0.0013017146 0.0045647165 0.0028877733 -0.0023715415 0.0016552533 0.0029108748 -0.0019660988
-0.009077762 -0.0074263266 -0.009638056 -0.012108094 -0.0022152653 0.008128726 0.018103268 0.03268594
0.045555737 0.03988505 0.030802326 0.023197943 0.014046078 -0.00063976075 -0.004387965 -0.0044356007
-0.009642136 -0.004434705 0.00061217695 0.0014748615 -0.0013295066 0.004570936 0.00744247 0.0043804455
0.00022403413 -7.043848e-05 -0.0049033593 -0.011929862 -0.0035241412 0.003881131 0.011940107 0.025741907
0.037657578 0.032132868 0.021160986 0.012561127 0.0019007558 -0.011127281 -0.012603855 -0.013225389
-0.01696599 -0.017715184 -0.018318908 -0.022113733 -0.026457263 -0.026483545 -0.027291568 -0.030831361
-0.0344515 -0.03338719 -0.03331073 -0.034161013 -0.018006578 0.019037792 0.04771615 0.061861284
0.031032223 0.050558574 0.041207615 0.019445123 0.0033734536 -0.010597155 -0.0174592 -0.013211466
-0.011836472 -0.013493592 -0.007270598 0.0010101332 0.0029230777 -0.0012526044 0.004161141 0.0057220194
0.00014935696 -0.004917841 -0.002967618 -0.008296643 -0.012237454 -0.005569033 0.002902261 0.013106269
0.032053646 0.044067606 0.036903784 0.02489757 0.016773662 0.007976565 -0.004266864 -0.0042157862
-0.0026004864 -0.0052340813 -0.00093421206 0.00495626 0.0026867313 -0.0018978011 0.0023841094 0.0031645875
-0.0037088331 -0.011066204 -0.0102820555 -0.013370269 -0.016226374 -0.0059535536 0.0051327725 0.017599331
0.03763306 0.04926098 0.043416493 0.033081945 0.025672419 0.014251506 -0.0015599842 -0.004973477
-0.007394729 -0.011508965 -0.0055061635 0.00034714193 0.0008699086 -0.0014508993 0.0047688116 0.0074037807
0.0026313753 -0.0016271652 -0.0029989646 -0.009559036 -0.015548741 -0.008271656 -0.00053311995 0.010645207
0.02941867 0.041580852 0.034870338 0.023328042 0.014127772 0.0021902302 -0.011349255 -0.012498604
-0.013192064 -0.016494216 -0.015517638 -0.015863905 -0.01920995 -0.022852138 -0.02132597 -0.022883834
-0.02778983 -0.032191012 -0.029809318 -0.028443646 -0.022495072 0.011117082 0.043342557 0.05897072
0.017004617 0.044274952 0.054815177 0.044045 0.027523072 0.011628236 -0.0031640024 -0.0136177
-0.012872435 -0.01131595 -0.011577556 -0.004521972 0.002941458 0.0038639533 0.00021863407 0.0056160484
0.004821143 -0.000558885 -0.005575994 -0.0066105775 -0.011269883 -0.01685624 -0.008177693 0.0029632463
0.018928649 0.03547286 0.04530335 0.037633315 0.025674617 0.016556956 0.006688195 -0.006823041
-0.006030991 -0.0046521 -0.0053405114 -0.0010392081 0.0042037317 0.002504718 -0.0018042651 0.0017369324
0.00030692015 -0.0060643856 -0.013243756 -0.013653375 -0.017563382 -0.020636994 -0.00883478 0.005504139
0.02461487 0.04215729 0.05122436 0.04432213 0.034798708 0.024833001 0.013631073 -0.0031800456
-0.0089824945 -0.009510525 -0.012993399 -0.0063843695 -0.0010243792 0.00010043306 -0.0017711158 0.004224303

Linear_Seasonal.bias f4 [720]
00000000: a285 01bd 9544 27bd d11f 6fbd f730 34bd
00000010: de40 37bd 4865 e4bc 428b 27bd 97cd 2c3d
00000020: 9f30 87bd cf35 513d b758 3bbc 95ed 643d
00000030: 4a54 5abd 4f49 9abd 5d5b 84bd 55c6 bdbc
00000040: 1d21 3f3d df30 a13c 5290 5239 af0c 3c3d
00000050: d9d4 753d 9175 603b dccd c83c 23c8 f7bc
00000060: a7f7 5dba ec82 8e3d 8658 01bd 3e9b 833d
00000070: 41f1 3bbd 32d9 153b 10d1 5bbc c750 8f3d
00000080: db48 cd3b 63df b2bb 3890 94bd ab1c 63bd
00000090: 07ca bebd 890e 19bd da6d 993c 29a3 903d
000000a0: f934 853b 2375 313d 3f29 8f3d d34c 893d
000000b0: 5d63 57bc bc05 91bd 8f73 433d cdf9 193c
000000c0: 5428 48bd ddaa 92bd 509d 39bd 52be 9e3d
000000d0: ba21 843d da1c 083d 675f d93c ed9f 19bd
000000e0: b040 c93a adb2 99bc 85fc 483d 6c0b 05bd
000000f0: 454f 113d 717e 233d 7b71 493c d901 cdbc
00000100: 8fe1 b53c 711c 2b3d 26db 96bd e5cb 273d
00000110: 716e 05bd 8c23 0d3d 469c 533c 83df a6bd
00000120: f282 6dbc 011a 48bd 317a 81bc b428 8c3c
00000130: 262a 9cbd 2907 16bd dd7a 613d 0536 0d3d
00000140: d0d6 c1bd 86fb 703d c018 82bb 436e 5ebc
00000150: 47b6 55bd 6934 79bd 1c64 38bc d1d8 4cbb
00000160: cadd f8bc 1c19 913c 810b 8b3c b6d0 a0bb
00000170: 35b8 593c 7662 dcbc 7a40 213d 39a0 3e3d
00000180: 1edd 12bd a94c 20bd b742 36bd 563b 06bd
00000190: 4d29 2dbc 04e7 253d ad47 a33c 9667 e13b
000001a0: 8f0c aa3d 7ef7 f13c 7d97 733d e5e3 073d
000001b0: 315c f7bb 843f 833c 1b4e 843d e8f8 a8bd
000001c0: 01ad a03d 4d5e 1c3d 8047 01bd 597f a2bc
000001d0: e238 27bd 17c4 cebc 168b aebd 49e9 8ebd
000001e0: 40d1 633b b863 aabc 26a1 c83c aeac 2a3d
000001f0: 8bea 5abd 427e c0bd 54fc 23bc 1bff 32bd
00000200: 53c1 003c 9753 22bd d979 3e3c b98b 8d3d
00000210: 17c0 30bd c6a9 313b 29f6 9abd e342 a63d
00000220: fbea 173d a0c4 10bd 289a 53bd c186 acbc
00000230: 8153 103d 3bbc 963d 6de8 043c 8f27 cfbb
00000240: 84f9 d8bb 850f 9fbd 3055 aa3c 2e2a 73bc
00000250: 4d63 933d 640d adbc 517b 4abc 11b8 2fbd
00000260: 24fd 2b3c d8a3 6fbb 5108 0fbd e27f d8bc
00000270: e190 813d ff5c 74bb deae 7abd 49c3 443c
00000280: e82e 94bd 7413 523d c79f 2e3d 7317 553d
00000290: f690 8c3d 2fd2 fa3b c079 36bc 6fe0 94bd
000002a0: 666b 95bd 86da 2c3d 8f77 543c 3fe4 2e3d
000002b0: 661b 483d b44d 083d 4304 04bd 11b5 bdbc
000002c0: 17f2 a3bc 7f53 233d 7ce5 fd3c 29d9 bdbc
000002d0: ffb8 e8bc f08e ad3c c123 36bd ef26 fabc
000002e0: 79cb a43d 72b8 203d 57eb cbbc 9460 f03c
000002f0: 9699 2ebd 5bd3 57bd 02c2 673d 4d46 cf3c
00000300: 1390 86bc 519c ac3c cd25 fd3c 6859 b9bc
00000310: d891 1abd d770 8b3d 7bc6 a6bc fbed dbbc
00000320: 070c 0bbd 0a2e 9a3d bb4c 4f3d 5aae 90bc
00000330: 4602 a5bc 076a 6c3b 74e2 8ebc 15c4 933c
00000340: f798 3bbd 6818 c93c 6805 95bd 1616 0b3d
00000350: eb2a d3bc 80cb e93a 8679 e2bc 3a12 fabb
00000360: 8e06 113d 48cb 963d 8979 413d 0203 c8bb
00000370: 3ac1 85bd 9e48 2a3d 6b07 5a3d 808d 78bd
00000380: 8550 1ebd 20d6 aa3b 094c 4cbb 2493 66bd
00000390: f446 d63a 336c 75bd 283e 0fbd e95e 88bc
000003a0: 44e6 91bc 2b54 043d 225c 883d 2b32 343d
000003b0: 4918 65bd dd50 bb3c 369b 23bd ced4 c63c
000003c0: 13a8 b93c 051b ec3c 5bda 41bd ecf3 dd3c
000003d0: 62ff a8bd 9aa5 70bd 5fb5 3a3d 45bc 4a3d
000003e0: 4159 bcbc ee03 20bd 922c 1cbd fd82 b7bc
000003f0: fd6e 333d 201e 143d cc4c 70bd a761 163d
-0.031621583 -0.04083689 -0.058379952 -0.04399201 -0.044739597 -0.027880326 -0.04090429 0.042188253
-0.066010706 0.051076706 -0.0114347255 0.05589064 -0.05330304 -0.07533514 -0.06462739 -0.023165861
0.04666244 0.019676624 0.00020080924 0.045910534 0.06001744 0.0034249763 0.024512224 -0.0302468
-0.0008467384 0.06958565 -0.031578563 0.064260945 -0.045884375 0.0022865054 -0.013416544 0.06997829
0.0062647886 -0.0054587587 -0.0725407 -0.05544726 -0.093158774 -0.037367377 0.01872914 0.0706237
0.0040651527 0.0433246 0.06990289 0.06704106 -0.013146249 -0.07081172 0.047717627 0.009397936
-0.048866585 -0.07161496 -0.04531604 0.077511445 0.06451745 0.03323064 0.02653475 -0.037506033
0.0015354361 -0.018761957 0.049068946 -0.032481596 0.035475988 0.039915506 0.012295122 -0.025025295
0.022202281 0.04177517 -0.07366018 0.040965933 -0.03257603 0.03445773 0.012915676 -0.081481
-0.014496552 -0.048852924 -0.015805336 0.017109253 -0.07625227 -0.036627922 0.055048812 0.034475345
-0.094648 0.05883362 -0.0039702356 -0.013576093 -0.052175786 -0.060840998 -0.011254337 -0.0031257162
-0.030379195 0.017712168 0.016973259 -0.004907693 0.013288547 -0.026902419 0.03936813 0.04653952
-0.035855405 -0.03913561 -0.044497218 -0.03277143 -0.010568929 0.040503517 0.019931639 0.0068788035
0.083031766 0.029536959 0.059470642 0.03317632 -0.007548832 0.016021498 0.0646021 -0.082506
0.07845498 0.03817587 -0.03156233 -0.019836115 -0.040825732 -0.025239987 -0.08522622 -0.06978089
0.0034762174 -0.020799503 0.024490904 0.041668586 -0.053446334 -0.09399082 -0.01000889 -0.04370032
0.007858592 -0.0396305 0.01162573 0.069114156 -0.04315194 0.002710925 -0.075664826 0.081182264
0.03708933 -0.035343766 -0.051660687 -0.02106035 0.035235886 0.07360121 0.008112055 -0.0063218544
-0.0066215415 -0.07766632 0.020792574 -0.014841599 0.071966745 -0.02112455 -0.0123585025 -0.04290015
0.010497365 -0.0036566164 -0.03492004 -0.026428167 0.063264616 -0.0037286875 -0.061201923 0.01200945
-0.07235509 0.051288083 0.042632844 0.052024316 0.068635866 0.0076544504 -0.011137426 -0.0726937
-0.07295875 0.042200588 0.012967958 0.04269814 0.048854254 0.03327723 -0.032230627 -0.023157628
-0.020012898 0.03987455 0.030993216 -0.02317484 -0.028408526 0.021186322 -0.04446769 -0.030536143
0.08046622 0.0392384 -0.024892492 0.029342927 -0.04262694 -0.0526918 0.056581505 0.025302077
-0.016426122 0.021070631 0.030901814 -0.02262564 -0.037736744 0.06808632 -0.020358315 -0.026846876
-0.033947017 0.075283125 0.050610285 -0.017661262 -0.020142686 0.003607394 -0.017441966 0.018037835
-0.045800176 0.02454777 -0.07276422 0.03395661 -0.0257773 0.0017837137 -0.027645838 -0.0076315673
0.03540664 0.073629916 0.047235046 -0.006103874 -0.06530996 0.04157316 0.05322973 -0.06068182
-0.03865101 0.005213514 -0.003117325 -0.056292668 0.001634805 -0.05991764 -0.034971386 -0.01664682
-0.017809995 0.03230683 0.06658198 0.043993156 -0.055931363 0.022865707 -0.039942943 0.024271395
0.022663152 0.028821478 -0.04732738 0.02709385 -0.082518354 -0.05875168 0.045583125 0.049495954
-0.022991778 -0.039066248 -0.038128443 -0.022401327 0.04380702 0.036161542 -0.05866699 0.036714222

Linear_Trend.weight f4 [720, 96]
00000000: 4df9 fa3c a7c0 ef3c b611 e13c 3da0 cc3c
00000010: 0ac7 b13c aab0 933c 9196 643c 8892 1d3c
00000020: 5e4c b63b 1cf1 ff3a 71af 88ba e596 3fbb
00000030: d54b 71bb 2d05 a0bb 44fa cabb 9095 e3bb
00000040: eb72 f0bb 6717 fbbb 1bca f8bb 52a1 f4bb
00000050: 1bd8 f2bb 5213 e8bb 7d2b dabb 0fb5 d2bb
00000060: b418 d1bb b360 c5bb 189e bdbb 4e4b bcbb
00000070: 4f35 bfbb e1c7 b9bb 2113 b8bb 5c15 b7bb
00000080: 39f4 abbb 9007 9abb 98b8 74bb 4eea d6ba
00000090: 4efb 693a a106 b13a 7bb1 bc3a ae48 f23a
000000a0: b942 143b 82f6 253b 50b0 473b 6e54 603b
000000b0: dc68 613b 66fe 753b 40ab 883b 39e1 8f3b
000000c0: 32cf 913b 41f4 9f3b e223 a93b e449 aa3b
000000d0: e653 ac3b 73af b83b eeef ba3b d4e6 b33b
000000e0: f396 b33b 0af7 b33b e320 b83b bcd1 c93b
000000f0: 55c0 d43b 7ac0 8f3b d0cd 123b e959 423a
00000100: 43b5 e7b9 6552 b4ba 9512 e2ba 6b91 f0ba
00000110: a5ed f6ba 2457 b6ba c9e0 5bba 6ae5 c8b9
00000120: ec1b 76b7 7899 643a 47db ea3a a0d1 333b
00000130: b20e 803b 5e09 cc3b 26a7 1a3c 85f1 5e3c
00000140: f958 9c3c 16d4 cf3c 3172 043d 3a64 223d
00000150: 2c4a 383d 4820 483d d8c0 553d 0b31 613d
00000160: d90b 6a3d fea0 703d 9052 753d 156e 783d
00000170: 1576 7a3d 37de 7b3d dcd1 7c3d 2965 7d3d
00000180: f913 cf3c 5c17 c53c d1b5 b93c 7946 ab3c
00000190: 441d 983c 6d01 813c 1f96 523c 4538 203c
000001a0: 394d d83b b2c8 733b 4eae a63a e5d3 4eba
000001b0: c278 acba d086 30ba 5be2 0ebb bace 73bb
000001c0: 94cf 97bb cb61 abbb b0ae bbbb 762c bebb
000001d0: 4cb8 bebb cef3 c0bb 2f4a b8bb 408f adbb
000001e0: 9cc9 abbb e85c aebb a47a a7bb 3a81 a4bb
000001f0: 3137 aabb 6967 b1bb cf8a afbb 8575 b2bb
00000200: 8e6a b4bb 7341 aabb d9a1 98bb 2f7b 6cbb
00000210: 9a3a 92ba cb0f c33a 4cd8 fe3a 46cf 063b
00000220: a217 223b b616 3a3b 4544 4a3b ecb7 6c3b
00000230: 3947 813b 1427 823b b33e 8e3b c2c3 9c3b
00000240: 53c1 a23b c832 a63b 7bd8 b43b e363 be3b
00000250: 63c6 be3b 3889 c23b 972d cf3b f1fa d03b
00000260: 77a4 cb3b f177 ce3b 65ec d23b cca0 dd3b
00000270: 9a89 fa3b cfea 023c 2c71 c13b 0346 7b3b
00000280: 0cfb 1d3b c7ad a93a d9b0 f939 3f22 ab39
00000290: 7d61 d139 f8b9 1f3a 1c7c af3a 26ef 0c3b
000002a0: f515 373b 354c 5e3b 912c 923b 564e b43b
000002b0: 0709 d23b fa04 f93b 7432 213c 44a4 523c
000002c0: 2763 893c 15b4 b33c 6af0 e43c a5e0 0d3d
000002d0: fcba 233d 10a2 333d 0413 3f3d 2efb 493d
000002e0: ec33 543d 68cf 5c3d 95a0 633d 81c6 683d
000002f0: 3e4d 6c3d 42c4 6e3d 4895 703d 50c1 713d
00000300: 9fca 9a3c 145a 953c 5975 8d3c e0f4 843c
00000310: aab4 743c 2fd7 583c e9a1 373c df9b 163c
00000320: 6339 e13b a524 993b bca1 343b a836 a53a
00000330: 644d 2a3a ac54 ad3a 8d2f e03a 6ed8 97b5
00000340: f764 ddba 249c 36bb 5c76 66bb a41c 86bb
00000350: d333 8bbb 2376 8cbb 4b1e 8fbb 92d6 88bb
00000360: 0adf 82bb cabc 83bb e854 8abb 4989 87bb
00000370: 108c 8bbb a001 95bb d21c a1bb 49bd a4bb
00000380: c7a4 abbb 68b7 afbb 8502 a7bb ab03 92bb
00000390: fb51 43bb b8e4 26ba 20c7 fc3a 29c0 1c3b
000003a0: ac5d 233b b2f7 383b b832 4e3b 61dd 6e3b
000003b0: db5b 873b 6575 923b 1097 943b a852 a13b
000003c0: 5218 af3b e810 b73b 8ac7 bb3b 4af6 ca3b
000003d0: d18b d33b cc28 d63b 3ab7 da3b df5b e73b
000003e0: c41f eb3b f6f4 e83b 8cf5 ee3b 553e fa3b
000003f0: 0d20 083c 3600 163c 0a04 1a3c 0cc4 ef3b
0.030636454 0.029266668 0.027474266 0.024978751 0.021701355 0.018028576 0.013951913 0.009617455
0.005563303 0.0019526812 -0.0010428262 -0.0029234227 -0.003681888 -0.0048834295 -0.006194385 -0.0069453195
-0.007337918 -0.007662702 -0.007592452 -0.00746552 -0.0074110157 -0.0070823813 -0.0066580162 -0.0064302753
-0.0063811187 -0.0060234903 -0.0057866685 -0.0057462817 -0.0058352123 -0.0056695794 -0.0056175147 -0.005587263
-0.0052476195 -0.0047006086 -0.0037341472 -0.0016396733 0.0008925692 0.0013506004 0.0014396155 0.0018484795
0.0022622778 0.0025323932 0.003047008 0.0034230012 0.0034394776 0.0037535666 0.004170805 0.0043908623
0.0044497484 0.0048814123 0.0051617483 0.0051967967 0.005259025 0.0056361496 0.0057048714 0.0054901633
0.005480641 0.005492096 0.005619155 0.0061590355 0.0064926543 0.0043869587 0.0022400506 0.00074139104
-0.00044194804 -0.0013757466 -0.001724797 -0.0018353885 -0.0018839134 -0.0013911468 -0.00083876826 -0.000383179
-1.4669244e-05 0.00087203784 0.0017918133 0.0027438179 0.003908002 0.0062267026 0.009439265 0.013607387
0.019085394 0.025369685 0.032335464 0.039646365 0.04499261 0.04885891 0.052185863 0.05497841
0.057140205 0.058747284 0.05989319 0.060651857 0.061147768 0.061491217 0.061723575 0.061864052
0.025278078 0.02405899 0.022669705 0.020907627 0.018568642 0.01574775 0.0128531745 0.009779041
0.0066010025 0.003719848 0.0012716742 -0.0007889851 -0.0013158547 -0.0006733956 -0.00218024 -0.0037202076
-0.0046328995 -0.0052301637 -0.0057276115 -0.00580364 -0.0058203097 -0.005888439 -0.0056240777 -0.0052966177
-0.0052425396 -0.005321134 -0.0051110554 -0.005020288 -0.0051945676 -0.005413939 -0.0053571234 -0.0054461383
-0.0055058664 -0.0051957904 -0.0046579656 -0.0036084165 -0.0011156381 0.0014882026 0.0019443124 0.0020570322
0.0024733325 0.0028394884 0.0030863446 0.0036120368 0.003945258 0.0039719436 0.0043409704 0.0047840783
0.0049668937 0.0050719716 0.0055189705 0.0058102473 0.0058219894 0.005936768 0.0063225734 0.006377571
0.006214674 0.006300919 0.006436872 0.0067635532 0.007645798 0.007990553 0.0059033837 0.003834129
0.0024105934 0.0012945466 0.00047624743 0.00032641177 0.0003993622 0.000609308 0.0013388428 0.0021504848
0.0027936671 0.0033919935 0.004460879 0.0055025024 0.0064097675 0.00759947 0.009838689 0.012856547
0.016770912 0.021936456 0.02794667 0.034638066 0.039973244 0.043855727 0.046648994 0.04931181
0.05180733 0.053908736 0.055573065 0.056829933 0.05769085 0.058292635 0.058736116 0.059022248
0.018895445 0.01823143 0.01726787 0.016230047 0.014935652 0.0132348975 0.011208036 0.009192436
0.006873296 0.004673558 0.0027562222 0.001260479 0.00064965175 0.0013224087 0.0017104015 -1.1313366e-06
-0.0016891052 -0.0027864063 -0.0035165763 -0.0040927697 -0.0042481213 -0.004286544 -0.004367625 -0.0041759694
-0.0039938735 -0.004020308 -0.0042215474 -0.0041362387 -0.00425864 -0.004547313 -0.0049167657 -0.0050274474
-0.005238149 -0.00536244 -0.005096736 -0.0044560037 -0.0029803503 -0.0006366479 0.0019285418 0.0023918247
0.002492766 0.002822381 0.0031463336 0.003644787 0.004130823 0.004469561 0.0045346096 0.0049231835
0.0053434754 0.005586732 0.005730574 0.0061939107 0.0064558764 0.006535625 0.0066746743 0.0070605124
0.0071754176 0.0071092797 0.007292455 0.007636825 0.008308423 0.009155324 0.009400377 0.007317072

Linear_Trend.bias f4 [720]
00000000: 98a8 db3c 0270 953b e8ff 583d 2e1d ea3c
00000010: f313 85bc e63f 3ebd 06f0 1abd c94f c63c
00000020: c20d 923d 921d 0bbd fe8c db3b c026 83bd
00000030: 1c1c d33c a187 953d 4c2e 653d b260 5d3a
00000040: 7e87 6fbd 626b a63c 84bd e73c 671b 0e3b
00000050: 9ad3 63bd 659c e939 81eb 7e3b cd06 d43c
00000060: 7b19 b3bc 5761 91bd f7ec f43c db27 85bd
00000070: 52bb fdbb 7a0b 6a39 2212 b13a ed56 a5bd
00000080: 47be febc 9d62 0ebc 0ef9 893d 88ef 483d
00000090: 950e ac3d ca3a b33c 7392 09bd 47dd a5bd
000000a0: 8a9b a6bc fad6 79bd 80fa a8bd 3b09 8ebd
000000b0: c263 78bc 401d 733d 9108 52bd 545b 12bd
000000c0: ce64 c7bb cacb 863d 3851 383d 3457 b8bd
000000d0: b257 78bd ba42 18bd ea2f 68bd 0576 393d
000000e0: a862 3bbc 0bf3 313c eacc 06bc 72ae a03c
000000f0: b28a 20bd 0728 3dbd 1079 8b3b 0074 46bd
00000100: 149a cdbc d553 2ebd f6e3 943d d51e 45bd
00000110: ff74 f53b 70c7 e73a 5709 153d cd02 823d
00000120: 30a2 233d 4120 423d 5032 38bd fb3c 0ebd
00000130: fb58 693d 4ed6 293a a91f 90bd d185 52bd
00000140: 785e ad3d 8c6f 8bbd a69d f03c 2dc9 c0bc
00000150: 6191 fb3c 0667 3d3d 25b5 e0bc b377 c2bc
00000160: 3468 163d d65b 34bd 1efe 70bd 2b69 55bd
00000170: b42d e93c 87a9 243d 6602 69bd 5011 23bd
00000180: 9867 f73c c1d8 083d 5e16 90bc 6a9c 45bd
00000190: 2425 043b cfa6 323d 0e3c e0bc dc51 043d
000001a0: b193 c5bd 31df 44bd 03ef 92bd fdf1 0a3d
000001b0: c5b0 04bd a059 0fbd d246 aabd 493b 9c3d
000001c0: 0df4 b3bd 5317 c9bc 49c4 2bbd 3e0a 0c3d
000001d0: a702 3fbd 7231 ad3c cc9f 933d 626a 6c3d
000001e0: 6b99 ffbc a2f2 c93c c39e 3bbc 72f0 99bc
000001f0: 4d24 943b 8196 9f3d 1fdc 293c 31b1 613d
00000200: 5d39 2abd 9919 4bbb ad9e 2bbc 610f a5bd
00000210: 9c76 173d ae85 31bd f149 783d dc46 bcbd
00000220: 9f4c 21bd 28ee be3c a050 963c 5db6 3b3c
00000230: f58b 263d 5d1a bbbd 8c0e 45bc 46f8 ff3c
00000240: 1394 8abc f7ac 803d a149 13bd cd6a 393c
00000250: 7cf9 bdbd bf73 ba3c 3b1c f2bc b63e e7bc
00000260: 2f35 60bd 4ad9 cabc 94c2 27bd a5c4 ccbc
00000270: fec7 85bd a2e2 abbc ebee c23c 5407 ff3c
00000280: b396 503d 2651 5ebd d62a 8dbd 4916 a4bd
00000290: cd73 b4bd 7242 2cbd 198f 9b3c 4b99 5e3d
000002a0: b6d3 5c3d bd02 39ba 7032 44bd aa88 f5bc
000002b0: 92ce 98bd 00df 6bbd a27e 4f3d f36c e7bc
000002c0: 63f4 1e3d 86db 50bd 9be7 7abc 29d4 f83c
000002d0: 34af f53b e722 33bd 05e3 be3c 2b80 da3b
000002e0: 3730 ccbd d23e bf3c 95b8 b83c 003b 64bd
000002f0: 049e 383d 2d91 993c 3e93 a8bd 9eec 84bd
00000300: 91b3 393b ac8c 77bd abda 1abd c45c 27bc
00000310: 0294 403d 775f b6bd 621b f9bb 725b 243c
00000320: f62e 643c 2e04 b9bd 9b7f 92bd 4836 823c
00000330: 9b54 083c f9c9 6ebc 5475 81bb 5960 44bd
00000340: 893d e13c 0cd3 82bd 0f2c 763d 6f78 41bd
00000350: 25e9 403c 525e e2bc 1773 92b9 88d8 62bb
00000360: 543e 61bd 9600 bcbd d0d2 4abd ec4f 31bc
00000370: dbd6 9f3c 6559 78bd 80b3 a3bd 9950 133d
00000380: faa5 883c 2143 15bd 4317 1cbd 4786 ec3c
00000390: ece1 29bd 8689 f73c dd97 cb3b e72c 7bbc
000003a0: 3d09 1bbd ff94 0bbc 777d 9abd ed6d 93bd
000003b0: 49c5 fabb 1850 e13c 8a6f f73c 9a62 3bbd
000003c0: 714f 31bd 63a3 89bd 9c91 153d 19cb 69bd
000003d0: b9ab 883d 0545 133d 0c2f 7abd 4ae5 9ebd
000003e0: 707f 56bd 92d0 143c 13f0 853c 1856 4e3d
000003f0: fa27 0b3c fdb1 e73c 1a89 533d 8a60 97bd
0.02681379 0.0045604715 0.052978426 0.028578367 -0.016244864 -0.046447657 -0.03782656 0.024207966
0.0713153 -0.033963747 0.006700157 -0.06403875 0.02577024 0.0730126 0.055952355 0.00084448897
-0.058478825 0.020314876 0.02828861 0.0021683814 -0.05562172 0.00044557746 0.0038897695 0.02588215
-0.021862736 -0.07098644 0.02989815 -0.065017425 -0.0077432776 0.00022320254 0.0013509432 -0.080732204
-0.03109659 -0.008690503 0.067369565 0.04905656 0.08401219 0.021878619 -0.03358693 -0.08098846
-0.020337839 -0.060996033 -0.08250904 -0.06935354 -0.015160503 0.059354067 -0.0512777 -0.03573163
-0.006085015 0.065818384 0.04499933 -0.09001008 -0.060630508 -0.03717301 -0.05668632 0.045278568
-0.011437096 0.010861169 -0.008227566 0.019614432 -0.03919477 -0.04618075 0.004256375 -0.04845047
-0.025097884 -0.042560417 0.072700426 -0.048125107 0.0074907537 0.0017683338 0.03638586 0.063481905
0.039949596 0.04739404 -0.044969857 -0.034726124 0.056969624 0.0006478772 -0.07037289 -0.05139715
0.08465284 -0.06808385 0.029372048 -0.023533428 0.03070897 0.04624083 -0.027430126 -0.023738718
0.03672047 -0.044032894 -0.058836095 -0.05210225 0.028464176 0.040200736 -0.056887053 -0.039811432
0.030200765 0.033409838 -0.01758879 -0.04824487 0.002016374 0.043616112 -0.027372386 0.03230463
-0.096473105 -0.048064414 -0.07174494 0.033922184 -0.032395143 -0.034997582 -0.08314289 0.07628495
-0.08786783 -0.024547255 -0.04193524 0.034189455 -0.04663339 0.021141741 0.07208213 0.057718642
-0.031201085 0.02465183 -0.011451426 -0.018791411 0.004520929 0.07792378 0.010367422 0.055100624
-0.041558612 -0.00309906 -0.010474843 -0.08059574 0.03697835 -0.043340378 0.06061739 -0.09193203
-0.039379712 0.023306921 0.018348992 0.011457053 0.040660817 -0.09135888 -0.012027394 0.031246316
-0.01691631 0.062829904 -0.03595889 0.011316967 -0.09276101 0.02276027 -0.029554477 -0.028228145
-0.05473822 -0.024761815 -0.04095705 -0.024996111 -0.06532286 -0.02098209 0.023795566 0.031131424
0.050924968 -0.054276608 -0.06892936 -0.08012063 -0.0881115 -0.042055555 0.018989133 0.05434541
0.05391284 -0.0007057598 -0.047899663 -0.029972393 -0.07461275 -0.057585716 0.050657876 -0.028250193
0.038807284 -0.050990604 -0.015314008 0.030374603 0.0074976925 -0.043734457 0.02330161 0.006668111
-0.09970134 0.023345385 0.022548953 -0.05572033 0.04507257 0.018745983 -0.08231209 -0.06490444
0.002833579 -0.06043689 -0.037806194 -0.010214988 0.04701615 -0.08904927 -0.0076021412 0.010031568
0.013927212 -0.09034 -0.07153245 0.015895024 0.008320953 -0.014574521 -0.003950754 -0.047943447
0.027495163 -0.0638791 0.06010061 -0.047233995 0.011774336 -0.027632866 -0.0002793304 -0.0034613926
-0.05499108 -0.09179799 -0.049517453 -0.0108222775 0.01951163 -0.06063213 -0.07993221 0.035965536
0.016680706 -0.036440972 -0.03810812 0.028872622 -0.04147522 0.030216943 0.006213172 -0.01533053
-0.037850607 -0.00851941 -0.07543462 -0.07198701 -0.0076529128 0.027504012 0.030204553 -0.04574833
-0.04328865 -0.06720617 0.036515817 -0.057078455 0.066733785 0.035954494 -0.061080024 -0.07758577
-0.052367628 0.00908293 0.016349828 0.050375074 0.008493418 0.028283114 0.051644422 -0.0739146
