checkpoints/long_term_forecast_ETTh1_96_720_DLinear_ETTh1_ftM_sl96_ll48_pl720_dm512_nh8_el2_dl1_df2048_fc3_ebtimeF_dtTrue_Exp_0/checkpoint.pth (torch, 560655 bytes, 4 tensors)

Linear_Seasonal.weight f4 [720, 96]
00000000: cf64 243d 6f8d e73c 2ae7 c93b 879d 32bc
00000010: 6a53 90bc 5885 afbc f512 8abc c9e5 55bc
00000020: 4aec 68bc d7fd 20bc fde2 27bb e970 b139
00000030: a87a 39bb 58c8 173b 6ea2 803b c41f 3f3a
00000040: 0a56 6abb c47d 8cba a3a0 88bb a5bc 0fbc
00000050: 649a 87ba 0e20 e33b 9b86 683c 6c39 e13c
00000060: b198 253d bd52 0c3d 58f3 bb3c ab04 833c
00000070: 5ff6 0b3c 10b3 86bb 85e0 2dbb b2b4 b2ba
00000080: 83d0 7cbb 2ca9 aaba 6e90 953b 7735 3d3b
00000090: bc71 1bbb 65e6 d83a e2bc 3e3b 4cdf 00bb
000000a0: 59bb 14bc 675a f3bb 57e9 1dbc ea62 46bc
000000b0: f730 11bb 892f 053c 6f4d 943c 81e1 053d
000000c0: 9298 3a3d 8d5e 233d b155 fc3c c509 be3c
000000d0: 1d22 663c 418a 27ba acc3 8fbb aa53 91bb
000000e0: 78f9 1dbc 4f50 91bb 189b 203a 8c4a c13a
000000f0: 4640 aeba d8c8 953b 20e2 f33b 008d 8f3b
00000100: a917 6b39 fde2 92b8 0faa a0bb d674 43bc
00000110: d7ef 66bb 9d58 7e3b e69e 433c 2ee0 d23c
00000120: b63e 1a3d 979d 033d 5259 ad3c a3cb 4d3c
00000130: 8814 f93a 6651 36bc 037f 4ebc 70af 58bc
00000140: 00fc 8abc fb1e 91bc ae11 96bc 0628 b5bc
00000150: 76bd d8bc d2f3 d8bc 4393 dfbc 4692 fcbc
00000160: 4c1d 0dbd 11c1 08bd 8270 08bd 8bec 0bbd
00000170: 8883 93bc 13f6 9b3c 1d72 433d 3e62 7d3d
00000180: 6736 fe3c b516 4f3d 97c9 283d de49 9f3c
00000190: 671f 5d3b 719e 2dbc 8306 8fbc 7673 58bc
000001a0: 26ee 41bc dc14 5dbc 8341 eebb 9f81 843a
000001b0: 2795 3f3b 3023 a4ba e358 883b 517f bb3b
000001c0: 5d10 1d39 3325 a1bb 707c 42bb 09ed 07bc
000001d0: bf7f 48bc 007c b6bb 6935 3e3b 17bb 563c
000001e0: 944a 033d f27f 343d 4628 173d fbf4 cb3c
000001f0: f167 893c 6eaf 023c 50d2 8bbb e426 8abb
00000200: 886f 2abb d285 abbb 5f00 75ba 4964 a23b
00000210: 6009 303b 0ac9 f8ba ca38 1c3b 805d 4f3b
00000220: 2016 73bb 744f 35bc 4677 28bc d70e 5bbc
00000230: 7bee 84bc 5b17 c3bb 7f2f a83b 0f2c 903c
00000240: 0a25 1a3d 0cc6 493d 87d5 313d 0f81 073d
00000250: e44e d23c a67f 693c de64 ccba e9f4 a2bb
00000260: bf4b f2bb e28f 3cbc e46a b4bb 4d1a b639
00000270: 9d03 643a cf28 beba ec42 9c3b 319e f23b
00000280: 2778 2c3b 5540 d5ba 9684 44bb 419c 1cbc
00000290: 9dbe 7ebc 8e83 07bc 39c6 0bba a367 2e3c
000002a0: e0fe f03c 8550 2a3d 01d4 0e3d 9e19 bf3c
000002b0: 2776 673c e881 0f3b eff2 39bc 0cc8 4cbc
000002c0: c022 58bc 081e 87bc 3a3d 7ebc 8af4 81bc
000002d0: 345e 9dbc 0e34 bbbc 8eb4 aebc 3577 bbbc
000002e0: 98a7 e3bc e2da 03bd b331 f4bc bf02 e9bc
000002f0: 5b48 b8bc a623 363c 8b87 313d 448b 713d
00000300: 6e4c 8b3c 8559 353d e285 603d 1368 343d
00000310: dc78 e13c 5b85 3e3c d562 4fbb e01b 5fbc
00000320: 9fe7 52bc 8967 39bc a5b0 3dbc c92b 94bb
00000330: a7c6 403b 393b 7d3b af7a 6539 3309 b83b
00000340: 75fd 9d3b 4c69 12ba 0eb4 b6bb ea9c d8bb
00000350: e8a4 38bc 0716 8abc 78fa 05bc b632 423b
00000360: a80f 9b3c e34b 113d b28f 393d fc24 1a3d
00000370: 9f52 d23c 1ea2 873c 9f24 db3b 4397 dfbb
00000380: a39d c5bb 6f72 98bb 0702 afbb 753f 88ba
00000390: 77bd 893b 691c 243b 5986 ecba dca6 e33a
000003a0: e4b0 a039 69b9 c6bb e1fc 58bc 94b3 5fbc
000003b0: 34e1 8fbc b30e a9bc 0ec1 10bc 775a b43b
000003c0: c9a4 c93c 42ad 2c3d b0d0 513d e58a 353d
000003d0: 2c89 0e3d 4c6e cb3c de56 5f3c fb59 50bb
000003e0: 4029 13bc bfd1 1bbc 27e0 54bc 9e32 d1bb
000003f0: 9240 86ba c241 d238 c424 e8ba ea6b 8a3b
0.0401352 0.028265683 0.00616159 -0.010901815 -0.0176179 -0.021425888 -0.016854743 -0.013055273
-0.014216492 -0.009826145 -0.0025617473 0.00033844195 -0.0028301869 0.0023160186 0.003925613 0.0007290805
-0.003575685 -0.0010718633 -0.00416954 -0.008773004 -0.0010345695 0.0069313115 0.014192249 0.027493201
0.04042882 0.034258593 0.022943184 0.015993437 0.008542626 -0.0041107014 -0.002653153 -0.0013634174
-0.003857643 -0.0013020388 0.0045643365 0.002887098 -0.0023718914 0.0016548155 0.0029104282 -0.0019664345
-0.00907787 -0.0074265483 -0.009638152 -0.012108544 -0.002215443 0.008129009 0.01810333 0.03268576
0.04555566 0.039885093 0.03080258 0.023198018 0.014046219 -0.0006391146 -0.0043873396 -0.0044350224
-0.0096419975 -0.0044346224 0.00061266264 0.0014746948 -0.0013294301 0.0045710616 0.0074427277 0.004380822
0.0002242016 -7.0041024e-05 -0.004903085 -0.011929711 -0.003523817 0.0038810142 0.01193974 0.025741663
0.037657462 0.03213271 0.021160755 0.012560758 0.0019003311 -0.011127805 -0.012603524 -0.013225421
-0.016965866 -0.017714968 -0.018318977 -0.022113811 -0.02645753 -0.02648345 -0.0272919 -0.030831467
-0.034451768 -0.033387247 -0.03331042 -0.03416113 -0.018007055 0.019038236 0.04771625 0.06186127
0.0310318 0.050558764 0.041207876 0.019444402 0.003374064 -0.010596857 -0.01745916 -0.013211122
-0.011836564 -0.013493743 -0.007270993 0.0010109431 0.0029233189 -0.0012522694 0.0041609867 0.0057219644
0.00014978783 -0.0049177646 -0.0029676221 -0.00829626 -0.012237488 -0.005568981 0.0029023534 0.013106129
0.032053545 0.04406733 0.036903642 0.02489709 0.016773196 0.007976396 -0.0042670146 -0.004216062
-0.002600642 -0.0052344585 -0.00093460636 0.0049558026 0.0026861057 -0.0018980813 0.002383756 0.0031641424
-0.0037092045 -0.011066306 -0.010282343 -0.013370237 -0.016226998 -0.005953712 0.005132615 0.017599134
0.03763298 0.049261138 0.043416526 0.033082064 0.025672384 0.014251625 -0.0015594026 -0.004973043
-0.0073942835 -0.011508914 -0.0055059064 0.0003473334 0.0008698048 -0.0014508012 0.00476872 0.007404112
0.0026316734 -0.0016269783 -0.0029986254 -0.009558738 -0.015548375 -0.008271111 -0.00053319667 0.010644826
0.029418409 0.041580696 0.03487015 0.023327645 0.014127291 0.0021897499 -0.011349424 -0.012498867
-0.013191879 -0.016493812 -0.015517527 -0.015863676 -0.019209959 -0.02285197 -0.02132633 -0.02288399
-0.027789876 -0.032191165 -0.029808855 -0.028443692 -0.02249544 0.011116898 0.043342154 0.058970705
0.017004218 0.044274826 0.05481518 0.044044565 0.02752345 0.011628474 -0.0031644602 -0.013617486
-0.012872606 -0.011316189 -0.01157776 -0.004521821 0.002941528 0.0038640036 0.00021884845 0.005616331
0.004821474 -0.00055851485 -0.0055756634 -0.0066105025 -0.011269785 -0.016856207 -0.008177392 0.0029632277
0.018928364 0.03547276 0.045303054 0.037632927 0.025674162 0.016556796 0.006687715 -0.0068234517
-0.0060307547 -0.0046523134 -0.005340818 -0.0010394888 0.004203494 0.0025041348 -0.001804541 0.0017368454
0.00030649372 -0.006064583 -0.013243885 -0.013653655 -0.01756344 -0.020636892 -0.00883509 0.0055039483
0.024614708 0.04215742 0.05122441 0.044321913 0.034798786 0.024832867 0.013631551 -0.0031791914
-0.008982003 -0.009510457 -0.012992895 -0.006384208 -0.0010242632 0.00010025829 -0.0017711152 0.00422429

Linear_Seasonal.bias f4 [720]
00000000: cf85 01bd 9744 27bd c91f 6fbd 0631 34bd
00000010: ed40 37bd 6365 e4bc 498b 27bd b5cd 2c3d
00000020: 8930 87bd f935 513d 9a58 3bbc 7aed 643d
00000030: 3d54 5abd 3c49 9abd 5a5b 84bd 21c6 bdbc
00000040: 3321 3f3d ee30 a13c 9ead 5239 e50c 3c3d
00000050: e9d4 753d 0076 603b f8cd c83c fac7 f7bc
00000060: 58fe 5dba f682 8e3d 6d58 01bd 439b 833d
00000070: 52f1 3bbd 9ada 153b cad0 5bbc ca50 8f3d
00000080: 9549 cd3b e3de b2bb 2190 94bd 951c 63bd
00000090: 03ca bebd 860e 19bd 186e 993c 30a3 903d
000000a0: f234 853b 3675 313d 4529 8f3d de4c 893d
000000b0: 1563 57bc b505 91bd 8d73 433d 1bfa 193c
000000c0: 2128 48bd d6aa 92bd 609d 39bd 62be 9e3d
000000d0: c421 843d 101d 083d 755f d93c c49f 19bd
000000e0: ef43 c93a 67b2 99bc 9efc 483d 5f0b 05bd
000000f0: 444f 113d 947e 233d a971 493c a901 cdbc
00000100: a3e1 b53c 831c 2b3d 1ddb 96bd f9cb 273d
00000110: 4c6e 05bd ac23 0d3d ea9c 533c 81df a6bd
00000120: 3583 6dbc ec19 48bd 537a 81bc b228 8c3c
00000130: 2c2a 9cbd 3207 16bd fb7a 613d 1936 0d3d
00000140: c5d6 c1bd 9efb 703d b017 82bb 426e 5ebc
00000150: 37b6 55bd 4034 79bd f063 38bc a8d7 4cbb
00000160: 9bdd f8bc 3919 913c bf0b 8b3c 7ed0 a0bb
00000170: 50b8 593c 3862 dcbc 7940 213d 45a0 3e3d
00000180: 08dd 12bd b74c 20bd b942 36bd 553b 06bd
00000190: 2b29 2dbc 30e7 253d ef47 a33c 8b68 e13b
000001a0: 9b0c aa3d 90f7 f13c 8097 733d f0e3 073d
000001b0: 0b5d f7bb 953f 833c 1d4e 843d ddf8 a8bd
000001c0: 09ad a03d 705e 1c3d 7e47 01bd 227f a2bc
000001d0: db38 27bd d5c3 cebc 1b8b aebd 46e9 8ebd
000001e0: 69cf 633b 8063 aabc 91a1 c83c cfac 2a3d
000001f0: 90ea 5abd 357e c0bd 23fc 23bc 13ff 32bd
00000200: 9dc1 003c 8e53 22bd f779 3e3c be8b 8d3d
00000210: 15c0 30bd abaa 313b 29f6 9abd ec42 a63d
00000220: f7ea 173d 89c4 10bd 2a9a 53bd 9c86 acbc
00000230: 8653 103d 3cbc 963d 8be8 043c 7527 cfbb
00000240: c7f9 d8bb 870f 9fbd 1f55 aa3c 7d2a 73bc
00000250: 4f63 933d 380d adbc 357b 4abc 08b8 2fbd
00000260: 6bfd 2b3c 1aa3 6fbb 5a08 0fbd ff7f d8bc
00000270: e690 813d 5e5d 74bb e7ae 7abd 6ec3 443c
00000280: de2e 94bd 7c13 523d bb9f 2e3d 7517 553d
00000290: 0391 8c3d a2d1 fa3b 7d79 36bc 69e0 94bd
000002a0: 606b 95bd 9fda 2c3d 2378 543c 40e4 2e3d
000002b0: 5d1b 483d cc4d 083d 3204 04bd f9b4 bdbc
000002c0: fcf1 a3bc 8b53 233d 7ee5 fd3c 2dd9 bdbc
000002d0: 19b9 e8bc fb8e ad3c d423 36bd 1527 fabc
000002e0: 7ecb a43d 81b8 203d 34eb cbbc 9260 f03c
000002f0: 8799 2ebd 60d3 57bd ecc1 673d 4b46 cf3c
00000300: 2990 86bc 379c ac3c c525 fd3c 9359 b9bc
00000310: bf91 1abd d470 8b3d 80c6 a6bc d1ed dbbc
00000320: f70b 0bbd 152e 9a3d bb4c 4f3d 37ae 90bc
00000330: 2a02 a5bc a86a 6c3b 73e2 8ebc 2cc4 933c
00000340: 0599 3bbd ae18 c93c 6605 95bd 2516 0b3d
00000350: e62a d3bc 5ccb e93a a379 e2bc af11 fabb
00000360: 7a06 113d 3fcb 963d 7c79 413d 6103 c8bb
00000370: 33c1 85bd ac48 2a3d 7007 5a3d 738d 78bd
00000380: 7950 1ebd bad6 aa3b b54a 4cbb 2c93 66bd
00000390: 2447 d63a 2c6c 75bd 253e 0fbd ea5e 88bc
000003a0: 12e6 91bc 3354 043d 2e5c 883d 3d32 343d
000003b0: 3e18 65bd fd50 bb3c 359b 23bd afd4 c63c
000003c0: ffa7 b93c e71a ec3c 6fda 41bd d3f3 dd3c
000003d0: 63ff a8bd a3a5 70bd 69b5 3a3d 49bc 4a3d
000003e0: 0a59 bcbc e703 20bd 802c 1cbd 0583 b7bc
000003f0: 026f 333d 2a1e 143d b54c 70bd a461 163d
-0.03162175 -0.040836897 -0.058379922 -0.043992065 -0.044739652 -0.027880376 -0.040904317 0.042188365
-0.06601054 0.051076863 -0.0114346985 0.055890538 -0.053302992 -0.075334996 -0.064627364 -0.023165764
0.04666252 0.019676652 0.00020091838 0.045910735 0.0600175 0.003425002 0.024512276 -0.030246723
-0.0008468381 0.069585726 -0.03157847 0.06426098 -0.045884438 0.0022865892 -0.013416478 0.06997831
0.006264875 -0.005458699 -0.07254053 -0.05544718 -0.093158744 -0.037367366 0.018729255 0.070623755
0.0040651495 0.04332467 0.069902934 0.067041144 -0.013146182 -0.07081167 0.04771762 0.009398009
-0.048866395 -0.071614906 -0.0453161 0.077511564 0.06451753 0.03323084 0.026534775 -0.03750588
0.0015355329 -0.018761827 0.04906904 -0.032481547 0.035475984 0.039915636 0.012295165 -0.025025206
0.022202319 0.041775238 -0.07366011 0.040966008 -0.03257589 0.034457847 0.012915829 -0.08148099
-0.014496614 -0.048852846 -0.015805399 0.017109249 -0.07625231 -0.036627956 0.055048924 0.03447542
-0.09464792 0.05883371 -0.003970109 -0.013576092 -0.052175727 -0.060840845 -0.011254296 -0.003125647
-0.030379107 0.017712222 0.016973374 -0.0049076667 0.013288572 -0.026902303 0.039368127 0.046539564
-0.035855323 -0.03913566 -0.044497225 -0.032771427 -0.010568897 0.04050368 0.019931762 0.0068789176
0.083031856 0.029536992 0.059470654 0.033176363 -0.0075489334 0.01602153 0.064602114 -0.08250592
0.07845504 0.038176 -0.03156232 -0.019836012 -0.040825706 -0.025239864 -0.08522626 -0.06978087
0.0034761077 -0.020799398 0.024491103 0.04166871 -0.053446352 -0.09399072 -0.010008845 -0.04370029
0.007858661 -0.039630465 0.011625758 0.06911419 -0.043151934 0.0027109783 -0.075664826 0.08118233
0.037089314 -0.03534368 -0.051660694 -0.02106028 0.035235904 0.073601216 0.008112083 -0.0063218423
-0.0066215727 -0.077666335 0.020792542 -0.014841673 0.07196676 -0.021124467 -0.012358476 -0.042900115
0.010497431 -0.0036565722 -0.034920074 -0.02642822 0.06326465 -0.0037287096 -0.061201956 0.012009485
-0.07235502 0.051288113 0.0426328 0.052024323 0.06863596 0.0076543847 -0.0111373635 -0.07269365
-0.07295871 0.04220068 0.012968096 0.042698145 0.04885422 0.033277318 -0.032230563 -0.023157584
-0.020012848 0.039874595 0.03099322 -0.023174847 -0.028408574 0.021186342 -0.044467762 -0.030536214
0.080466256 0.039238457 -0.024892427 0.029342923 -0.042626884 -0.052691817 0.056581423 0.025302073
-0.016426163 0.021070583 0.030901799 -0.02262572 -0.03773665 0.0680863 -0.020358324 -0.026846798
-0.033946957 0.07528321 0.050610285 -0.017661197 -0.020142633 0.0036074314 -0.017441964 0.018037878
-0.045800228 0.024547901 -0.0727642 0.033956666 -0.025777292 0.0017837095 -0.027645892 -0.0076315026
0.035406567 0.07362985 0.047234997 -0.0061039184 -0.065309905 0.04157321 0.05322975 -0.06068177
-0.038650963 0.0052135857 -0.0031172459 -0.056292698 0.0016348106 -0.059917614 -0.034971375 -0.016646821
-0.017809901 0.03230686 0.06658207 0.043993223 -0.055931322 0.022865767 -0.03994294 0.024271337
0.022663115 0.028821422 -0.047327455 0.027093804 -0.08251836 -0.058751713 0.045583162 0.04949597
-0.022991676 -0.03906622 -0.038128376 -0.022401342 0.043807037 0.03616158 -0.058666904 0.03671421

Linear_Trend.weight f4 [720, 96]
00000000: 1afc fa3c abc4 ef3c 4916 e13c 62a4 cc3c
00000010: bfca b13c f0b3 933c 5397 643c be96 1d3c
00000020: a24a b63b 9693 ff3a ac36 89ba 75e2 3fbb
00000030: 3073 71bb 0207 a0bb f7f9 cabb ab99 e3bb
00000040: 1a77 f0bb 6c17 fbbb f9ca f8bb a39d f4bb
00000050: fecf f2bb 9813 e8bb 4b2d dabb 81af d2bb
00000060: 3b14 d1bb 445d c5bb a89e bdbb 6f4b bcbb
00000070: f530 bfbb 3dc3 b9bb 6a0d b8bb 2215 b7bb
00000080: 28f4 abbb 5305 9abb b0af 74bb 77d1 d6ba
00000090: 5b2f 6a3a 400e b13a e8c4 bc3a 4541 f23a
000000a0: 4236 143b c9ee 253b 3d9d 473b 1347 603b
000000b0: 735e 613b 5ef3 753b f0a1 883b 3fda 8f3b
000000c0: 73c5 913b 69ec 9f3b bd1d a93b ac45 aa3b
000000d0: ee4d ac3b 3daf b83b 25f0 ba3b 3de6 b33b
000000e0: 2093 b33b eaf6 b33b 4225 b83b 79d4 c93b
000000f0: c8c2 d43b dfbe 8f3b 56d5 123b 3270 423a
00000100: cdd9 e7b9 c64e b4ba f70e e2ba e896 f0ba
00000110: 99ed f6ba cb76 b6ba e712 5cba d267 c9b9
00000120: 4cbb 83b7 9963 643a 94c7 ea3a 5bcf 333b
00000130: 9a0c 803b d310 cc3b 84ab 1a3c cdf7 5e3c
00000140: 085b 9c3c 8cd5 cf3c 1573 043d 1765 223d
00000150: d04a 383d ca20 483d 6fc1 553d 7231 613d
00000160: b80b 6a3d 05a1 703d 9952 753d 406e 783d
00000170: 6376 7a3d 1fde 7b3d e8d1 7c3d 0d65 7d3d
00000180: bc16 cf3c 531a c53c 98b8 b93c ad4a ab3c
00000190: ad20 983c f402 813c 0297 523c 473c 203c
000001a0: 7449 d83b e5c2 733b b492 a63a ea52 4fba
000001b0: 57a7 acba bae2 30ba 14f6 0ebb c4df 73bb
000001c0: 56d9 97bb 9767 abbb 91b0 bbbb 712e bebb
000001d0: 74b5 bebb 1df0 c0bb 894d b8bb 3792 adbb
000001e0: 32c4 abbb 2d5d aebb 5e7b a7bb fb82 a4bb
000001f0: 0c38 aabb dc66 b1bb 8686 afbb 1d71 b2bb
00000200: 0d69 b4bb 3e41 aabb 4aa0 98bb a974 6cbb
00000210: 5473 92ba 29f6 c23a e6c4 fe3a 76d0 063b
00000220: a716 223b 7316 3a3b c743 4a3b 8db2 6c3b
00000230: b046 813b cf29 823b 2740 8e3b dbbf 9c3b
00000240: 8fbf a23b d82d a63b c8d2 b43b 565f be3b
00000250: 84c3 be3b 1184 c23b 672c cf3b 3afa d03b
00000260: 5aa1 cb3b c373 ce3b 71ea d23b 19a3 dd3b
00000270: d989 fa3b 2deb 023c 4c70 c13b df50 7b3b
00000280: 4806 1e3b 88b1 a93a 0bfe f939 4c62 ab39
00000290: a58e d139 5cbe 1f3a 4568 af3a 32e3 0c3b
000002a0: 1c07 373b 9c3d 5e3b a224 923b 8248 b43b
000002b0: 1204 d23b 7001 f93b a034 213c 53a6 523c
000002c0: 5e65 893c fbb4 b33c b0f1 e43c f1e0 0d3d
000002d0: b8bb 233d 7ca2 333d 8713 3f3d 83fb 493d
000002e0: 6433 543d 86cf 5c3d 96a0 633d c9c6 683d
000002f0: 444d 6c3d fcc3 6e3d 3895 703d 07c1 713d
00000300: a8cd 9a3c 1f5c 953c 2b79 8d3c f7f8 843c
00000310: 33bb 743c 50da 583c efa1 373c 149f 163c
00000320: 7135 e13b b023 993b 348c 343b bbfc a43a
00000330: 8e13 2a3a a42f ad3a 9e0f e03a ccf9 dab5
00000340: 8f6b ddba 9ca9 36bb ae86 66bb fa1d 86bb
00000350: 1937 8bbb 0c77 8cbb e11d 8fbb e4da 88bb
00000360: 89e2 82bb 39bb 83bb f756 8abb a288 87bb
00000370: bc8e 8bbb 9d05 95bb 621b a1bb 9db9 a4bb
00000380: 9e9f abbb 2ab7 afbb c205 a7bb 8a02 92bb
00000390: 9a54 43bb 73dd 26ba 89cd fc3a e7b7 1c3b
000003a0: e761 233b 98fb 383b 922a 4e3b c1de 6e3b
000003b0: ba58 873b e575 923b a199 943b e053 a13b
000003c0: a214 af3b 4c0e b73b c7c1 bb3b bdf0 ca3b
000003d0: d786 d33b aa24 d63b ebb1 da3b 0d5a e73b
000003e0: 6a1d eb3b acf2 e83b 38f1 ee3b fc3b fa3b
000003f0: 5721 083c d200 163c d605 1a3c c5c5 ef3b
0.03063779 0.029268583 0.027476447 0.024980728 0.021703122 0.018030137 0.013952094 0.009618459
0.005563096 0.001949894 -0.0010468564 -0.0029279266 -0.0036842339 -0.004883648 -0.006194349 -0.006945809
-0.0073384168 -0.007662704 -0.0075925556 -0.007465081 -0.0074100485 -0.007082414 -0.0066582314 -0.006429613
-0.0063805855 -0.006023081 -0.0057867356 -0.005746297 -0.0058346936 -0.005669026 -0.0056168335 -0.005587236
-0.0052476116 -0.0047003417 -0.0037336163 -0.001638933 0.0008933448 0.0013508275 0.0014401944 0.0018482587
0.0022615348 0.002531933 0.0030458712 0.003422205 0.0034388572 0.0037529091 0.004169695 0.0043900306
0.0044485866 0.004880477 0.005161016 0.005196294 0.0052583134 0.0056361244 0.005704897 0.005490093
0.005480185 0.005492081 0.005619676 0.006159362 0.0064929463 0.0043867673 0.002240499 0.0007417231
-0.00044222028 -0.0013756386 -0.0017246892 -0.001835552 -0.001883912 -0.0013920901 -0.00083951507 -0.0003841506
-1.5703634e-05 0.0008712351 0.0017912262 0.0027436826 0.003907752 0.0062275915 0.009440307 0.013608885
0.019086376 0.025370382 0.032336313 0.039647188 0.04499322 0.048859395 0.052186426 0.054978795
0.057140082 0.05874731 0.059893224 0.060652018 0.06114806 0.061491128 0.06172362 0.061863948
0.025279395 0.024060404 0.022671029 0.020909632 0.018570269 0.015748478 0.012853386 0.009779996
0.006600553 0.0037195024 0.0012708516 -0.00079087785 -0.001317243 -0.0006747652 -0.0021814154 -0.0037212232
-0.0046340628 -0.0052308547 -0.0057278355 -0.005803876 -0.0058199707 -0.0058879987 -0.0056244773 -0.005296971
-0.005241894 -0.005321166 -0.005111142 -0.005020497 -0.0051946696 -0.005413873 -0.0053566126 -0.005445613
-0.005505687 -0.0051957658 -0.00465778 -0.0036080277 -0.0011173286 0.0014874387 0.0019437342 0.002057103
0.002473274 0.0028394728 0.0030863152 0.0036117167 0.003945194 0.003972269 0.0043411436 0.004783613
0.004966683 0.005071383 0.005518291 0.005809705 0.005821647 0.0059361537 0.006322432 0.0063774856
0.006214303 0.006300421 0.006436639 0.0067638275 0.0076458273 0.007990641 0.0059032794 0.0038347763
0.002411263 0.0012946585 0.00047682258 0.00032688899 0.00039969865 0.00060937344 0.0013382515 0.0021497724
0.0027927822 0.0033911234 0.0044599334 0.0055018077 0.0064091766 0.0075990483 0.009839207 0.012857038
0.016771968 0.021936884 0.027947277 0.03463835 0.039973944 0.04385613 0.046649482 0.049312126
0.051806822 0.053908847 0.05557307 0.0568302 0.057690874 0.058292374 0.058736056 0.059021976
0.018896893 0.018232403 0.017269691 0.016231997 0.01493721 0.0132356435 0.011208042 0.009193201
0.006872826 0.0046734437 0.0027549388 0.0012587527 0.0006487899 0.001321305 0.0017094498 -1.6314966e-06
-0.0016893017 -0.002787209 -0.003517549 -0.004092929 -0.0042485115 -0.0042866524 -0.0043675755 -0.0041764844
-0.0039942903 -0.0040201214 -0.004221793 -0.004136161 -0.0042589586 -0.0045477883 -0.0049165944 -0.0050270096
-0.0052375337 -0.005362411 -0.005097122 -0.004455869 -0.0029805065 -0.0006365396 0.0019287328 0.0023913325
0.002493018 0.0028226133 0.003145848 0.003644869 0.00413045 0.0044696205 0.0045349156 0.0049233288
0.005343036 0.005586421 0.005729887 0.006193249 0.006455283 0.0065351324 0.0066740415 0.0070602954
0.0071751373 0.007109007 0.007291939 0.007636545 0.00830873 0.009155469 0.009400805 0.007317277

Linear_Trend.bias f4 [720]
00000000: 98a8 db3c 5370 953b e9ff 583d fd1c ea3c
00000010: fb13 85bc fe3f 3ebd 11f0 1abd e24f c63c
00000020: dc0d 923d 5d1d 0bbd 4b8d db3b b626 83bd
00000030: 031c d33c b487 953d 502e 653d 8968 5d3a
00000040: 6287 6fbd 706b a63c 04be e73c 431e 0e3b
00000050: 7fd3 63bd 38a0 e939 0bed 7e3b dd06 d43c
00000060: bb19 b3bc 5161 91bd 45ed f43c d727 85bd
00000070: 9fbb fdbb c621 6a39 9013 b13a ea56 a5bd
00000080: f5bd febc 5162 0ebc 25f9 893d 9eef 483d
00000090: 990e ac3d b13a b33c 6192 09bd 40dd a5bd
000000a0: 949b a6bc d8d6 79bd 73fa a8bd 3909 8ebd
000000b0: 8d63 78bc 4d1d 733d 8f08 52bd 405b 12bd
000000c0: a463 c7bb c8cb 863d 2e51 383d 2457 b8bd
000000d0: c557 78bd 8a42 18bd e72f 68bd 2876 393d
000000e0: 3b62 3bbc 66f3 313c 68cc 06bc 9fae a03c
000000f0: b78a 20bd e427 3dbd b779 8b3b e773 46bd
00000100: f599 cdbc c753 2ebd 01e4 943d c11e 45bd
00000110: 5875 f53b b1cb e73a 6f09 153d c502 823d
00000120: 13a2 233d 5620 423d 5732 38bd 113d 0ebd
00000130: ec58 693d d4d4 293a 9b1f 90bd bb85 52bd
00000140: 835e ad3d 806f 8bbd dd9d f03c 34c9 c0bc
00000150: 8291 fb3c 2767 3d3d 15b5 e0bc a177 c2bc
00000160: 5668 163d c05b 34bd 0dfe 70bd 1c69 55bd
00000170: bb2d e93c 93a9 243d 6302 69bd 2f11 23bd
00000180: 9e67 f73c acd8 083d 5916 90bc 589c 45bd
00000190: d925 043b fca6 323d c43b e0bc 0652 043d
000001a0: a593 c5bd 16df 44bd 03ef 92bd 06f2 0a3d
000001b0: f0b0 04bd 9b59 0fbd d846 aabd 543b 9c3d
000001c0: 05f4 b3bd 0a17 c9bc 46c4 2bbd 570a 0c3d
000001d0: a702 3fbd bb31 ad3c c79f 933d 6a6a 6c3d
000001e0: a399 ffbc baf2 c93c 2c9e 3bbc 29f0 99bc
000001f0: 7d24 943b 8e96 9f3d 48dc 293c 4eb1 613d
00000200: 3a39 2abd 9d18 4bbb 7f9e 2bbc 5c0f a5bd
00000210: 9976 173d ba85 31bd fc49 783d d346 bcbd
00000220: a14c 21bd 3aee be3c 9450 963c a3b6 3b3c
00000230: 008c 263d 5c1a bbbd 890e 45bc 64f8 ff3c
00000240: 3494 8abc f5ac 803d a849 13bd 806a 393c
00000250: 7bf9 bdbd ea73 ba3c 321c f2bc a33e e7bc
00000260: 1935 60bd 31d9 cabc 96c2 27bd c5c4 ccbc
00000270: fac7 85bd a9e2 abbc b5ee c23c 8507 ff3c
00000280: 9496 503d 1451 5ebd e12a 8dbd 5016 a4bd
00000290: c073 b4bd 6d42 2cbd 238f 9b3c 6499 5e3d
000002a0: b2d3 5c3d c7fe 38ba 5c32 44bd 7388 f5bc
000002b0: 8ece 98bd f9de 6bbd ba7e 4f3d bf6c e7bc
000002c0: 6cf4 1e3d 79db 50bd 9de7 7abc 19d4 f83c
000002d0: 3aaf f53b f222 33bd fce2 be3c 0f80 da3b
000002e0: 3230 ccbd fc3e bf3c bbb8 b83c fb3a 64bd
000002f0: 109e 383d 2891 993c 2a93 a8bd 95ec 84bd
00000300: 3ab3 393b c98c 77bd adda 1abd a55c 27bc
00000310: 1694 403d 7a5f b6bd ac1b f9bb c55b 243c
00000320: 362f 643c 2304 b9bd 937f 92bd 6236 823c
00000330: a654 083c dcc9 6ebc 3075 81bb 6960 44bd
00000340: 953d e13c 0bd3 82bd 292c 763d 5f78 41bd
00000350: 24e9 403c 4b5e e2bc 0878 92b9 2cd7 62bb
00000360: 683e 61bd 9f00 bcbd ddd2 4abd 1d50 31bc
00000370: 00d7 9f3c 5759 78bd 76b3 a3bd a650 133d
00000380: 11a6 883c 0843 15bd 2a17 1cbd 5386 ec3c
00000390: eae1 29bd 7289 f73c 1198 cb3b f12c 7bbc
000003a0: 2c09 1bbd da94 0bbc 727d 9abd e86d 93bd
000003b0: 9bc4 fabb 3950 e13c 966f f73c 9f62 3bbd
000003c0: 6a4f 31bd 6ea3 89bd 8391 153d 08cb 69bd
000003d0: b5ab 883d fc44 133d 042f 7abd 35e5 9ebd
000003e0: 697f 56bd 86d0 143c 41f0 853c 1a56 4e3d
000003f0: f127 0b3c 09b2 e73c 2a89 533d 7760 97bd
0.02681379 0.004560509 0.05297843 0.028578276 -0.016244879 -0.046447746 -0.0378266 0.024208013
0.0713155 -0.03396355 0.006700193 -0.06403868 0.025770193 0.07301274 0.05595237 0.0008446058
-0.05847872 0.020314902 0.028288849 0.0021685518 -0.05562162 0.00044560595 0.0038898613 0.025882179
-0.021862855 -0.0709864 0.029898295 -0.065017395 -0.0077433134 0.0002232856 0.0013509858 -0.08073218
-0.031096438 -0.008690433 0.06736974 0.04905664 0.08401222 0.021878572 -0.033586863 -0.08098841
-0.020337857 -0.060995907 -0.082508944 -0.06935353 -0.0151604535 0.059354115 -0.051277693 -0.035731554
-0.006084876 0.06581837 0.044999294 -0.09000996 -0.06063058 -0.03717283 -0.05668631 0.0452787
-0.011436994 0.010861253 -0.008227445 0.019614516 -0.03919479 -0.04618062 0.004256453 -0.048450377
-0.025097826 -0.042560365 0.07270051 -0.048125032 0.007490795 0.0017684606 0.03638595 0.063481845
0.039949488 0.04739412 -0.044969883 -0.034726206 0.056969568 0.0006478552 -0.07037278 -0.051397067
0.08465292 -0.06808376 0.02937215 -0.023533441 0.030709032 0.046240952 -0.027430097 -0.023738684
0.036720596 -0.044032812 -0.05883603 -0.052102193 0.028464189 0.04020078 -0.05688704 -0.03981131
0.030200776 0.03340976 -0.017588781 -0.048244804 0.002016416 0.04361628 -0.027372248 0.032304786
-0.096473016 -0.048064314 -0.07174494 0.033922218 -0.032395303 -0.034997564 -0.083142936 0.076285034
-0.087867774 -0.024547119 -0.041935228 0.03418955 -0.04663339 0.021141877 0.072082095 0.05771867
-0.03120119 0.024651874 -0.011451285 -0.018791275 0.0045209513 0.07792388 0.010367461 0.05510073
-0.04155848 -0.0030990012 -0.0104748 -0.0805957 0.036978338 -0.043340422 0.060617432 -0.09193196
-0.03937972 0.023306955 0.01834897 0.011457118 0.04066086 -0.09135887 -0.012027391 0.031246372
-0.016916372 0.06282989 -0.035958916 0.0113168955 -0.092761 0.02276035 -0.02955446 -0.02822811
-0.054738138 -0.024761768 -0.040957056 -0.02499617 -0.06532283 -0.020982103 0.023795465 0.031131515
0.050924852 -0.05427654 -0.06892944 -0.08012068 -0.0881114 -0.042055536 0.018989151 0.054345503
0.053912826 -0.0007057008 -0.04789959 -0.02997229 -0.07461272 -0.05758569 0.050657965 -0.028250096
0.038807318 -0.050990555 -0.01531401 0.030374574 0.0074976953 -0.0437345 0.023301594 0.006668098
-0.0997013 0.023345463 0.022549024 -0.05572031 0.045072615 0.018745974 -0.08231194 -0.06490437
0.0028335587 -0.060436998 -0.0378062 -0.010214959 0.047016226 -0.089049295 -0.0076021757 0.010031645
0.013927272 -0.09033992 -0.07153239 0.015895072 0.008320963 -0.014574494 -0.0039507374 -0.047943506
0.027495185 -0.063879095 0.06010071 -0.047233935 0.011774335 -0.027632853 -0.0002793672 -0.0034613116
-0.054991156 -0.09179806 -0.0495175 -0.010822323 0.0195117 -0.060632076 -0.07993214 0.035965584
0.01668075 -0.03644088 -0.03810803 0.028872645 -0.041475214 0.030216906 0.006213196 -0.015330539
-0.037850544 -0.008519376 -0.07543458 -0.07198697 -0.0076528317 0.027504073 0.030204576 -0.04574835
-0.043288626 -0.06720625 0.036515724 -0.05707839 0.066733755 0.03595446 -0.061079994 -0.077585615
-0.0523676 0.009082919 0.016349914 0.05037508 0.0084934095 0.028283136 0.05164448 -0.07391446
