checkpoints/long_term_forecast_ETTh1_48_72_DLinear_ETTh1_ftM_sl48_ll48_pl72_dm512_nh8_el2_dl1_df2048_fc3_ebtimeF_dtTrue_Exp_0/checkpoint.pth (torch, 30095 bytes, 4 tensors)

Linear_Seasonal.weight f4 [72, 48]
0	0x3d817cfb	0.06322666
1	0x3d5a33d1	0.053272072
2	0x3d07a7da	0.03311906
3	0x3c457430	0.012051627
4	0xbc3acf0e	-0.011401905
5	0xbcae64cb	-0.021288296
6	0xbca0ac1b	-0.019613316
7	0xbc89de48	-0.016829625
8	0xbc902c9c	-0.017599396
9	0xbc4dc3f8	-0.01255893
10	0xbbbb212b	-0.005710741
11	0xbb1a0d9c	-0.0023506647
12	0xbb6697f4	-0.0035185786
13	0x3abd6c43	0.001445182
14	0x3b883523	0.004156725
15	0x3a3e00e8	0.000724806
16	0xbb798918	-0.00380761
17	0xbb760e3a	-0.00375451
18	0xbbaa5fa0	-0.0051993877
19	0xbba417f6	-0.005007739
20	0x3c622d0e	0.013804687
21	0x3ce76001	0.02824402
22	0x3d219b2e	0.03945463
23	0x3d5528dc	0.05204092
24	0x3d7cc5e1	0.06171215
25	0x3d6c5e1a	0.05770693
26	0x3d4b0b0a	0.049571075
27	0x3d2c8cf5	0.042126615
28	0x3cf5cc8d	0.030004764
29	0x3bee6eac	0.0072763767
30	0xbb9328d2	-0.00449095
31	0xbc0dea64	-0.00866184
32	0xbc50dc84	-0.0127478875
33	0xbc4f9002	-0.0126686115
34	0xbc4bfb7e	-0.012450097
35	0xbc780327	-0.01513747
36	0xbca3d10e	-0.019997146
37	0xbca672ca	-0.020318408
38	0xbcb6b042	-0.022300843
39	0xbcdc61e0	-0.02690214
40	0xbd050109	-0.03247169
41	0xbd08387c	-0.033256993
42	0xbd0b6b04	-0.034037605
43	0xbd0d6430	-0.034519374
44	0xbc8f556a	-0.017496783
45	0x3cf81124	0.03028161
46	0x3d81a618	0.06330508
47	0x3d9fb7e2	0.07798745
48	0x3d5fc0b8	0.05462715
49	0x3d921601	0.07133103
50	0x3d81886f	0.06324851
51	0x3d40de74	0.047087148
52	0x3cdffd2d	0.027342403
53	0x3ab5abd8	0.0013860418
54	0xbc7f9637	-0.015599779
55	0xbc84fa37	-0.016232593
56	0xbc7eb8ea	-0.015547017
57	0xbc8c4edb	-0.017127445
58	0xbc2dab45	-0.010599916
59	0xbb737d4d	-0.0037153543
60	0xbaf108e0	-0.0018389486
61	0xbb2576b5	-0.0025247757
62	0x3b2cc47c	0.002636223
63	0x3b848ad9	0.0040448722
64	0xbaab6be2	-0.0013078416
65	0xbbbbae4d	-0.0057275654
66	0xbc0270b8	-0.007961445
67	0xbc61740a	-0.013760576
68	0xbc6cf56b	-0.014462809
69	0x3be6508b	0.0070286444
70	0x3cc1c3c5	0.02365292
71	0x3d1bb060	0.03801
72	0x3d602fef	0.054733213
73	0x3d837532	0.064188376
74	0x3d73795e	0.059441917
75	0x3d54d556	0.051961266
76	0x3d31a0d8	0.043366283
77	0x3cf811a8	0.030281857
78	0x3be0ad8d	0.0068566264
79	0xbb9fc97b	-0.0048763133
80	0xbc2095d5	-0.009801348
81	0xbc55345d	-0.013012973
82	0xbc45ae55	-0.01206549
83	0xbc35185e	-0.011053173
84	0xbc66aa51	-0.0140786925
85	0xbc89fa91	-0.016843112
86	0xbc8479c3	-0.016171342
87	0xbc98f567	-0.018671704
88	0xbccee1c0	-0.02525413
89	0xbcfa78d3	-0.030575192
90	0xbcfee7fb	-0.031116476
91	0xbd022b28	-0.03177944
92	0xbced8505	-0.028994093
93	0x3c5dd544	0.013539616
94	0x3d6a1787	0.057151344
95	0x3d97eb88	0.07417971
96	0x3d1b075d	0.03784882
97	0x3d895a52	0.0670668
98	0x3d9a8517	0.07544916
99	0x3d8c2d68	0.06844598
100	0x3d638cea	0.055554308
101	0x3d1a2763	0.03763522
102	0x3c478d6d	0.012179715
103	0xbc1cfe39	-0.009582096
104	0xbc661403	-0.014042857
105	0xbc7f0293	-0.015564579
106	0xbc82381b	-0.015895894
107	0xbc0f2d0a	-0.0087387655
108	0xbb3e5e80	-0.0029048026
109	0xb98df0b6	-0.0002707296
110	0xba4f1d4a	-0.0007900788
111	0x3b54cf78	0.0032472294
112	0x3b4220cb	0.0029621597
113	0xbb141fc2	-0.0022601937
114	0xbc0dda36	-0.008657983
115	0xbc6081ce	-0.013702823
116	0xbc9ede5b	-0.019393137
117	0xbc9a003f	-0.018798945
118	0x3b5a83b1	0.0033342654
119	0x3cbdd8aa	0.023174603
120	0x3d2feab6	0.042948447
121	0x3d6ff40d	0.058582354
122	0x3d86ee23	0.0658839
123	0x3d7d54f8	0.06184861
124	0x3d5b289d	0.05350553
125	0x3d345ece	0.044035725
126	0x3ce9bc1a	0.028532077
127	0x3bb06155	0.0053826966
128	0xbbd54141	-0.006508023
129	0xbc20b055	-0.009807666
130	0xbc4ecd1c	-0.012622144
131	0xbc2e1a50	-0.010626391
132	0xbc1bffda	-0.009521449
133	0xbc2857f8	-0.01027488
134	0xbc4d2505	-0.012521033
135	0xbc4fc23a	-0.012680585
136	0xbc8d7a7d	-0.017270321
137	0xbcc1a0b8	-0.023636207
138	0xbcf64d65	-0.030066201
139	0xbcf1e3bf	-0.029527543
140	0xbcdf585f	-0.027263818
141	0xbc065504	-0.00819898
142	0x3d41d502	0.04732228
143	0x3d90640a	0.07050331
144	0x3c7ee9d8	0.015558682
145	0x3d6329ff	0.055459972
146	0x3d9093a6	0.07059412
147	0x3d9d38ee	0.07676874
148	0x3d909a01	0.07060624
149	0x3d6cab37	0.05778047
150	0x3d2a59fd	0.041589726
151	0x3c8c92d1	0.017159851
152	0xbbe0fcfc	-0.0068660956
153	0xbc5d08ad	-0.013490838
154	0xbc64d27e	-0.013966201
155	0xbc67660d	-0.014123452
156	0xbc09f526	-0.008420264
157	0xbafaad87	-0.0019125202
158	0x39df71f1	0.00042618767
159	0xba8dc757	-0.0010816854
160	0x3ad929ae	0.0016568208
161	0x3aaf9ba2	0.0013397823
162	0xbba9cabc	-0.0051816385
163	0xbc56188d	-0.013067377
164	0xbc8e8793	-0.017398631
165	0xbcba6a5a	-0.02275579
166	0xbc9d6ef6	-0.01921795
167	0x3b8d9856	0.0043211384
168	0x3cf5f8c6	0.030025851
169	0x3d446307	0.047946002
170	0x3d784207	0.060609844
171	0x3d8a3b4c	0.06749591
172	0x3d814a07	0.06312948
173	0x3d5b206b	0.053497713
174	0x3d2f9dc4	0.042875066
175	0x3cdf030f	0.027223138
176	0x3b49b0a8	0.0030775461
177	0xbbd1aa0f	-0.0063984464
178	0xbc126575	-0.008935322
179	0xbc2754fc	-0.010213133
180	0xbc168765	-0.009187554
181	0xbbc27c0b	-0.005935197
182	0xbbb8e195	-0.005642126
183	0xbc199437	-0.009373716
184	0xbc32c1ab	-0.010910432
185	0xbc7244a6	-0.014786875
186	0xbcb52276	-0.022111159
187	0xbced7a79	-0.028989064
188	0xbcd1bcf2	-0.025602791
189	0xbc539727	-0.0129144555
190	0x3d016513	0.031590533
191	0x3d88ea0d	0.06685267
192	0xbc489d2e	-0.012244506
193	0x3d286c78	0.04111907
194	0x3d780c00	0.06055832
195	0x3d92c150	0.07165778
196	0x3d9d0afa	0.07668109
197	0x3d8fa16b	0.0701321
198	0x3d6e8408	0.058231384
199	0x3d2eca34	0.042673305
200	0x3c9e21ab	0.019303164
201	0xbc04acc5	-0.008097832
202	0xbc65d8df	-0.014028757
203	0xbc60fbe4	-0.01373193
204	0xbc7c9b59	-0.015417897
205	0xbc051202	-0.008121969
206	0xbae891d0	-0.0017743651
207	0x38398920	4.4235145e-05
208	0xbb421481	-0.0029614272
209	0x39624f0a	0.00021582484
210	0xbaa7c875	-0.001280083
211	0xbc17eaf7	-0.009272329
212	0xbc896f13	-0.016776597
213	0xbca8874a	-0.020572323
214	0xbcc7625e	-0.024338897
215	0xbc99f94c	-0.018795632
216	0x3c317c34	0.010832835
217	0x3d0c2072	0.03421063
218	0x3d470557	0.048589077
219	0x3d795b53	0.06087811
220	0x3d8aede3	0.067836545
221	0x3d7f3f11	0.062316004
222	0x3d56b46e	0.052418165
223	0x3d2983da	0.04138551
224	0x3cd3d476	0.025858145
225	0x3ac9d364	0.0015398082
226	0xbbf08952	-0.0073405886
227	0xbbf15f3f	-0.0073660905
228	0xbc236a2e	-0.009974046
229	0xbbcd1b18	-0.0062593333
230	0xbac99c9b	-0.0015381755
231	0xbb2d1ac6	-0.0026413663
232	0xbc053799	-0.008130931
233	0xbc061d1c	-0.008185651
234	0xbc47cb55	-0.012194474
235	0xbca6ff6b	-0.020385465
236	0xbcda57fd	-0.026653284
237	0xbc8a676c	-0.016895019
238	0x3ccd820f	0.02508643
239	0x3d807068	0.0627144
240	0xbcbd9c06	-0.023145687
241	0x3c97d3fd	0.018533701
242	0x3d4b6ff4	0.049667314
243	0x3d8005a1	0.06251074
244	0x3d92877f	0.0715475
245	0x3d9b1b4c	0.07573566
246	0x3d8e2900	0.06941414
247	0x3d6c17ce	0.05763989
248	0x3d30ca90	0.04316193
249	0x3caca750	0.021075875
250	0xbbd5baf0	-0.006522529
251	0xbc591634	-0.013249923
252	0xbc728410	-0.014801994
253	0xbc7666c9	-0.015039154
254	0xbc073cab	-0.00825421
255	0xbb046465	-0.0020201441

Linear_Seasonal.bias f4 [72]
0	0xbd82a6f4	-0.063795
1	0x3d8962bd	0.06708286
2	0xbd74f854	-0.059807137
3	0xbd741d81	-0.05959845
4	0xbd330875	-0.043709237
5	0xbcd6510c	-0.026161693
6	0xbcbe60f5	-0.023239592
7	0xbd8130f4	-0.06308165
8	0xbd57d8ee	-0.052697115
9	0x3d299e95	0.041411
10	0xbd375012	-0.044754095
11	0xbd13c5f7	-0.036077466
12	0xbbfccfc2	-0.0077151963
13	0x3b1ef20f	0.0024253165
14	0x3dfcdd8a	0.12346943
15	0xbcf15504	-0.029459484
16	0xbcdf0f11	-0.027228864
17	0x3c9b6a8c	0.018971704
18	0x3d6bfbcf	0.05761319
19	0x3d69ae9e	0.057051294
20	0x3dda8fd0	0.10671961
21	0xbce35a1c	-0.027752928
22	0x3d2f1467	0.042744067
23	0x3d0f7469	0.035023127
24	0x3d5405aa	0.051763214
25	0x3de013ef	0.10941302
26	0x3d28fbe9	0.041255865
27	0xbddaa153	-0.106753014
28	0x3d9fa2b4	0.07794705
29	0xbdac1867	-0.08403092
30	0xbd7e6212	-0.062105246
31	0xbcc89fe9	-0.024490314
32	0xbdcd7f65	-0.10034064
33	0x3d0b96cb	0.034079354
34	0x3d2063e2	0.039157756
35	0x3ddf00f7	0.10888856
36	0xbbf01de4	-0.007327782
37	0xbd481fbc	-0.04885839
38	0x3d7291f9	0.05922124
39	0x3ad1115e	0.001595061
40	0xbd955967	-0.07292443
41	0xbdd1863c	-0.10230681
42	0xbcc57b86	-0.024106752
43	0xbd8ea0dc	-0.06964275
44	0x3c45d362	0.012074323
45	0x3dc76bcd	0.09737358
46	0xbe1285f9	-0.14308919
47	0xbda1c2ca	-0.07898481
48	0xbdaa138e	-0.08304511
49	0xbd1ab7ff	-0.03777313
50	0xbdcd50cd	-0.10025177
51	0xbdb069ff	-0.08613967
52	0x3d9f7b8e	0.07787238
53	0xbdc92064	-0.09820631
54	0xbd25c783	-0.040473472
55	0xbd9f05e5	-0.07764796
56	0xbc32a08d	-0.010902536
57	0x3dfdf46f	0.12400138
58	0x3d909707	0.07060056
59	0x3ca8adc0	0.020590663
60	0x3df6746a	0.12033923
61	0x3d83160c	0.064006895
62	0x3d1a94bd	0.037739504
63	0xbdacadf0	-0.084316134
64	0x3b7e5153	0.0038805797
65	0x3ccb5edd	0.024825508
66	0xbd7cb84d	-0.0616992
67	0xbe089ebc	-0.13341802
68	0xbd72e0d6	-0.05929645
69	0x3ce3e1c9	0.027817624
70	0x3db14058	0.08654851
71	0xbcd3b1b8	-0.025841579

Linear_Trend.weight f4 [72, 48]
0	0x3d4336ca	0.047659673
1	0x3d383b4a	0.044978417
2	0x3d29fae2	0.041499026
3	0x3d170c6f	0.036877092
4	0x3cfebc9e	0.031095799
5	0x3cca252a	0.024675924
6	0x3c93bd6e	0.018034663
7	0x3c3e3d3c	0.011611279
8	0x3bc80c8e	0.0061050123
9	0x3ad813e3	0.0016485419
10	0xbadc4eff	-0.0016808211
11	0xbb6ed545	-0.0036443037
12	0xbb904fde	-0.004404052
13	0xbbb9fd96	-0.0056759818
14	0xbbe612c0	-0.007021278
15	0xbc027642	-0.007962765
16	0xbc0f6c08	-0.008753784
17	0xbc1aeb70	-0.009455547
18	0xbc1f8554	-0.009736378
19	0xbc2192d8	-0.00986167
20	0xbc2260f2	-0.009910809
21	0xbc1cece1	-0.009577961
22	0xbc175667	-0.0092369085
23	0xbc139af3	-0.009009111
24	0xbc12cdd3	-0.008960205
25	0xbc0d1b3f	-0.008612453
26	0xbc0938e2	-0.008375378
27	0xbc07aa2e	-0.00828032
28	0xbc05b6f8	-0.008161299
29	0xbbeaff65	-0.0071715587
30	0xbbad0d16	-0.005281101
31	0xbb0a6e09	-0.0021122715
32	0x3b523d40	0.0032079965
33	0x3c30c5ea	0.010789374
34	0x3cac193b	0.021008125
35	0x3d095ba7	0.033534672
36	0x3d31fbd3	0.04345305
37	0x3d50266f	0.050817903
38	0x3d6b273d	0.057410467
39	0x3d8185ec	0.06324372
40	0x3d8b262f	0.06794392
41	0x3d925d26	0.07146673
42	0x3d977e4d	0.07397137
43	0x3d9ad867	0.07560807
44	0x3d9cec8b	0.076623045
45	0x3d9e3fff	0.0772705
46	0x3d9f0766	0.07765083
47	0x3d9f65b6	0.07783072
48	0x3d2aff76	0.041747533
49	0x3d226ea2	0.03965629
50	0x3d1865db	0.037206512
51	0x3d0c0565	0.034184832
52	0x3cf6247d	0.030046696
53	0x3ccec3d1	0.025239857
54	0x3ca3bbaa	0.019986946
55	0x3c6e5260	0.014546007
56	0x3c18263c	0.00928646
57	0x3b9edcc8	0.0048480965
58	0x3ab6b809	0.0013940345
59	0xba5db7c9	-0.0008457867
60	0xbabe8088	-0.0014534155
61	0xba48937d	-0.0007651372
62	0xbb0f4b36	-0.0021864898
63	0xbb6f82cb	-0.0036546465
64	0xbb989d6b	-0.0046574376
65	0xbbb43e2d	-0.005500576
66	0xbbca3845	-0.0061712586
67	0xbbcfef89	-0.0063456935
68	0xbbce1ef5	-0.0062903115
69	0xbbc79b32	-0.006091499
70	0xbbb3fffb	-0.0054931617
71	0xbb9f1ae3	-0.0048555
72	0xbb8ffb63	-0.0043939813
73	0xbb852043	-0.004062684
74	0xbb633fdb	-0.0034675512
75	0xbb460ff8	-0.003022192
76	0xbb37f664	-0.0028070444
77	0xbb1f6244	-0.0024320045
78	0xba8c3b2d	-0.0010698788
79	0x3aa98dd7	0.0012935948
80	0x3ba4bc7e	0.005027353
81	0x3c32cacb	0.010912607
82	0x3c9b26d1	0.018939408
83	0x3cef2d7b	0.029196491
84	0x3d1ab602	0.037771232
85	0x3d346eca	0.04405097
86	0x3d470a1d	0.04859363
87	0x3d5ac996	0.053414904
88	0x3d6dd453	0.058063816
89	0x3d7ee00d	0.06222539
90	0x3d867684	0.06565574
91	0x3d8bea38	0.06831783
92	0x3d8fb2af	0.07016503
93	0x3d924bf5	0.07143394
94	0x3d9424f2	0.07233609
95	0x3d954e9b	0.072903834
96	0x3d15570b	0.036459964
97	0x3d0f29ea	0.03495208
98	0x3d074084	0.03302051
99	0x3cfc29c0	0.030781627
100	0x3ce54543	0.027987128
101	0x3cc606c8	0.024173155
102	0x3ca2d2a7	0.019875837
103	0x3c7c5eb0	0.015403435
104	0x3c347598	0.011014365
105	0x3be4a255	0.0069773593
106	0x3b7b9285	0.0038386893
107	0x3aed2994	0.0018094056
108	0x3aaaad21	0.0013021567
109	0x3b296ff7	0.002585409
110	0x3b5363cc	0.0032255528
111	0x3ac54fce	0.0015053691
112	0xb997ef62	-0.00028979318
113	0xbad24dcf	-0.0016044917
114	0xbb2ba143	-0.0026188649
115	0xbb5bad67	-0.0033520104
116	0xbb63b08b	-0.003474268
117	0xbb572622	-0.0032829125
118	0xbb4129f3	-0.0029474467
119	0xbb0cf558	-0.002150854
120	0xbab043ad	-0.0013447903
121	0xba3bb1d0	-0.000715998
122	0xb98c9b74	-0.00026818702
123	0x39cfa029	0.00039601445
124	0x3a4b7950	0.00077619124
125	0x3a7b5329	0.0009587282
126	0x3ab307f7	0.001365899
127	0x3b41ddf7	0.0029581764
128	0x3bbfc6e1	0.0058525656
129	0x3c2c8990	0.010530844
130	0x3c922c33	0.017843341
131	0x3ce214a4	0.027597733
132	0x3d128a53	0.035776448
133	0x3d2c46b4	0.042059615
134	0x3d3c3fb7	0.0459592
135	0x3d45ea8d	0.04831939
136	0x3d518c21	0.051159028
137	0x3d5fadc4	0.054609075
138	0x3d6dd287	0.058062103
139	0x3d7abd27	0.061215546
140	0x3d82be12	0.06383909
141	0x3d86bb8a	0.06578739
142	0x3d89a8b5	0.067216314
143	0x3d8bcb74	0.06825915
144	0x3d03eba7	0.032207157
145	0x3cfbf38e	0.030755784
146	0x3cee6792	0.02910212
147	0x3cdd686a	0.027027328
148	0x3ccab0df	0.024742542
149	0x3cb55ef2	0.02214
150	0x3c9bf091	0.01903561
151	0x3c7fab2e	0.015604777
152	0x3c49ff27	0.012328899
153	0x3c18a76a	0.009317258
154	0x3bdab05e	0.0066738566
155	0x3ba21bbf	0.0049471552
156	0x3b938a0a	0.0045025395
157	0x3bb36cda	0.0054756226
158	0x3bd73651	0.0065677543
159	0x3be77fc5	0.007064792
160	0x3ba308f8	0.0049754344
161	0x3b4424cc	0.002992916
162	0x3ad3f7d0	0.0016171876
163	0x3a207bbc	0.00061219535
164	0xb78b9c5a	-1.6642898e-05
165	0x38a08f39	7.656072e-05
166	0x3a0b68f0	0.0005318066
167	0x3a97dabd	0.0011585575
168	0x3b10df95	0.0022105922
169	0x3b59e036	0.0033245212
170	0x3b8a6480	0.0042234063
171	0x3b9e5ab3	0.0048325895
172	0x3bb76551	0.0055967947
173	0x3bca4fb2	0.006174051
174	0x3bd82f5c	0.0065974426
175	0x3bf56866	0.007489252
176	0x3c1e2a7b	0.009653683
177	0x3c59a709	0.013284453
178	0x3c9a5383	0.01883865
179	0x3cdeb6d6	0.027186792
180	0x3d0c347f	0.03422975
181	0x3d219a4d	0.039453793
182	0x3d2f93d2	0.04286558
183	0x3d35affe	0.044357292
184	0x3d361701	0.044455532
185	0x3d39cd73	0.045361947
186	0x3d41eaf8	0.047343224
187	0x3d4ccb45	0.04999854
188	0x3d58e4c5	0.052952547
189	0x3d650bcb	0.05591945
190	0x3d6f673d	0.058448065
191	0x3d77c32a	0.060488857
192	0x3cdeb7cf	0.027187256
193	0x3cd3619c	0.02580338
194	0x3cc8c08a	0.024505872
195	0x3cbd744e	0.023126747
196	0x3cafb8db	0.02145045
197	0x3ca235c2	0.019801024
198	0x3c93ae00	0.018027306
199	0x3c7dd8f8	0.015493624
200	0x3c57994f	0.01315911
201	0x3c34400d	0.011001599
202	0x3c145dde	0.009055583
203	0x3bf65001	0.0075168614
204	0x3be816de	0.007082804
205	0x3c004909	0.007829913
206	0x3c0d4c43	0.008624139
207	0x3c1d994c	0.009619068
208	0x3c246d8e	0.0100358855
209	0x3c038356	0.008026918
210	0x3bc5b63f	0.0060336883
211	0x3b99d676	0.004694755
212	0x3b769705	0.0037626636
213	0x3b57ca2c	0.00329269
214	0x3b6c56aa	0.0036062398
215	0x3b8b2a3a	0.004246977
216	0x3ba516d9	0.005038124
217	0x3bd13210	0.0063841417
218	0x3bff7ea5	0.0077970796
219	0x3c11b8e8	0.008894183
220	0x3c1e54dc	0.009663787
221	0x3c2fa4b5	0.010720422
222	0x3c3e487b	0.01161396
223	0x3c4b4f7d	0.012409088
224	0x3c60ac7a	0.013712997
225	0x3c87cd5d	0.016577417
226	0x3cacad5d	0.02107876
227	0x3ce4c01c	0.027923636
228	0x3d0aee28	0.03391853
229	0x3d1d56f8	0.038413018
230	0x3d2998eb	0.0414056
231	0x3d2f6af2	0.0428266
232	0x3d2da080	0.042389393
233	0x3d25f5c3	0.04051758
234	0x3d21f49c	0.03953992
235	0x3d23e554	0.040013626
236	0x3d2a66ab	0.041601818
237	0x3d3468ae	0.044045143
238	0x3d406ad0	0.046976864
239	0x3d4be642	0.049780138
240	0x3cb20897	0.021732612
241	0x3ca7cfd3	0.02048484
242	0x3c9f0edd	0.019416267
243	0x3c982ff1	0.018577548
244	0x3c91705d	0.017753774
245	0x3c896795	0.016773025
246	0x3c828405	0.015932092
247	0x3c761089	0.015018591
248	0x3c621713	0.013799447
249	0x3c4b1328	0.012394704
250	0x3c367e7f	0.011138557
251	0x3c264d0f	0.010150208
252	0x3c1f0be2	0.009707423
253	0x3c278e24	0.01022676
254	0x3c30763f	0.01077038
255	0x3c3b9ff4	0.01145171

Linear_Trend.bias f4 [72]
0	0xbd9355d3	-0.07194104
1	0x3d566229	0.052339707
2	0x3dad7e10	0.0847131
3	0x3cc4a901	0.024006369
4	0x3d17ff61	0.037108783
5	0x3c512ed3	0.012767511
6	0xbc821c11	-0.015882524
7	0x3da860be	0.08221577
8	0x3db0a699	0.08625526
9	0xbd3e0227	-0.04638877
10	0x3d1cb6ff	0.038260456
11	0x3d033912	0.03203685
12	0xbd7be82d	-0.061500717
13	0xbb609622	-0.0034269174
14	0xbe04cec3	-0.12969498
15	0x3c9b2225	0.01893718
16	0x3a088767	0.0005208165
17	0xbc277bdb	-0.010222401
18	0x3ca91193	0.020638263
19	0xbd832d64	-0.06405142
20	0xbdde37f4	-0.10850516
21	0x3d3b2d7c	0.045697674
22	0x3b59bf40	0.0033225566
23	0x3b207893	0.002448593
24	0x3ca68a47	0.020329608
25	0xbde9d040	-0.11416674
26	0xbd486227	-0.04892173
27	0x3dbe05c7	0.09278446
28	0xbdb6b012	-0.089203015
29	0x3da4f737	0.08054965
30	0xbd480d83	-0.04884101
31	0x3c8f5247	0.017495288
32	0x3db2aefb	0.08724781
33	0xbd64ac95	-0.05582865
34	0xbd655289	-0.055986915
35	0xbdedea6d	-0.11616979
36	0xbb21c352	-0.002468307
37	0x3d7580a4	0.059937134
38	0x3d78d057	0.060745563
39	0xbbf20a25	-0.007386463
40	0x3d589fa0	0.052886605
41	0x3dd2ef86	0.10299592
42	0x3d914f72	0.07095231
43	0xbb891789	-0.004183714
44	0xbd11a819	-0.0355607
45	0xbde57d51	-0.11205543
46	0x3e0a04e5	0.1347843
47	0x3da5dabc	0.08098361
48	0x3cccf864	0.025020786
49	0x3cae1cec	0.021254025
50	0x3dc0907b	0.094025575
51	0x3da47077	0.080292635
52	0x3c2914f6	0.010319939
53	0x3db89f6e	0.09014784
54	0x3d1b85d9	0.037969444
55	0x3d5e558b	0.0542808
56	0xbad39b8e	-0.0016144381
57	0xbe0776ba	-0.13228884
58	0xbd41b88c	-0.04729514
59	0xbcfa876c	-0.030582152
60	0xbe00d681	-0.12581827
61	0xbd9907e2	-0.07472207
62	0xbd9cbd0d	-0.07653246
63	0x3d947622	0.072490945
64	0x3d8c2a38	0.0684399
65	0xbd17e038	-0.037079066
66	0x3da4a913	0.08040061
67	0x3dfa2d38	0.12215656
68	0x3d66ef76	0.05638071
69	0xbd2846ac	-0.041083023
70	0xbdbe3aae	-0.09288536
71	0x3d1d2294	0.038363054
