checkpoints/long_term_forecast_ETTh2_48_120_DLinear_ETTh2_ftM_sl48_ll48_pl120_dm512_nh8_el2_dl1_df2048_fc3_ebtimeF_dtTrue_Exp_0/checkpoint.pth (torch, 48911 bytes, 4 tensors)

Linear_Seasonal.weight f4 [120, 48]
0.0638079 0.034066893 0.02722236 0.015059466 0.01380641 0.008196084 0.005422356 0.0047853477
0.000624294 0.0036353425 -0.0077524926 0.00014802656 0.0008491311 -0.004154737 -0.011932837 -0.004073764
-0.006277153 -0.0036374107 -0.0024360172 0.0022227885 0.011450244 0.014787769 0.027054222 0.033078287
0.058804967 0.03848181 0.02895231 0.0169877 0.011651221 0.0014552224 -0.004138741 -0.006589827
-0.010848989 -0.011506964 -0.018997801 -0.017833969 -0.016392654 -0.018133786 -0.023403116 -0.014793413
-0.011206575 -0.006512531 0.0036192723 0.019134004 0.035981175 0.052645344 0.06708745 0.07895926
0.046210937 0.06447739 0.04746926 0.038715158 0.027032316 0.023482656 0.016561843 0.011633763
0.010284931 0.0070368117 0.005238847 -0.0042596716 0.0009664747 0.0005279642 -0.0055099875 -0.012278485
-0.0053320634 -0.006546695 -0.004818983 -0.003996742 0.002496624 0.010143171 0.015452671 0.025638394
0.038388513 0.05803935 0.039472345 0.028420962 0.017498745 0.010873 0.0012313563 -0.0037518274
-0.006239581 -0.009149366 -0.0117064295 -0.018727046 -0.01720451 -0.015526994 -0.018112686 -0.019215135
-0.009273341 -0.005488103 0.0028131872 0.016198333 0.03369136 0.05202259 0.06489977 0.0772276
0.03557097 0.04088662 0.06680186 0.048041318 0.04129035 0.032099534 0.02678738 0.019912155
0.014017732 0.014391393 0.005184487 0.0062974365 -0.0051146313 0.00036227587 -0.0016448048 -0.0067271274
-0.013760578 -0.005401624 -0.008556726 -0.005968165 -0.0035502848 0.00024149187 0.0107848495 0.0151113095
0.03276866 0.038571253 0.058666963 0.038938247 0.02930507 0.017002046 0.0109545095 0.001671679
-0.0032479756 -0.0047746426 -0.009062284 -0.011694996 -0.01744978 -0.016280476 -0.015556104 -0.01420119
-0.015335138 -0.004647804 0.0023864773 0.014381374 0.029881176 0.048698798 0.06433867 0.07545345
0.021020338 0.03479036 0.047654394 0.06695216 0.051602267 0.04632403 0.03459153 0.030205514
0.02198653 0.018219769 0.012783477 0.0071652145 0.0067012287 -0.005557829 -0.002543602 -0.002292091
-0.008103133 -0.013285623 -0.006662783 -0.0093487315 -0.00575181 -0.00508735 0.0013281326 0.011055075
0.02205807 0.031786457 0.03944933 0.058221947 0.0396793 0.027789548 0.016565984 0.01091824
0.0016814471 -0.0025844024 -0.0055488287 -0.009928802 -0.010817404 -0.018253772 -0.017360302 -0.011726843
-0.010719638 -0.012492604 0.0018330513 0.0125935385 0.027000288 0.04398742 0.061835174 0.07464825
0.0118089365 0.020429537 0.039415505 0.047798064 0.06731854 0.054289166 0.045730382 0.03667155
0.0321546 0.025187016 0.016362749 0.014241982 0.0074007055 0.0054512257 -0.008006246 -0.002780732
-0.0049564764 -0.008580218 -0.014564748 -0.008546083 -0.009052257 -0.007531867 -0.0037457615 0.002606265
0.01805108 0.021740384 0.03321012 0.039705206 0.058854353 0.037968066 0.028096037 0.016547296
0.010947438 0.0022487587 -0.0028273738 -0.0059482767 -0.008812076 -0.010839192 -0.017712088 -0.013417135
-0.00832288 -0.0072153253 -0.006263332 0.01266681 0.025420088 0.041361112 0.058859933 0.07293891
0.0017776823 0.014687688 0.026282365 0.04182821 0.051040534 0.06808201 0.05442792 0.04796299
0.038074017 0.033428587 0.023978986 0.017244548 0.014291393 0.0064387787 0.0028025885 -0.008156059
00000000: b7ad 823d ba89 0b3d 6d01 df3c fabb 763c
00000010: 4834 623c de48 063c 05ae b13b 68ce 9c3b
00000020: a9a7 233a ed3e 6e3b 9f08 febb 9437 1b39
00000030: 3998 5e3a 7624 88bb f281 43bc 367d 85bb
00000040: 93b0 cdbb a061 6ebb 96a5 1fbb 34ac 113b
00000050: ce99 3b3c 6648 723c d1a0 dd3c 197d 073d
00000060: 7add 703d 1a9f 1d3d 652d ed3c ca29 8b3c
00000070: c3e4 3e3c 29bd be3a 479e 87bb 7aef d7bb
00000080: f5bf 31bc b587 3cbc 47a1 9bbc 8b18 92bc
00000090: e349 86bc 4e8d 94bc e4b7 bfbc 1260 72bc
000000a0: c89b 37bc 1267 d5bb 5031 6d3b eabe 9c3c
000000b0: ff60 133d a5a2 573d 2565 893d 64b5 a13d
000000c0: ae47 3d3d b90c 843d 206f 423d c993 1e3d
000000d0: e072 dd3c b35e c03c b4ac 873c 8a9b 3e3c
000000e0: 2182 283c 0e95 e63b a2aa ab3b b794 8bbb
000000f0: 055b 7d3a 1467 0a3a 208d b4bb b32b 49bc
00000100: 97b8 aebb a885 d6bb 8fe8 9dbb 1af7 82bb
00000110: 669e 233b 8b2f 263c 332d 7d3c 9c07 d23c
00000120: 463d 1d3d abba 6d3d c1ad 213d 14d3 e83c
00000130: 8759 8f3c ab24 323c 7665 a13a 38e1 75bb
00000140: 6675 ccbb 39e7 15bc 53cc 3fbc 7669 99bc
00000150: 79f0 8cbc ef64 7ebc 0e61 94bc 0f69 9dbc
00000160: 36ef 17bc 8bd5 b3bb 735d 383b 5eb2 843c
00000170: f4ff 093d a415 553d 2cea 843d 8129 9e3d
00000180: deb2 113d ba78 273d 6acf 883d f9c6 443d
00000190: 1220 293d cd7a 033d 3571 db3c d11e a33c
000001a0: a1aa 653c e1c9 6b3c a1e2 a93b ba5a ce3b
000001b0: a398 a7bb d8ef bd39 7e96 d7ba 3c6f dcbb
000001c0: 0c74 61bc 1b00 b1bb 8331 0cbc 9990 c3bb
000001d0: e5ab 68bb fb38 7d39 f0b2 303c 6d95 773c
000001e0: 6e38 063d e4fc 1d3d c54c 703d b67d 1f3d
000001f0: 3011 f03c e047 8b3c 8b7a 333c 3d1c db3a
00000200: fddb 54bb 9b74 9cbb f979 14bc 5e9c 3fbc
00000210: d7f2 8ebc a25e 85bc 07df 7ebc 1cac 68bc
00000220: 3b40 7bbc 9b4c 98bb 7266 1c3b db9f 6b3c
00000230: 5ec9 f43c 6478 473d fec3 833d 5787 9a3d
00000240: d832 ac3c 5680 0e3d 4131 433d 371e 893d
00000250: e65c 533d 44be 3d3d d9af 0d3d 8e71 f73c
00000260: 181d b43c a041 953c ca71 513c 2dca ea3b
00000270: fb95 db3b 731e b6bb 8fb2 26bb e836 16bb
00000280: 01c3 04bc f1ab 59bc 7a53 dabb 6c2b 19bc
00000290: ae79 bcbb c9b3 a6bb bc14 ae3a 5820 353c
000002a0: 20b3 b43c 8432 023d 9f95 213d 237a 6e3d
000002b0: c386 223d e8a6 e33c 63b5 873c 6be2 323c
000002c0: 0164 dc3a 145f 29bb f3d2 b5bb 6aac 22bc
000002d0: 7b3b 31bc ef88 95bc 3137 8ebc f221 40bc
000002e0: 6ca1 2fbc c7ad 4cbc ff42 f03a 2155 4e3c
000002f0: b52f dd3c 272c 343d e146 7d3d 2fe1 983d
00000300: 457a 413c d85b a73c 2772 213d e7c7 433d
00000310: 4dde 893d 515e 5e3d c84f 3b3d e834 163d
00000320: 8bb4 033d 0055 ce3c 2c0b 863c 3457 693c
00000330: 9e81 f23b 32a0 b23b a12c 03bc f13c 36bb
00000340: f069 a2bb 0b94 0cbc fba0 6ebc df04 0cbc
00000350: eb4f 14bc e1cd f6bb 737b 75bb dfcd 2a3b
00000360: dcdf 933c e418 b23c 5607 083d eda1 223d
00000370: 4311 713d 6784 1b3d a929 e63c 328e 873c
00000380: e25c 333c e95f 133b 764b 39bb c3e9 c2bb
00000390: 8760 10bc de96 31bc f118 91bc 8bd3 5bbc
000003a0: b05c 08bc 896e ecbb a33c cdbb 7488 4f3c
000003b0: ca3d d03c 456a 293d 1d17 713d ff60 953d
000003c0: 1f01 e93a a1a4 703c 1d4e d73c 0f54 2b3d
000003d0: e10f 513d 956e 8b3d d0ef 5e3d d774 443d
000003e0: 80f3 1b3d 6aec 083d 946f c43c 7044 8d3c
000003f0: 7226 6a3c 64fc d23b a2ab 373b fea0 05bc

Linear_Seasonal.bias f4 [120]
-0.05805232 -0.0719077 0.0076234145 -0.07400644 -0.059241038 -0.079974845 -0.0031779977 -0.0833843
-0.040846344 -0.12662773 -0.04002187 -0.0030159345 -0.13636075 -0.025702955 -0.004543912 0.051977206
0.0038877465 -0.11496548 0.11071426 0.036204886 0.06892831 -0.06248304 0.060376815 -0.05473466
-0.047919966 0.044524785 0.052241895 -0.059868574 0.029041983 0.01332891 -0.07969233 0.054953467
-0.06375185 -0.03734107 -0.014817932 -0.08755675 0.009676404 -0.07838863 0.06375129 0.0069327634
-0.03624836 -0.08639709 -0.007197233 0.09299112 -0.08197915 0.037548747 -0.08331267 0.11463131
-0.016114647 0.02942012 0.011748806 -0.03587658 0.06528459 0.08851904 -0.07989847 -0.04471934
-0.03453195 0.075119436 0.049472578 -0.10205489 -0.019923583 0.07767181 0.04157188 -0.04784359
-0.021064412 0.037716962 -0.014943961 -0.064889446 -0.12276896 -0.07143341 0.048887875 -0.027712885
0.024972878 0.04099568 0.09922723 -0.059366502 -0.017483529 -0.059570614 -0.02444879 -0.13378194
-0.08849469 -0.02931632 -0.057429183 -0.06377006 0.005690472 -0.07269296 0.026892083 -0.053341042
-0.06765582 -0.08319986 -0.052288767 -0.035518415 0.03429015 0.051007964 0.05671947 0.0666485
0.048508517 0.0023525043 -0.010965465 -0.016759915 -0.062091317 -0.0030900626 0.03166443 -0.08703607
-0.015223935 0.09896566 0.005993825 -0.037219405 0.031246345 -0.06809509 0.074838094 -0.069827914
-0.05651811 -0.026915224 -0.06381636 -0.07900961 -0.08112891 0.08955013 0.02099266 0.013376528
00000000: 45c8 6dbd 5844 93bd d6cd f93b b090 97bd
00000010: bba6 72bd dac9 a3bd f445 50bb 63c5 aabd
00000020: 7f4e 27bd b3aa 01be f9ed 23bd fca6 45bb
00000030: 27a2 0bbe 018f d2bc 19e5 94bb 0de6 543d
00000040: 90c9 7e3b 0673 ebbd 28be e23d 934b 143d
00000050: 492a 8d3d 37ee 7fbd ae4d 773d 7331 60bd
00000060: ba47 44bd 9f5f 363d 99fb 553d c038 75bd
00000070: 74e9 ed3c 8061 5a3c bb35 a3bd e316 613d
00000080: 5490 82bd f3f2 18bd e9c6 72bc f450 b3bd
00000090: c889 1e3c 388a a0bd 0990 823d 3c2c e33b
000000a0: 2979 14bd f5f0 b0bd c4d6 ebbb 2172 be3d
000000b0: afe4 a7bd b7cc 193d d59f aabd d2c3 ea3d
000000c0: dd02 84bc 7702 f13c 107e 403c 52f3 12bd
000000d0: edb3 853d 7849 b53d cfa1 a3bd a02b 37bd
000000e0: 6071 0dbd 38d8 993d c2a3 4a3d 2702 d1bd
000000f0: c836 a3bc 6612 9f3d 4747 2a3d a4f7 43bd
00000100: 468f acbc 1a7d 1a3d 84d7 74bc c2e4 84bd
00000110: 4b6e fbbd ae4b 92bd a73e 483d 2206 e3bc
00000120: ec93 cc3c 16eb 273d a537 cb3d 4a2a 73bd
00000130: 9e39 8fbc 5100 74bd d448 c8bc 22fe 08be
00000140: b43c b5bd c728 f0bc dd3a 6bbd e199 82bd
00000150: 2477 ba3b 0ce0 94bd c94c dc3c 237c 5abd
00000160: 228f 8abd b064 aabd bf2c 56bd c27b 11bd
00000170: d473 0c3d baed 503d ad52 683d 027f 883d
00000180: deb0 463d 792c 1a3b 7ea8 33bc 174c 89bc
00000190: 7753 7ebd a682 4abb 90b2 013d f83f b2bd
000001a0: d06d 79bc 82ae ca3d d967 c43b 6073 18bd
000001b0: 56f8 ff3c 7075 8bbd b744 993d f001 8fbd
000001c0: 897f 67bd 517d dcbc 27b2 82bd cacf a1bd
000001d0: ea26 a6bd 0f66 b73d cdf8 ab3c 3a29 5b3c

Linear_Trend.weight f4 [120, 48]
0.00877395 0.007578049 0.0062770736 0.005129138 0.0039832983 0.0029000572 0.00184022 0.00082025444
-9.972237e-05 -0.000996851 -0.0017378097 -0.0023622492 -0.0024895256 -0.0029305909 -0.0031706744 -0.003365877
-0.0033946217 -0.0033357688 -0.0032107776 -0.0029199168 -0.0025419218 -0.001932496 -0.0013322902 -0.00024955033
0.0010149329 0.0024734344 0.004146195 0.006526394 0.009190001 0.012377932 0.01609371 0.020436214
0.025339304 0.030631669 0.03636915 0.042294025 0.047514733 0.05167099 0.055809878 0.05923723
0.06213922 0.06459525 0.06663771 0.06834735 0.06975018 0.070921496 0.07187312 0.072699234
0.005922303 0.005204462 0.004397796 0.0035010271 0.0027512752 0.002007308 0.0013091516 0.0006075671
-3.4519653e-05 -0.0005970937 -0.0010824006 -0.001418568 -0.0015403703 -0.0012392066 -0.0015418404 -0.0016508733
-0.0016960823 -0.0015326801 -0.0013659577 -0.0010745325 -0.00062894594 -6.349499e-05 0.00070275133 0.0015213469
0.0027745557 0.0042509153 0.005857419 0.0077805766 0.010423338 0.013344971 0.016790358 0.020750737
0.025266621 0.030241422 0.03554164 0.041114148 0.0460329 0.050455835 0.053813178 0.056967054
0.059711132 0.06212833 0.064151324 0.06590415 0.06737499 0.06861425 0.06963818 0.070492946
0.0052640457 0.0046875477 0.0041157687 0.0034805322 0.0027475671 0.0021711932 0.0015761242 0.0010148854
0.00047538485 -7.373246e-06 -0.0003696794 -0.0006643903 -0.00072891143 -0.0006500051 -0.00021650371 -0.00039625075
-0.0003627829 -0.00023853352 2.2802564e-05 0.00034395116 0.0007774517 0.001397215 0.00209114 0.0030545928
0.0040390776 0.005477786 0.0070610973 0.008880829 0.011001609 0.013845533 0.016959254 0.020599071
0.024717322 0.029321507 0.03435022 0.03957357 0.044308946 0.048571352 0.05207681 0.054782763
0.057383053 0.05975199 0.061835304 0.06363892 0.06520712 0.0665424 0.067649916 0.06858369
0.004157098 0.0036636726 0.0032243605 0.002818753 0.0023443503 0.001781656 0.0013533636 0.00091052224
0.0005253249 0.0001687634 -9.2120266e-05 -0.00023227865 -0.00020056854 -1.0754093e-05 0.00023795426 0.000804152
0.00077328656 0.0009909074 0.0012484868 0.0016905109 0.0021826788 0.0028263545 0.003616341 0.0045685433
0.0057442584 0.0069451835 0.008540104 0.01038746 0.012438748 0.014803275 0.017851427 0.021144338
0.024896886 0.029021801 0.033572957 0.038418196 0.043020252 0.046905205 0.05023213 0.053068575
0.055240862 0.05742603 0.059402436 0.061197817 0.0627664 0.06415006 0.0653281 0.06632647
0.003672581 0.0034233078 0.0030095312 0.0026804502 0.0023784467 0.0020016828 0.001545053 0.0012115528
0.0008904057 0.00061810453 0.0004059864 0.00028326188 0.0003816192 0.0005626167 0.0008764574 0.001214344
0.0019135942 0.0020329356 0.0023280776 0.0027193192 0.0032913922 0.0039512613 0.0047319327 0.005729221
0.006851982 0.008206781 0.009549787 0.011398341 0.013462072 0.01574248 0.018318884 0.021543767
0.024977311 0.028794006 0.032966457 0.037458483 0.041779995 0.045385525 0.04857125 0.05128187
0.053596802 0.055385754 0.057177063 0.05883296 0.060339693 0.061671484 0.06285823 0.06389556
0.0028895456 0.0027706348 0.0026228712 0.0023389086 0.0021283643 0.001936047 0.0016849658 0.0013416157
0.0011420657 0.0009528669 0.0008476 0.00081091205 0.0009454158 0.0012163854 0.0015221459 0.0019386208
00000000: 9dc0 0f3c 4851 f83b e9af cd3b 5412 a83b
00000010: 5486 823b e30e 3e3b 8933 f13a 5806 573a
00000020: 0a22 d1b8 c5a8 82ba 38c7 e3ba f7cf 1abb
00000030: 4f27 23bb 280f 40bb 17cb 4fbb 0c96 5cbb
00000040: 4d78 5ebb ea9c 5abb e96b 52bb 135c 3fbb
00000050: 5f96 26bb ce4b fdba 3ea0 aeba 14d6 82b9
00000060: 7f07 853a 5819 223b cedc 873b 5cdb d53b
00000070: a891 163c cfcc 4a3c f5d6 833c d969 a73c
00000080: 5f94 cf3c 44ef fa3c d1f7 143d 803c 2d3d
00000090: cf9e 423d f6a4 533d e698 643d bda2 723d
000000a0: b285 7e3d 844a 843d 5a79 883d b2f9 8b3d
000000b0: 2fd9 8e3d 4a3f 913d 3732 933d 56e3 943d
000000c0: e10f c23b 318a aa3b 631b 903b 7d71 653b
000000d0: bd4e 343b 0a8d 033b d797 ab3a 2345 1f3a
000000e0: 32c9 10b8 4886 1cba 56df 8dba 3eef b9ba
000000f0: 40e6 c9ba e06c a2ba 9417 caba 1e62 d8ba
00000100: 144f deba 36e4 c8ba ef09 b3ba 54d7 8cba
00000110: d9df 24ba 9d28 85b8 d838 383a ee67 c73a
00000120: 52d5 353b 434b 8b3b 98ef bf3b 35f4 fe3b
00000130: a6c6 2a3c dea4 5a3c ef8b 893c 73fd a93c
00000140: f2fb ce3c dcbc f73c 1c94 113d 4f67 283d
00000150: ff8c 3c3d c7aa 4e3d 356b 5c3d 4956 693d
00000160: a993 743d 477a 7e3d c561 833d c1f8 863d
00000170: e6fb 893d a185 8c3d 769e 8e3d 9b5e 903d
00000180: 047e ac3b 009a 993b 92dd 863b a419 643b
00000190: 8710 343b 944a 0e3b f495 ce3a e705 853a
000001a0: 133d f939 b367 f7b6 87d1 c1b9 7a2a 2eba
000001b0: 6b14 3fba 1b65 2aba 4605 63b9 e0bf cfb9
000001c0: e633 beb9 db1e 7ab9 2248 bf37 5854 b439
000001d0: e7cd 4b3a c122 b73a 820b 093b 902f 483b
000001e0: 3d5a 843b 007f b33b c760 e73b e680 113c
000001f0: 1840 343c 60d8 623c 22ee 8a3c 62bf a83c
00000200: fb7b ca3c a833 f03c d1b2 0c3d e517 223d
00000210: 4c7d 353d c1f2 463d 7e4e 553d e463 603d
00000220: 7e0a 6b3d 81be 743d 0447 7d3d 1f55 823d
00000230: 4f8b 853d 6247 883d 0a8c 8a3d 9b75 8c3d
00000240: 4438 883b 3a1a 703b cb4f 533b d4ba 383b
00000250: aca3 193b 7586 e93a 5963 b13a 1db0 6e3a
00000260: f5b5 093a 15f6 3039 b130 c1b8 d38f 73b9
00000270: b54f 52b9 7a6c 34b7 5c83 7939 bacd 523a
00000280: 62b6 4a3a 56e1 813a 44a4 a33a 2294 dd3a
00000290: 460b 0f3b 5c3a 393b 2200 6d3b b8b3 953b
000002a0: 553a bc3b 6c94 e33b cbeb 0b3c 2a30 2a3c
000002b0: e4cb 4b3c 6f89 723c 283d 923c e436 ad3c
000002c0: 8ef4 cb3c 21bf ed3c cc83 093d 665c 1d3d
000002d0: 0136 303d ac1f 403d 35c0 4d3d 6f5e 593d
000002e0: 3e44 623d 8f37 6b3d f84f 733d 90aa 7a3d
000002f0: ac8b 803d 1b61 833d bdca 853d 2cd6 873d
00000300: afaf 703b 9359 603b 8e3b 453b 7eaa 2f3b
00000310: b7df 1b3b aa2e 033b 6083 ca3a f7cc 9e3a
00000320: 1d6a 693a 4b08 223a 92da d439 c482 9439
00000330: 1014 c839 917c 133a 0fc2 653a a02a 9f3a
00000340: 91d1 fa3a 003b 053b a992 183b 9b36 323b
00000350: 66b4 573b 9579 813b 540e 9b3b 30bc bb3b
00000360: 9786 e03b bc75 063c b676 1c3c 1bc0 3a3c
00000370: 0690 5c3c 60f6 803c 7c11 963c 8e7c b03c
00000380: 389d cc3c 68e1 eb3c d607 073d 116e 193d
00000390: 8021 2b3d 2ce6 393d a6f2 463d f00c 523d
000003a0: 5288 5b3d 2cdc 623d 7f32 6a3d d4fa 703d
000003b0: c126 773d 3d9b 7c3d d1bb 803d addb 823d
000003c0: 885e 3d3b 8a93 353b 7ae4 2b3b 6048 193b
000003d0: 077c 0b3b f5c2 fd3a 12da dc3a 27d9 af3a
000003e0: 5eb1 953a d1c9 793a 7931 5e3a 6393 543a
000003f0: c8d5 773a 1f6f 9f3a be82 c73a 5219 fe3a

Linear_Trend.bias f4 [120]
0.06241858 0.07281659 -0.00022845087 0.073366635 0.03650822 0.08284434 0.08257821 0.078620166
0.087218136 0.12756081 0.05733383 0.002658352 0.1390004 0.009486373 -0.06000216 -0.009595713
0.028764736 0.11525177 -0.10273774 -0.073785104 -0.015772998 0.03754782 -0.044878937 0.054280706
0.062181287 0.061679315 -0.037505977 -0.058041938 0.052410014 -0.013996903 -0.021425975 -0.08654875
0.06624173 0.00783051 -0.012373516 0.09666853 0.0077423677 -0.059116308 -0.059985075 -0.011990886
0.024903731 0.026303478 -0.061805043 -0.08000552 0.07790288 -0.08409324 0.07399402 -0.099157475
-0.012990078 -0.051325962 -0.08093359 0.0018551209 -0.06777159 -0.082257144 0.09349305 0.048413828
0.032183524 -0.07451296 -0.06478709 0.090315305 0.06020394 -0.044660293 -0.026518846 0.070494324
0.023628753 -0.039053462 0.023461415 0.00021925535 0.117505096 -0.034847006 -0.052727345 -0.0037705333
0.045185223 -0.03326563 -0.080776624 -0.022854203 0.040023617 0.053356133 0.027626656 0.13728464
0.10046524 0.03481226 -0.029854966 0.08647868 0.0137128495 0.0042574382 0.07052066 0.022827461
0.048348293 0.06575784 -0.021784972 0.037107818 -0.03364785 -0.009134222 0.022187594 -0.05131767
0.057365038 0.011410451 0.030813485 0.013202104 0.09076312 -0.014529816 -0.032290757 0.026465097
0.015374794 -0.077561066 0.08460197 0.04608909 -0.055396345 0.019791301 0.034929182 0.059086062
0.045165967 -0.0013837132 -0.0009905878 0.09556343 0.078213945 -0.08331743 -0.021340465 0.014029457
00000000: a0aa 7f3d dd20 953d 508c 6fb9 3f41 963d
00000010: a589 153d 4baa a93d c41e a93d 9c03 a13d
00000020: 6c9f b23d 4d9f 023e e1d6 6a3d bf37 2e3b
00000030: 1f56 0e3e bb6c 1b3c d3c4 75bd 5637 1dbc
00000040: 06a4 eb3c 1f09 ec3d 2a68 d2bd a51c 97bd
00000050: 6036 81bc becb 193d fad2 37bd 7255 5e3d
00000060: ceb1 7e3d 73a3 7c3d de9f 19bd 62bd 6dbd
00000070: e2ab 563d 4453 65bc 8785 afbc 7940 b1bd
00000080: bea9 873d 8a4b 003c 4aba 4abc 26fa c53d
00000090: b0b3 fd3b f123 72bd e9b2 75bd 6c75 44bc
000000a0: e902 cc3c 647a d73c 4927 7dbd efd9 a3bd
000000b0: 8c8b 9f3d 1439 acbd 2d8a 973d 1313 cbbd
000000c0: 56d4 54bc 2c3b 52bd 83c0 a5bd 8727 f33a
000000d0: d5cb 8abd 6f76 a8bd 4979 bf3d 944d 463d
000000e0: dfd2 033d 409a 98bd 18af 84bd 3bf7 b83d
000000f0: 6898 763d b6ed 36bd 0d3e d9bc 545f 903d
00000100: 1691 c13c 86f6 1fbd 2732 c03c e9e7 6539
00000110: 83a6 f03d bcbb 0ebd a1f8 57bd 0d1b 77bb
00000120: 2414 393d 8b41 08bd 376e a5bd bd38 bbbc
00000130: ceef 233d f68b 5a3d 4c51 e23c 5894 0c3e
00000140: b8c0 cd3d 4d97 0e3d 6792 f4bc bc1b b13d
00000150: dcab 603c fb81 8b3b 236d 903d a800 bb3c
00000160: dc08 463d 0cac 863d 6676 b2bc 5efe 173d
00000170: 54d2 09bd b4a7 15bc c2c2 b53c 7a32 52bd
00000180: 9af7 6a3d e6f2 3a3c 906c fc3c a34d 583c
00000190: 04e2 b93d 770e 6ebc 5043 04bd 55cd d83c
000001a0: 8fe6 7b3c 56d8 9ebd cc43 ad3d eac7 3c3d
000001b0: 47e7 62bd 5e21 a23c e711 0f3d 3a04 723d
000001c0: f3ff 383d b65d b5ba 9cd6 81ba c2b6 c33d
000001d0: a22e a03d 54a2 aabd 33d2 aebc cfdb 653c
