checkpoints/long_term_forecast_ETTh2_48_72_DLinear_ETTh2_ftM_sl48_ll48_pl72_dm512_nh8_el2_dl1_df2048_fc3_ebtimeF_dtTrue_Exp_0/checkpoint.pth (torch, 30095 bytes, 4 tensors)

Linear_Seasonal.weight f4 [72, 48]
0.06402273 0.032916926 0.026637817 0.015296224 0.013564527 0.008585316 0.0055342233 0.005491382
0.0009169864 0.0023910413 -0.007778692 -0.0009157234 0.0012101531 -0.004378387 -0.011290359 -0.0038185783
-0.006460267 -0.0026426904 -0.0012397385 0.0034259977 0.012158472 0.015672546 0.026996478 0.032913182
0.059859898 0.039563864 0.028697107 0.016887479 0.011430452 0.0018752771 -0.0031844613 -0.005558221
-0.009993543 -0.01237466 -0.020248603 -0.020729536 -0.017567175 -0.01855559 -0.022401957 -0.013004867
-0.010908234 -0.005729619 0.0042344276 0.019102162 0.037579127 0.050201032 0.06669214 0.07833597
0.046497647 0.06189252 0.044743996 0.037980538 0.027000403 0.023398481 0.016617926 0.01219091
0.0106099835 0.0042162784 0.0048166146 -0.0060740625 0.00072533544 0.00064044364 -0.0046721413 -0.01197945
-0.0046462636 -0.008015054 -0.0045734285 -0.0049891723 0.0012024401 0.010574483 0.01517134 0.026209783
0.03977748 0.05962956 0.03914767 0.028358763 0.016504524 0.010385002 0.0017932428 -0.0034129291
-0.005264568 -0.0087190615 -0.012601006 -0.021973131 -0.018570615 -0.015626907 -0.016792528 -0.017904487
-0.008786725 -0.0052705556 0.0036165752 0.016340908 0.03526084 0.05135097 0.06482799 0.07669736
0.03537148 0.039714705 0.06519082 0.04768228 0.041436233 0.03148104 0.025943525 0.019914107
0.014052771 0.0125459125 0.005109483 0.005662461 -0.005361134 -0.00040211747 -0.0014651193 -0.0061853076
-0.013508172 -0.0069599743 -0.009250236 -0.0076170675 -0.005135913 0.0011563705 0.010933363 0.015190373
0.03289638 0.03954771 0.059931703 0.040071886 0.028956266 0.01651006 0.010713768 0.0014837035
-0.0031086926 -0.0048130304 -0.010584001 -0.014980738 -0.020258898 -0.016148027 -0.014475812 -0.01314325
-0.014467061 -0.0044057462 0.0027715056 0.013866629 0.031059474 0.048103034 0.063818894 0.0748438
0.019704437 0.033444423 0.04520332 0.066060714 0.050432693 0.045133803 0.0335671 0.02962523
0.022622218 0.01735635 0.012693733 0.0057201465 0.0063271523 -0.0065620453 -0.002491643 -0.00250432
-0.007566928 -0.015045698 -0.008322362 -0.009314984 -0.007825971 -0.005217196 0.0019083833 0.011428736
0.022374075 0.032436598 0.0392507 0.059792105 0.040099546 0.028916765 0.01674481 0.011219552
0.0015041656 -0.0032808692 -0.007258029 -0.012875424 -0.0123685105 -0.017836062 -0.01562844 -0.01084432
-0.009794185 -0.011470075 0.0024754826 0.011607 0.026985802 0.04290629 0.06061133 0.073733725
0.01085387 0.01933805 0.03802908 0.04769777 0.06746692 0.05331085 0.044491027 0.03591258
0.0309779 0.024703758 0.016124642 0.013716914 0.006303571 0.0053786077 -0.008105233 -0.0035803681
-0.003658325 -0.009473378 -0.01596911 -0.008977866 -0.011658735 -0.008501282 -0.003756896 0.0023208486
0.018045643 0.022493243 0.03329669 0.03972147 0.059125 0.04003914 0.028627908 0.01657266
0.010777859 0.0019531276 -0.004691122 -0.008557766 -0.011156536 -0.010834243 -0.01750941 -0.011784741
-0.007293134 -0.006520502 -0.00548823 0.011701531 0.025718998 0.04133973 0.05806018 0.07187037
0.0022591688 0.014412028 0.026160691 0.041565623 0.05059222 0.0689273 0.05221278 0.046875432
0.03690415 0.033222523 0.024057241 0.017467976 0.013855887 0.0052049616 0.00302104 -0.009225421
00000000: 591e 833d e6d3 063d 8d37 da3c 039d 7a3c
00000010: c03d 5e3c 6da9 0c3c 6e58 b53b 0df1 b33b
00000020: ea61 703a 04b3 1c3b 66e4 febb 280d 70ba
00000030: 009e 9e3a 9278 8fbb 33fb 38bc 1d41 7abb
00000040: a6b0 d3bb fd30 2dbb b97e a2ba b486 603b
00000050: 5434 473c b663 803c b827 dd3c f9cf 063d
00000060: a72f 753d b80d 223d 3216 eb3c 9c57 8a3c
00000070: ca46 3b3c dccb f53a 65b2 50bb bd21 b6bb
00000080: f5bb 23bc 16bf 4abc 66e0 a5bc fdd0 a9bc
00000090: 09e9 8fbc e501 98bc 4f84 b7bc 5e12 55bc
000000a0: 73b8 32bc 87bf bbbb f4c0 8a3b 237c 9c3c
000000b0: 92ec 193d 999f 4d3d e495 883d 9c6e a03d
000000c0: 5174 3e3d 0383 7d3d 7b45 373d 7b91 1b3d
000000d0: f32f dd3c 2cae bf3c 5122 883c 62bc 473c
000000e0: 7fd5 2d3c b528 8a3b b1d4 9d3b ee08 c7bb
000000f0: 7024 3e3a 72e3 273a c318 99bb 7445 44bc
00000100: af3f 98bb 9351 03bc b3dc 95bb 367c a3bb
00000110: 329b 9d3a 9940 2d3c 3691 783c e6b5 d63c
00000120: b6ed 223d 203e 743d 4f59 203d a350 e83c
00000130: 7f34 873c db25 2a3c 3e0b eb3a 73ab 5fbb
00000140: 6682 acbb 65da 0ebc 7374 4ebc ff00 b4bc
00000150: 6721 98bc 0004 80bc 7c90 89bc 6eac 92bc
00000160: 32f6 0fbc a0b4 acbb 1004 6d3b 5edd 853c
00000170: ac6d 103d 6555 523d 8ac4 843d 8113 9d3d
00000180: afe1 103d e3ab 223d c482 853d 7f4e 433d
00000190: 0ab9 293d 43f2 003d 8487 d43c e922 a33c
000001a0: 983d 663c 5f8d 4d3c 736d a73b 2a8c b93b
000001b0: 74ac afbb 4bd3 d2b9 3f09 c0ba 1fae cabb
000001c0: 6151 5dbc 7f10 e4bb 4d8e 17bc 9898 f9bb
000001d0: 294b a8bb 5b91 973a d921 333c 0be1 783c
000001e0: 5bbe 063d c8fc 213d f27a 753d 6b22 243d
000001f0: b135 ed3c 1b40 873c cd88 2f3c d478 c23a
00000200: 35bb 4bbb a0b6 9dbb 8568 2dbc c571 75bc
00000210: fdf5 a5bc de48 84bc f52b 6dbc c956 57bc
00000220: 4007 6dbc 145e 90bb 26a2 353b dc30 633c
00000230: 7070 fe3c b007 453d 7bb3 823d b547 993d
00000240: 336b a13c 05fd 083d 1e27 393d d74a 873d
00000250: 8392 4e3d 39de 383d a87d 093d 9cb0 f23c
00000260: 3b52 b93c e72e 8e3c 60f9 4f3c 1170 bb3b
00000270: 0054 cf3b 6d06 d7bb d54a 23bb 841f 24bb
00000280: fef3 f7bb 3b82 76bc 845a 08bc e09d 18bc
00000290: 8038 00bc 03f5 aabb b822 fa3a 983f 3b3c
000002a0: d649 b73c 3ddc 043d 58c5 203d 91e8 743d
000002b0: 6c3f 243d dae2 ec3c 692c 893c 36d2 373c
000002c0: 6c27 c53a da03 57bb c3d4 edbb 71f3 52bc
000002d0: 4ba5 4abc ef1c 92bc 3707 80bc 60ac 31bc
000002e0: ca77 20bc fbec 3bbc b53b 223b 492b 3e3c
000002f0: 5411 dd3c 82be 2f3d 9643 783d b501 973d
00000300: 6ed4 313c d56a 9e3c 61c4 1b3d bd5e 433d
00000310: 192c 8a3d 7a5c 5a3d 393c 363d 1219 133d
00000320: 5dc5 fd3c 895f ca3c d317 843c e8bc 603c
00000330: 308e ce3b 083f b03b d0cb 04bc 9ca4 6abb
00000340: 82c0 6fbb 3a36 1bbc a7d1 82bc e617 13bc
00000350: 4704 3fbc f648 0bbc 4136 76bb 6119 183b
00000360: 75d4 933c c043 b83c 1c62 083d fbb2 223d
00000370: 0e2d 723d 1500 243d 1385 ea3c 63c3 873c
00000380: 9e95 303c 0b00 003b fcb7 99bb df35 0cbc
00000390: e7c9 36bc 1c82 31bc e56f 8fbc c914 41bc
000003a0: 3efb eebb efa9 d5bb 9cd6 b3bb c7b7 3f3c
000003b0: a6b0 d23c d953 293d 83d0 6d3d c630 933d
000003c0: 900e 143b 6d20 6c3c f24e d63c b740 2a3d
000003d0: ca39 4f3d c229 8d3d 11dd 553d 7400 403d
000003e0: ce28 173d 5714 083d b113 c53c 0019 8f3c
000003f0: cd03 633c 628e aa3b a4fc 453b 3826 17bc

Linear_Seasonal.bias f4 [72]
-0.06339717 0.06718238 -0.059399422 -0.058431648 -0.042088088 -0.024005855 -0.021708092 -0.061987303
-0.05210856 0.0436852 -0.042413525 -0.033816066 -0.006648693 0.0047275354 0.12594223 -0.027059661
-0.026030276 0.02126935 0.058588114 0.059606172 0.10958279 -0.02546424 0.04471916 0.036402985
0.053213496 0.11237996 0.04401096 -0.1042557 0.080760345 -0.08043747 -0.061442316 -0.020868385
-0.09713493 0.0368748 0.042222403 0.11269681 -0.0038069997 -0.045271434 0.06070198 0.0056237257
-0.07046483 -0.09839359 -0.021127764 -0.068249635 0.014995186 0.100579366 -0.13913894 -0.07448323
-0.08204337 -0.034622297 -0.09566244 -0.081532374 0.08012785 -0.093284704 -0.03502849 -0.07526703
-0.0064848666 0.12906702 0.075091556 0.025458695 0.12564272 0.06880028 0.040257037 -0.07944532
0.0071849716 0.029782064 -0.056869864 -0.12850462 -0.054248065 0.032600537 0.091977715 -0.021265037
00000000: 60d6 81bd ea96 893d cf4c 73bd 0656 6fbd
00000010: 8f64 2cbd eda7 c4bc 2bd5 b1bc 66e6 7dbd
00000020: c96f 55bd 41ef 323d ceb9 2dbd b782 0abd
00000030: 47dd d9bb 71e9 9a3b 00f7 003e 39ac ddbc
00000040: 723d d5bc 0f3d ae3c 17fa 6f3d 9a25 743d
00000050: f16c e03d 629a d0bc 702b 373d 4c1b 153d
00000060: 65f6 593d 7727 e63d d644 343d 0384 d5bd
00000070: ae65 a53d 66bc a4bd f0aa 7bbd 2df4 aabc
00000080: aeee c6bd 080a 173d 66f1 2c3d 96cd e63d
00000090: db7e 79bb 8a6e 39bd a4a2 783d 3b47 b83b
000000a0: dd4f 90bd 9482 c9bd 2214 adbc 77c6 8bbd
000000b0: 5eae 753c 8efc cd3d 707a 0ebe aa8a 98bd
000000c0: 5b06 a8bd 1cd0 0dbd abea c3bd 72fa a6bd
000000d0: 121a a43d 0d0c bfbd 097a 0fbd 9a25 9abd
000000e0: 017f d4bb 252a 043e 9ac9 993d c18e d03c
000000f0: 7ca8 003e 29e7 8c3d 90e4 243d 3ab4 a2bd
00000100: e96f eb3b 84f9 f33c 60f0 68bd b796 03be
00000110: 3833 5ebd 2488 053d d05e bc3d 0434 aebc

Linear_Trend.weight f4 [72, 48]
0.009208388 0.00800829 0.0066808537 0.0055016917 0.0041146767 0.002959669 0.0018331121 0.00075847434
-0.0002187533 -0.0011472127 -0.0019109632 -0.0025515691 -0.0026865036 -0.0031239027 -0.0032988142 -0.0034486253
-0.0034483161 -0.0034226903 -0.0032679278 -0.0029703453 -0.0025298167 -0.0019261499 -0.0013278748 -0.00029460233
0.0009743383 0.0024072235 0.0040602316 0.006413491 0.008993022 0.012041532 0.015811242 0.019977432
0.02471671 0.02992163 0.035646584 0.041622847 0.04697348 0.051312644 0.055445105 0.05908011
0.06225696 0.06493764 0.06722184 0.069132775 0.07071403 0.07204971 0.07314021 0.07412616
0.0061013033 0.005405184 0.004625912 0.0037492139 0.003008821 0.0022468676 0.0015210264 0.0008256851
0.00017183858 -0.0003958716 -0.0008910124 -0.0012340505 -0.0013586871 -0.0010567515 -0.0012930465 -0.0013577951
-0.0013754456 -0.0012396865 -0.0010529439 -0.0007490944 -0.0002625852 0.00031218943 0.0010982765 0.0018924585
0.0031554378 0.0046209595 0.00626474 0.00821614 0.0108254105 0.013643251 0.016920341 0.02064653
0.024890555 0.029619554 0.034698453 0.040084448 0.04490732 0.04910943 0.052475903 0.05572071
0.058637295 0.061245035 0.06350627 0.06571688 0.06744478 0.0689464 0.07023477 0.07137912
0.005601249 0.005008183 0.0044152103 0.0037474337 0.0029890076 0.0023529455 0.0017029472 0.001093845
0.00050296355 -3.6203957e-05 -0.00045177306 -0.00079943717 -0.00089783786 -0.00083283684 -0.00035813107 -0.00052633305
-0.00048649506 -0.00039805437 -0.00015259889 0.00015960887 0.000607799 0.0012122297 0.0019298417 0.0028695937
0.0038548785 0.0053289537 0.0069924826 0.008896706 0.011078254 0.013902879 0.016957505 0.020475129
0.02443735 0.02891528 0.034053568 0.03921068 0.043945614 0.048070487 0.05164778 0.054464206
0.057216704 0.059722055 0.06199162 0.063984945 0.06573589 0.06724286 0.06850501 0.06961902
0.0047199293 0.0041920184 0.0037150336 0.0032586602 0.002737327 0.002116102 0.0016207139 0.0011147838
0.0006553413 0.00022792122 -9.2331895e-05 -0.0002983871 -0.00033664933 -0.00018845421 5.4755834e-05 0.00061136484
0.0005464727 0.0006658891 0.0008384837 0.0012067443 0.0016354257 0.0021884032 0.0029108592 0.0037711186
0.0049022003 0.0060698506 0.0076989247 0.009587431 0.011670131 0.014031553 0.017071217 0.020350406
0.02410497 0.028307498 0.03300132 0.03805291 0.042674564 0.04680118 0.050410032 0.053533677
0.05595332 0.0583684 0.06056391 0.06254038 0.06425468 0.06576656 0.067057624 0.06819281
0.003994961 0.0037521264 0.003342536 0.0030018007 0.0026883325 0.002297339 0.0018137372 0.0014513624
0.0010920241 0.00078212324 0.0005423239 0.00037666265 0.00042340177 0.0005706124 0.0008803736 0.0011839602
0.0018320655 0.0018507799 0.0020735944 0.0023634403 0.0028539607 0.00339904 0.0040826392 0.0049561397
0.005980481 0.0072627724 0.008556847 0.010383762 0.012429808 0.014672351 0.017230475 0.020458123
0.02391524 0.027820526 0.032148663 0.036881436 0.041280158 0.045183837 0.048688415 0.051725276
0.05433532 0.056360092 0.05841393 0.060281724 0.06198672 0.06349677 0.06482401 0.06602791
0.0030542878 0.002925295 0.0027659985 0.002462598 0.0022393973 0.0020236196 0.0017320032 0.0013661456
0.0011399565 0.00092085893 0.0007894927 0.0007043375 0.00080574 0.0010576411 0.0013745375 0.0017837046
00000000: c7de 163c 3435 033c 10eb da3b 8947 b43b
00000010: 69d4 863b 02f7 413b 0945 f03a 5ad4 463a
00000020: 2461 65b9 125e 96ba 4979 faba 3a38 27bb
00000030: 0d10 30bb 64ba 4cbb eb30 58bb 5502 62bb
00000040: 25fd 61bb 374f 60bb bb2a 56bb 20aa 42bb
00000050: 48cb 25bb de76 fcba 160c aeba db74 9ab9
00000060: bd6a 7f3a 82c2 1d3b b10b 853b 4328 d23b
00000070: 7857 133c d949 453c 9486 813c b6a7 a33c
00000080: b37a ca3c 351e f53c 2702 123d b87c 2a3d
00000090: 4467 403d 352d 523d 681a 633d fcfd 713d
000000a0: 2701 7f3d 07fe 843d 9bab 893d 7c95 8d3d
000000b0: 84d2 903d cc8e 933d 89ca 953d 75cf 973d
000000c0: 71ed c73b f81d b13b f694 973b 5fb5 753b
000000d0: a42f 453b 2f40 133b 2d5d c73a ca72 583a
000000e0: 912f 3439 fd8c cfb9 d492 69ba ddbf a1ba
000000f0: f915 b2ba b282 8aba 717b a9ba 0bf8 b1ba
00000100: 4c48 b4ba fa7c a2ba ef02 8aba e05e 44ba
00000110: 97ab 89b9 5bad a339 0bf4 8f3a 5f0c f83a
00000120: 76cb 4e3b 6b6b 973b 7348 cd3b fd9c 063c
00000130: 105d 313c f187 5f3c 879c 8a3c e922 a93c
00000140: 47e7 cb3c b5a4 f23c f71f 0e3d 972f 243d
00000150: bdf0 373d f826 493d f9f0 563d 663b 643d
00000160: a92d 703d 13dc 7a3d 930f 823d 9296 863d
00000170: 7d20 8a3d c533 8d3d 3fd7 8f3d 372f 923d
00000180: af8a b73b af1b a43b 78ad 903b 8197 753b
00000190: 3ae3 433b e033 1a3b 6d35 df3a 595f 8f3a
000001a0: 50d9 033a b4d9 17b8 f4db ecb9 5291 51ba
000001b0: e15c 6bba bc52 5aba 8ac3 bbb9 9df9 09ba
000001c0: 4310 ffb9 f4b1 d0b9 f402 20b9 ae5c 2739
000001d0: b354 1f3a aee3 9e3a bef2 fc3a cb0f 3c3b
000001e0: 21a2 7c3b 819e ae3b 3221 e53b 7dc3 113c
000001f0: 9181 353c e7c8 633c 77ea 8a3c 75bb a73c
00000200: d630 c83c bddf ec3c c17b 0b3d 619b 203d
00000210: 5100 343d 8fe5 443d 9f8c 533d dc15 5f3d
00000220: 105c 6a3d 1d9f 743d edea 7d3d 8a0a 833d
00000230: 8aa0 863d a0b6 893d 5b4c 8c3d 6b94 8e3d
00000240: a3a9 9a3b 335d 893b ec77 733b 3f8f 553b
00000250: ba64 333b 4dae 0a3b 226e d43a f01d 923a
00000260: 36cb 2b3a 23fe 6e39 4fa2 c1b8 d770 9cb9
00000270: 4f80 b0b9 cb9b 45b9 a1a9 6538 0044 203a
00000280: 2941 0f3a 108f 2e3a b0cd 5b3a 9f2b 9e3a
00000290: c85b d63a 506b 0f3b 1dc4 3e3b df24 773b
000002a0: a3a2 a03b 99e5 c63b 4347 fc3b 9a14 1d3c
000002b0: 1434 3f3c 99e4 653c f0d8 8b3c e5b5 a63c
000002c0: c977 c53c 20e5 e73c 642c 073d 5edd 1b3d
000002d0: 86cb 2e3d 98b2 3f3d c07a 4e3d 2146 5b3d
000002e0: 4f2f 653d b413 6f3d dd11 783d 2c15 803d
000002f0: f597 833d 9eb0 863d 8255 893d aca8 8b3d
00000300: 29e8 823b 3ce6 753b 730e 5b3b dcb9 443b
00000310: bc2e 303b f48e 163b ecba ed3a a43b be3a
00000320: 4022 8f3a 6707 4d3a be2a 0e3a ce7a c539
00000330: 06fc dd39 2695 153a dfc8 663a 1d2f 9b3a
00000340: eb21 f03a de95 f23a 24e5 073b f3e3 1a3b
00000350: 8409 3b3b 6ec2 5e3b a9c7 853b 1d67 a23b
00000360: e9f7 c33b 8dfc ed3b 0532 0c3c a820 2a3c
00000370: 65a6 4b3c 4d64 703c ed26 8d3c cb97 a73c
00000380: e5e9 c33c dfe7 e33c 51ae 033d fd10 173d
00000390: 6215 293d b012 393d 816d 473d e2dd 533d
000003a0: b68e 5e3d d7d9 663d 7243 6f3d f8e9 763d
000003b0: c9e5 7d3d 980a 823d 73c2 843d a439 873d
000003c0: 722a 483b 4eb6 3f3b c145 353b 8a63 213b
000003d0: dac2 123b b49e 043b 6204 e33a 3d10 b33a
000003e0: 986a 953a cc65 713a f5f5 4e3a 4aa3 383a
000003f0: 4c38 533a 8ca0 8a3a d329 b43a 32cb e93a

Linear_Trend.bias f4 [72]
-0.07154333 0.05243906 0.08512063 0.025173118 0.038729955 0.014923347 -0.014351108 0.083310604
0.08684387 -0.04411457 0.040601034 0.03429824 -0.060434222 -0.001124694 -0.1272222 0.021336978
0.0017194414 -0.007924861 0.021613218 -0.061496727 -0.10564198 0.047986243 0.0052977153 0.0038286722
0.021779908 -0.111199796 -0.046166636 0.09528173 -0.086389706 0.0841431 -0.048178267 0.021117216
0.09045352 -0.053033225 -0.052922215 -0.112361535 0.0010524661 0.06352413 0.062226307 -0.0033578093
0.055346288 0.10690921 0.073930986 -0.0027908436 -0.032639775 -0.108849436 0.13873455 0.08548512
0.026022252 0.02440492 0.09861491 0.08489993 0.012575485 0.095069446 0.043414503 0.05666177
0.002803243 -0.12722352 -0.042804275 -0.02571412 -0.120514795 -0.06992868 -0.07401491 0.07736176
0.07174419 -0.032122448 0.08523035 0.12706977 0.06142908 -0.036300167 -0.08745615 0.042939603
00000000: 4f85 92bd 57ca 563d ba53 ae3d db37 ce3c
00000010: 4da3 1e3d 0e81 743c e920 6bbc c09e aa3d
00000020: 33db b13d 7bb1 34bd 454d 263d 507c 0c3d
00000030: e089 77bd 786a 93ba 8946 02be e3ca ae3c
00000040: e15e e13a 47d7 01bc 340e b13c fee3 7bbd
00000050: d35a d8bd 398d 443d 7598 ad3b 76ea 7a3b
00000060: c76b b23c b8bc e3bd 3a19 3dbd 1123 c33d
00000070: 16ed b0bd 3853 ac3d 9356 45bd 03fe ac3c
00000080: b23f b93d 5e39 59bd f7c4 58bd ce1d e6bd
00000090: e7f2 893a f018 823d 03e1 7e3d b10e 5cbb
000000a0: cab2 623d 37f3 da3d 2169 973d 96e6 36bb
000000b0: 49b1 05bd 74ec debd 6e10 0e3e d312 af3d
000000c0: 9e2c d53c d4ec c73c 9df6 c93d 04e0 ad3d
000000d0: 6809 4e3c c5b3 c23d 68d3 313d 2c16 683d
000000e0: 9db6 373b e246 02be 8953 2fbd 6ba6 d2bc
000000f0: 76d0 f6bd c536 8fbd 2195 97bd d86f 9e3d
00000100: 9eee 923d d492 03bd 408d ae3d 941e 023e
00000110: 0f9d 7b3d 7caf 14bd 361c b3bd 70e1 2f3d
