checkpoints/long_term_forecast_ETTh1_96_96_DLinear_ETTh1_ftM_sl96_ll48_pl96_dm512_nh8_el2_dl1_df2048_fc3_ebtimeF_dtTrue_Exp_0/checkpoint.pth (torch, 76431 bytes, 4 tensors)

Linear_Seasonal.weight f4 [96, 96]
000000 17 28 27 3d 1b 75 e8 3c a8 67 ba 3b 0b 22 31 bc
       0.040809717 0.028376153 0.0056886263 -0.010811339
000010 c8 78 97 bc 74 03 bf bc 26 c6 8d bc 7d 3a 65 bc
       -0.01849021 -0.023317076 -0.017306399 -0.0139909955
000020 b0 d0 73 bc 65 7a 1d bc 54 f4 2b bb 9f 54 34 3a
       -0.014881298 -0.009611701 -0.002623816 0.00068790646
000030 eb d1 5e bb 8c 05 23 3b d3 99 a0 3b 19 eb af 3a
       -0.0033999633 0.0024875132 0.00490115 0.0013421505
000040 74 1c 59 bb 51 52 e2 37 7d 10 80 bb c6 71 13 bc
       -0.0033128532 2.6979631e-05 -0.0039082156 -0.008999294
000050 90 e2 13 bb 96 45 aa 3b bf 58 4a 3c cc ee dc 3c
       -0.0022565462 0.0051962836 0.01235026 0.026969336
000060 ea 24 26 3d f4 ff 0b 3d cf 23 be 3c 4c c6 83 3c
       0.040562548 0.034179643 0.023210434 0.016085766
000070 84 8c 1d 3c ec 56 9f bb 34 98 71 bb c5 df 50 ba
       0.009616021 -0.004862657 -0.0036864402 -0.00079679146
000080 ff 12 72 bb 0d 54 72 ba 64 b8 b2 3b 29 95 81 3b
       -0.0036937592 -0.0009244092 0.00545411 0.003954549
000090 74 33 02 bb f2 43 2f 3b 29 44 96 3b 62 36 a6 b9
       -0.0019867094 0.002674338 0.004585762 -0.00031702506
0000a0 24 76 06 bc e3 8d ce bb 54 0e 12 bc 04 03 51 bc
       -0.008206878 -0.0063035353 -0.008914549 -0.012757067
0000b0 9e 17 36 bb eb 7c cb 3b 4b 61 80 3c 35 f2 fb 3c
       -0.0027785073 0.0062099597 0.015671393 0.030755142
0000c0 63 fe 39 3d ae ee 1d 3d 3f d1 ec 3c 19 02 b7 3c
       0.045408618 0.0385577 0.02890837 0.022339867
0000d0 e4 dc 75 3c dd 75 14 ba c4 ae 80 bb 11 05 57 bb
       0.015006278 -0.0005663315 -0.0039270837 -0.0032809416
0000e0 69 90 0e bc 7a 19 6a bb 07 c2 e6 3a 85 42 2d 3b
       -0.008701422 -0.0035720752 0.0017605432 0.0026437354
0000f0 13 e1 a0 ba 9c 59 ad 3b 6e cf 0d 3c 38 63 aa 3b
       -0.0012274109 0.0052902233 0.008655412 0.005199816
000100 59 b8 be 39 54 c3 fb 39 9e 80 96 bb 18 73 38 bc
       0.00036376974 0.00048019981 -0.004592969 -0.011257909
000110 c4 ba 89 bb ea f9 33 3b fc 8f 34 3c 73 d4 cc 3c
       -0.0042031724 0.0027462193 0.011020657 0.025003647
000120 0a c1 1e 3d 18 6e 05 3d fd db b3 3c c0 b7 5a 3c
       0.038758315 0.032575697 0.021955485 0.0133494735
000130 36 0d 7e 3b ff b2 46 bc 67 60 6c bc a4 30 6a bc
       0.0038765199 -0.012127637 -0.014427281 -0.014293823
000140 eb 5b 99 bc e0 f4 a4 bc dd cf a6 bc 53 6a c4 bc
       -0.018720588 -0.020136297 -0.020362789 -0.02397648
000150 53 ad f0 bc 43 e7 f0 bc d3 f8 f5 bc ba 8f 07 bd
       -0.029379522 -0.02940715 -0.030025875 -0.033096053
000160 a5 90 19 bd 31 fe 13 bd f8 63 13 bd 03 4d 12 bd
       -0.03749146 -0.036131088 -0.03598401 -0.035717975
000170 a2 83 aa bc 2e c4 9b 3c c9 11 4f 3d 0f 29 86 3d
       -0.02081472 0.019014444 0.05055407 0.065508
000180 6b ba fb 3c cb 80 56 3d 76 92 24 3d 50 09 a0 3c
       0.03072854 0.05236892 0.04017874 0.01953569
000190 85 42 84 3b 7d a4 31 bc 50 0d 9d bc 34 8e 73 bc
       0.00403625 -0.01084244 -0.019171387 -0.014865447
0001a0 96 a6 4c bc 88 de 64 bc 3b 70 ea bb 14 fb bc 3a
       -0.012490889 -0.013969071 -0.007154492 0.0014418089
0001b0 c4 94 3c 3b fc 77 e5 ba f5 e8 9a 3b f1 89 cd 3b
       0.0028775195 -0.0017507072 0.0047274777 0.0062725474
0001c0 4a 7e 7a 3a b0 94 62 bb 3e c2 12 bb ee e7 01 bc
       0.00095555617 -0.0034573488 -0.002239361 -0.0079288315
0001d0 62 51 75 bc 73 c0 cc bb 27 20 bd 3a 0b 91 43 3c
       -0.014973016 -0.0062485277 0.0014429138 0.011936436
0001e0 dc 51 01 3d 42 1b 36 3d 52 30 17 3d aa a6 cd 3c
       0.031572208 0.04445959 0.036911316 0.025103886
0001f0 33 e7 8b 3c 0e c9 10 3c ca d6 d2 bb 1e a8 a9 bb
       0.017078018 0.008836998 -0.0064342963 -0.005177512
000200 e5 26 61 bb f8 74 c7 bb 59 4b 49 ba c1 79 bf 3b
       -0.0034355458 -0.006086942 -0.0007678769 0.0058433716
000210 e8 11 61 3b ed 14 d0 ba 93 5f 5d 3b 23 bd 98 3b
       0.0034342948 -0.0015875377 0.003377889 0.0046612187
000220 b4 f1 2c bb db 4a 23 bc 7c 82 21 bc 0c 15 68 bc
       -0.0026389183 -0.009966577 -0.00985777 -0.014165174
000230 bd 71 8f bc 93 fa e5 bb d1 2b 31 3b 92 30 79 3c
       -0.01751029 -0.007018396 0.0027034173 0.015209334
000240 96 b7 15 3d 00 cd 48 3d a4 ff 2d 3d e7 82 03 3d
       0.036552034 0.04902363 0.042480126 0.03210726
000250 b8 4a c9 3c 5c 06 7a 3c a6 99 26 bb c5 15 a9 bb
       0.024571761 0.015260305 -0.0025421171 -0.005160066
000260 fc 84 dd bb 5c 30 38 bc 04 32 97 bb 8a 3a b1 3a
       -0.0067602377 -0.0112419985 -0.0046141166 0.0013521474
000270 f6 5f 80 3a 45 bb bd ba 76 ad af 3b ea cb 01 3c
       0.0009794224 -0.0014475366 0.0053612543 0.007922152
000280 ab 93 41 3b e6 9e c2 ba 1c 29 4f bb d5 05 1d bc
       0.002953748 -0.0014848381 -0.0031610196 -0.00958391
000290 60 2b 86 bc c4 45 0d bc 47 85 a6 ba e3 e5 23 3c
       -0.016378105 -0.00862259 -0.0012704515 0.01000354
0002a0 c6 1c f2 3c 03 50 2d 3d 9d 78 11 3d 5e e1 c6 3c
       0.029554736 0.042312633 0.035515416 0.024277385
0002b0 8c 13 7d 3c f3 82 8e 3b ab d9 46 bc f9 59 58 bc
       0.015446555 0.0043491065 -0.012136857 -0.013205045
0002c0 38 9e 5a bc 68 7b 95 bc 1c 22 8e bc fe d4 8c bc
       -0.013343386 -0.018247321 -0.017350249 -0.017191406
0002d0 22 1b ae bc c3 e9 cf bc 00 cd bd bc 2f 77 c6 bc
       -0.021253172 -0.025380021 -0.02316904 -0.024226753
0002e0 27 ff f3 bc 11 c3 0d bd 20 54 06 bd 62 b2 f9 bc
       -0.029784752 -0.034609858 -0.03279507 -0.030480567
0002f0 c5 98 d5 bc 06 7b 22 3c e7 18 3a 3d 96 04 7d 3d
       -0.026073823 0.009917026 0.045433905 0.06177195
000300 1c 53 83 3c 77 9e 3b 3d be 5b 65 3d 75 34 3a 3d
       0.01603084 0.04580542 0.055995695 0.045460183
000310 bc 13 e8 3c ea 14 47 3c 02 c7 88 bb 75 07 88 bc
       0.028329723 0.012150982 -0.004174114 -0.016605118
000320 f3 69 66 bc 8f 25 41 bc 58 d4 44 bc 2f 32 82 bb
       -0.014063346 -0.01178874 -0.012013517 -0.0039732675
000330 bd 0f 41 3b 85 a5 87 3b 61 91 5e 39 81 65 ba 3b
       0.0029458844 0.0041396045 0.00021225728 0.0056883697
000340 6d 49 b7 3b 18 49 3f 3a ce a2 a6 bb e9 5f bd bb
       0.00559347 0.00072969636 -0.005085326 -0.0057792556
000350 6f d3 53 bc b4 44 93 bc 22 fd 2c bc 57 62 bd 3a
       -0.012928828 -0.017977096 -0.010558398 0.0014448863
000360 b8 c8 94 3c f8 a2 12 3d 82 d3 3c 3d 99 85 1b 3d
       0.018162116 0.03579995 0.046100147 0.037969206
000370 af e5 cf 3c ad 7e 85 3c bf fa df 3b 19 7d f4 bb
       0.025378076 0.016295755 0.006835311 -0.007461202
000380 f0 1d 00 bc 21 38 d1 bb 92 04 bc bb 16 d7 1c ba
       -0.007819638 -0.006384865 -0.0057378495 -0.0005982978
000390 1b f8 a1 3b 17 68 59 3b d3 dd a1 ba fd 14 36 3b
       0.0049429066 0.0033173615 -0.0012349434 0.0027783506
0003a0 a4 79 e0 3a 8c ea 92 bb d3 2b 51 bc b4 b8 60 bc
       0.0017126095 -0.0044835266 -0.012766796 -0.013715912
0003b0 61 ff 91 bc 75 bd a8 bc af 7a 32 bc a4 3e 5f 3b
       -0.01782197 -0.020598153 -0.010893508 0.0034064436
0003c0 1e 95 be 3c 3a 3e 29 3d 72 02 54 3d 2f a8 35 3d
       0.023264464 0.04131911 0.051760145 0.044349845
0003d0 48 39 0a 3d ca 00 c7 3c d9 e4 5e 3c a2 1d 68 bb
       0.033746034 0.024292368 0.013604366 -0.0035418053
0003e0 7d b1 10 bc c6 08 15 bc 4e 71 4d bc 81 ef ac bb
       -0.008831379 -0.00909633 -0.012539221 -0.0052775745
0003f0 ad 20 32 ba 6d b6 17 3a 3e b0 a1 ba 79 7d 96 3b
       -0.000679503 0.00057873764 -0.001233585 0.004592594

Linear_Seasonal.bias f4 [96]
000000 2e b2 8f 3d a8 d8 6d bd 86 69 d8 bc a7 1f 94 3d
       0.07016407 -0.058067948 -0.026417505 0.072326
000010 4c ca 38 3d 51 d6 3e 3c d6 11 b3 bd 81 fb 58 3d
       0.0451148 0.011647777 -0.08743636 0.052974228
000020 18 22 4f bd 20 95 5f bd ee 4d dc 3b d0 93 f2 3b
       -0.050569624 -0.054585576 0.006723157 0.0074028745
000030 b4 c5 67 bd b9 c4 28 3c 92 e5 3b 3d 41 03 35 bd
       -0.05658503 0.010300809 0.045873232 -0.044192556
000040 cc 8f b2 3d 59 c9 46 3b 1d e5 2c 3b 1b eb 2e bd
       0.08718833 0.0030332415 0.002638168 -0.042704683
000050 c6 74 cb 3c c5 a0 61 3d 2a de 32 3c bb 84 c3 bd
       0.024835955 0.055084962 0.010917226 -0.09546801
000060 62 80 16 3c 5c 8c 01 3d 2e 6d 3d bd 45 92 22 3d
       0.009185882 0.031627998 -0.0462467 0.039690275
000070 d0 fd 90 bb 19 6f af bd 66 5c 47 bb 32 f0 47 bc
       -0.004424788 -0.08566112 -0.0030420064 -0.012203263
000080 c8 3c 8a 3b f2 3b 5f bc 64 08 73 bd 5b 0f e7 3c
       0.0042186715 -0.013625132 -0.059334174 0.028205564
000090 ac dd f1 3c e1 fa 67 3b c0 b5 15 bd c3 2d ef 3c
       0.029524647 0.0035397338 -0.036550283 0.029196626
0000a0 f5 eb 8c 3d 90 a3 b3 3c e7 04 c1 3c 4e 15 9c 3d
       0.06880943 0.021928579 0.023561908 0.07621251
0000b0 9d 27 c3 3c 07 09 a1 3c 86 63 9d bc f4 4a 75 bc
       0.0238226 0.019657625 -0.019212496 -0.0149714835
0000c0 e6 9b 0f 3d 74 50 39 3d 14 b3 a4 3c 6b f2 86 bd
       0.035060786 0.04524274 0.020104922 -0.06589206
0000d0 c0 f9 b7 3b c9 dd 1d 3d d9 a5 c1 bd f3 b1 08 bd
       0.0056144893 0.03854159 -0.09455461 -0.03337283
0000e0 20 b1 16 3d 99 a9 e0 bc 45 b3 a5 3c 63 eb 2d 3d
       0.036790013 -0.02742462 0.020227084 0.04246081
0000f0 a0 26 dc 3c aa 02 17 bb c0 9b c0 bc 7f 55 98 3c
       0.026873887 -0.002304236 -0.023511767 0.018595455
000100 a6 a2 19 bd 0e c2 d2 bb b5 d6 49 bd d2 ac a5 bd
       -0.03750863 -0.0064318245 -0.049277026 -0.080896035
000110 be 70 a4 3c a9 4d 3e 3c ea 13 8b 3d e6 c8 1e bd
       0.02007329 0.011615195 0.06790908 -0.03876581
000120 8c e5 9a bd 81 86 ac 39 3d d0 73 3d b8 2e 78 3c
       -0.07563314 0.0003290661 0.059524763 0.015147857
000130 b2 19 c0 bd d1 ec d6 bd 1f 79 16 3d d8 f1 11 bd
       -0.09379901 -0.10494388 0.036736604 -0.03563103
000140 07 01 89 3d 79 bf 95 3b 3e 1c e7 3c 24 21 28 bc
       0.06689649 0.0045699445 0.02821171 -0.010261808
000150 ca 46 9c bd 2e 05 88 b9 36 2b 38 3d 11 85 a2 3c
       -0.076306894 -0.000259438 0.044963084 0.019838842
000160 74 82 b1 bb 8f 0d 2b bc 4a 47 1d bd 17 6f b1 bd
       -0.0054171626 -0.010440244 -0.038398065 -0.08663767
000170 97 ec 34 bc 7c b4 da bc 5a 44 a4 bd f4 ad c1 bd
       -0.011042736 -0.02669739 -0.080208495 -0.09457007

Linear_Trend.weight f4 [96, 96]
000000 48 1e f7 3c a7 9f eb 3c 87 9d dd 3c 85 c0 ca 3c
       0.030165806 0.028762652 0.027052654 0.024750004
000010 a5 ca b1 3c 5f 87 95 3c eb 6f 6a 3c 7b 06 24 3c
       0.021703074 0.018253027 0.01430891 0.010011311
000020 00 20 c0 3b f6 c1 fb 3a 1c 84 a2 ba 75 61 50 bb
       0.0058631897 0.0019207585 -0.0012398991 -0.003179637
000030 a3 20 74 bb e7 54 a3 bb ae f6 cf bb 04 fe e9 bb
       -0.0037250898 -0.0049844864 -0.006346545 -0.0071408767
000040 09 8f f8 bb fc db 02 bc 1c 6f 02 bc 5a 17 01 bc
       -0.0075854105 -0.007987019 -0.007961061 -0.007879103
000050 d2 17 00 bc ca 81 f3 bb 81 c0 e3 bb e1 aa da bb
       -0.007818179 -0.0074312435 -0.0069504385 -0.0066732024
000060 be 2b d9 bb fc 39 cb bb b5 b1 c1 bb 1e 10 c1 bb
       -0.006627529 -0.0062019806 -0.005911077 -0.005891814
000070 e1 17 c5 bb aa 3b be bb fd a1 bb bb c8 de b9 bb
       -0.0060148095 -0.0058054524 -0.0057260976 -0.0056723095
000080 5a af ae bb db 92 9a bb 22 f7 6e bb 9b 97 c7 ba
       -0.005330962 -0.0047172136 -0.003646322 -0.0015227677
000090 96 8e aa 3a 71 35 de 3a c3 a1 d7 3a fa 7f f8 3a
       0.0013012465 0.0016953183 0.0016451407 0.0018959038
0000a0 cf d3 0f 3b 14 e3 16 3b df c4 32 3b 58 ec 43 3b
       0.0021946316 0.0023023533 0.002727799 0.002989551
0000b0 79 35 3c 3b b6 65 4c 3b e4 73 64 3b b3 d0 6d 3b
       0.0028718396 0.0031188554 0.0034859115 0.0036287725
0000c0 70 07 6e 3b e5 d6 84 3b c8 8e 8e 3b 2b 99 95 3b
       0.003632035 0.0040539377 0.004350517 0.004565378
0000d0 f7 d1 96 3b 0c 0c a5 3b 0f 07 aa 3b fa 45 a5 3b
       0.0046026665 0.0050368365 0.0051888297 0.0050437422
0000e0 1b 79 a7 3b d5 b6 a9 3b e5 a4 b0 3b 29 1d c1 3b
       0.0051108724 0.005179266 0.0053907507 0.0058933687
0000f0 1e dc d0 3b 2c 74 86 3b 43 4f ec 3a 45 01 4b 39
       0.0063738963 0.0041032042 0.0018028993 0.00019360062
000100 98 3f 8a ba 86 f4 0a bb 41 2b 29 bb 57 89 3d bb
       -0.0010547517 -0.0021202876 -0.0025813135 -0.0028920972
000110 6a 80 50 bb af 1b 3d bb 67 fc 23 bb ff 19 12 bb
       -0.0031814822 -0.0028855612 -0.002502227 -0.0022293327
000120 19 26 08 bb 61 2a b4 ba 5d 02 1d ba 3d 9f 2b 39
       -0.002077466 -0.001374554 -0.0005989427 0.00016367152
000130 64 06 99 3a ed da 61 3b ae ac dd 3b 3a 99 37 3c
       0.0011674878 0.0034462765 0.00676497 0.011205966
000140 2c d7 8d 3c 34 64 ca 3c 58 f3 05 3d de 99 28 3d
       0.017314516 0.024705984 0.032702774 0.041162364
000150 cf 4a 42 3d 46 ab 54 3d 91 59 64 3d e9 6e 71 3d
       0.047434624 0.05192115 0.05574948 0.058943663
000160 e0 71 7b 3d 5e 55 81 3d 3c c9 83 3d 52 4d 85 3d
       0.061387897 0.063151106 0.06434867 0.06508888
000170 7f 35 86 3d 36 cc 86 3d d2 2d 87 3d ff 61 87 3d
       0.06553172 0.06581919 0.066005364 0.06610488
000180 7d 97 c8 3c 56 11 bf 3c 09 da b4 3c 91 4d a8 3c
       0.024486298 0.023323696 0.022076624 0.020544799
000190 0c f8 96 3c 26 27 81 3c cc 1b 54 3c 84 bd 21 3c
       0.018428825 0.015765738 0.01294608 0.009871844
0001a0 87 6e d9 3b 5c 02 6f 3b 62 4f 8a 3a fe 07 6c ba
       0.0066354903 0.0036469912 0.0010552222 -0.00090038765
0001b0 0d 7e b7 ba d0 ae 0e ba 96 4d 06 bb fc 8a 6e bb
       -0.0013999358 -0.0005442919 -0.0020493022 -0.003639876
0001c0 96 70 96 bb b0 b5 ac bb ec ee be bb 86 e2 c9 bb
       -0.004591058 -0.0052706823 -0.0058268216 -0.006161037
0001d0 32 9a ca bb 07 36 cc bb 18 41 c2 bb d7 2b b6 bb
       -0.0061829323 -0.0062320265 -0.00592817 -0.0055594253
0001e0 94 fa b3 bb df 94 b7 bb 0f 56 af bb 05 ba ad bb
       -0.0054925177 -0.0056024636 -0.005350835 -0.0053017163
0001f0 de 81 b5 bb 92 3a be bb 72 4d bc bb 3d c4 be bb
       -0.005539163 -0.005805322 -0.005746537 -0.0058217333
000200 53 f2 c0 bb 94 7c b5 bb b0 82 a0 bb 83 60 71 bb
       -0.0058882623 -0.0055385325 -0.0048983917 -0.0036831207
000210 95 e4 97 ba f5 c4 e3 3a 9a 28 0b 3b 6b 66 12 3b
       -0.0011588508 0.0017377423 0.0021233917 0.0022338878
000220 20 c1 1f 3b 3d d7 2a 3b 38 97 35 3b c1 b0 53 3b
       0.0024376586 0.0026068233 0.0027708542 0.0032301398
000230 fa ad 63 3b a7 86 5e 3b dc 41 74 3b f0 5c 88 3b
       0.003474115 0.003395477 0.00372707 0.0041614696
000240 fd 25 8e 3b 08 1a 90 3b 4d e3 9f 3b 4b 99 a9 3b
       0.0043380246 0.0043976344 0.0048793913 0.0051757446
000250 6a 1d a9 3b 8e 44 ac 3b 8e 5b bb 3b 93 a4 be 3b
       0.005160977 0.005257196 0.0057177013 0.0058179586
000260 48 9f b9 3b c3 4e bd 3b 1e d0 c2 3b 13 8f d0 3b
       0.0056647398 0.0057772114 0.0059452197 0.006364712
000270 15 9f f3 3b bb 38 02 3c ab 5d ba 3b 81 d8 55 3b
       0.0074347355 0.007948096 0.0056874356 0.0032630267
000280 e5 b6 e7 3a d4 bb 1e 3a 72 d3 7e b9 64 6f 02 ba
       0.0017678408 0.000605521 -0.00024302097 -0.0004975705
000290 06 2e 19 ba 71 2e 0e ba 13 22 94 38 69 66 4b 3a
       -0.0005843345 -0.00054237904 7.063537e-05 0.0007759096
0002a0 6c e9 aa 3a 1e 26 e6 3a 34 69 33 3b 39 ff 70 3b
       0.0013039536 0.0017558967 0.0027375938 0.0036773218
0002b0 00 ea 91 3b fa 20 bb 3b 46 77 02 3c cf 33 36 3c
       0.004452944 0.005710718 0.007963007 0.011120751
0002c0 e4 ff 7b 3c 40 71 ac 3c 6d 59 e3 3c e5 e6 10 3d
       0.015380833 0.021050096 0.027752602 0.03537645
0002d0 b6 4c 2a 3d c3 d6 3c 3d c8 3e 4a 3d 7d 13 57 3d
       0.041577064 0.04610325 0.04937628 0.05250882
0002e0 68 0b 63 3d 17 07 6d 3d a2 b3 74 3d e5 37 7a 3d
       0.0554308 0.05786809 0.059741624 0.06108846
0002f0 de b2 7d 3d 89 e5 7f 3d 21 ba 80 3d 20 2e 81 3d
       0.06193816 0.06247476 0.06285501 0.06307626
000300 62 9c 97 3c f5 6b 92 3c 30 da 8a 3c d8 0e 83 3c
       0.018507186 0.017873744 0.016949743 0.015998289
000310 23 4c 72 3c 50 73 57 3c dc 75 36 3c 54 b5 15 3c
       0.01478866 0.013150051 0.011136498 0.00913747
000320 bd 0f e6 3b d9 1b 9e 3b a4 9a 3b 3b e3 f3 b2 3a
       0.007020919 0.004825097 0.0028626109 0.0013653006
000330 27 cf 48 3a bd c3 d3 3a 92 a3 09 3b e6 18 92 39
       0.00076602626 0.0016156357 0.0021002037 0.0002786584
000340 48 b3 c7 ba a1 28 34 bb 24 c7 68 bb 27 c5 89 bb
       -0.0015235925 -0.0027490037 -0.0035519088 -0.0042044106
000350 15 0b 8f bb a1 b2 91 bb 48 00 94 bb b0 3e 8c bb
       -0.0043653348 -0.004446343 -0.004516635 -0.004279934
000360 f5 9b 85 bb 2d 0b 87 bb d9 54 8e bb 33 10 8d bb
       -0.0040774294 -0.0041212053 -0.0043436107 -0.0043049096
000370 cd 4c 92 bb 83 48 9e bb 34 73 ac bb 63 4b b1 bb
       -0.004464722 -0.0048304214 -0.0052627567 -0.005410598
000380 f2 ad b8 bb 99 86 bc bb 22 66 b3 bb 39 61 9b bb
       -0.0056359703 -0.00575335 -0.0054748217 -0.0047418145
000390 96 43 4d bb 13 b2 fd b9 c3 ec 1c 3b c2 28 38 3b
       -0.0031320802 -0.00048388596 0.0023944832 0.0028100465
0003a0 02 72 33 3b 1f 65 3c 3b 27 d0 4d 3b d8 15 5b 3b
       0.0027381186 0.0028746796 0.0031404586 0.0033429768
0003b0 26 f6 76 3b a7 f3 83 3b f8 8c 83 3b f3 c2 8f 3b
       0.0037683337 0.0040268484 0.0040146075 0.0043872534
0003c0 7c 99 9d 3b 29 4d a4 3b 4d 4e a7 3b 06 4a b6 3b
       0.0048095565 0.005014081 0.0051057697 0.0055630235
0003d0 41 5b be 3b 34 ef be 3b 77 42 c2 3b f0 c8 cf 3b
       0.005809218 0.005826855 0.0059283334 0.0063410923
0003e0 06 da d3 3b 38 3b d1 3b e3 f5 d7 3b 29 f6 e4 3b
       0.0064651994 0.0063852333 0.0065905913 0.0069873524
0003f0 51 f6 ff 3b e9 b2 11 3c 9b 1b 18 3c a4 14 e5 3b
       0.0078113456 0.008892753 0.009283925 0.006990986

Linear_Trend.bias f4 [96]
000000 8c c6 96 bd bf a6 7b 3d 7e 8e c5 3c e1 57 99 bd
       -0.073620886 0.06143832 0.024115797 -0.07487465
000010 f9 18 69 bd 2e 9e 9a bc 8a d0 ad 3d b5 e1 60 bd
       -0.05690858 -0.018874254 0.08487041 -0.05490275
000020 c0 a4 66 3d 58 75 50 3d ae 74 e5 3b 98 8f 3b 3b
       0.05630946 0.050893158 0.0070024347 0.0028619524
000030 13 75 56 3d b3 0e 8d ba 13 73 55 bd 87 f6 a0 3c
       0.052357744 -0.0010761827 -0.052111696 0.019648803
000040 c5 85 c1 bd a9 60 4e bc f4 64 46 bd 80 0c 1f 3d
       -0.09449343 -0.012596288 -0.04843612 0.03883028
000050 79 2b f7 bc 4f cc 3f bd fb a1 e2 bc b9 81 b6 3d
       -0.030172097 -0.046825703 -0.027665129 0.089114614
000060 fc 46 1b bd 88 ce 85 ba 2d e2 15 3d 47 d0 40 bd
       -0.037909493 -0.0010208646 0.03659265 -0.04707363
000070 f6 04 77 3c ca 2a 98 3d 70 7b 3f bb 14 50 37 3c
       0.015076866 0.07430036 -0.0029217862 0.011188526
000080 6b e3 9b bc 41 1d 2b bd 9f 18 3b 3d 1f 97 51 3c
       -0.01902934 -0.041775946 0.045677777 0.012792378
000090 6d d4 0c bd 39 ee 9a bb 98 af 02 3d 3f 85 68 bd
       -0.034382273 -0.0047281054 0.03190574 -0.0567677
0000a0 eb dc 8e bd 81 cf f8 3c f3 bc 3b 3c 6b 1c b7 bd
       -0.069757305 0.030372383 0.011458623 -0.08940967
0000b0 f0 9d d8 bc 64 93 10 bd b6 70 33 bd 7d 22 0e bd
       -0.026442498 -0.035296813 -0.04380866 -0.03470086
0000c0 92 35 77 bd 75 6d 04 bd 00 d8 68 3c 33 b9 78 3d
       -0.060353823 -0.03233095 0.014211655 0.060723495
0000d0 42 13 bc 3b b5 3c 4a bd 00 fe a7 3d 43 08 a7 bc
       0.0057396004 -0.0493743 0.082027435 -0.020389682
0000e0 e3 d5 02 bd 66 e0 c5 bc 1c 18 ab bc ea 39 9d bc
       -0.03194226 -0.024154853 -0.02088552 -0.019192655
0000f0 aa 4e 9d bc 13 a5 a9 bc 2f e1 91 ba b3 a6 6a bd
       -0.019202549 -0.020708596 -0.0011129732 -0.057287883
000100 1a 34 2d 3d 82 ad 93 3a 86 bb 28 3d 61 c0 81 3d
       0.042286016 0.0011266919 0.04119446 0.063355215
000110 42 43 eb 3c 01 a9 19 bd ee 71 a5 bd 28 90 b1 3c
       0.028718594 -0.03751469 -0.08078371 0.021675184
000120 74 ab 72 3d a6 87 88 bc 8c 22 7c bd 3e 71 ee bc
       0.05924554 -0.016666245 -0.061556384 -0.029106732
000130 d8 9f a0 3d 20 7c b7 3d 38 e9 53 bd 61 75 03 3d
       0.07842988 0.08959222 -0.051736087 0.032094363
000140 f8 50 a3 bd 8f b1 13 bd 05 f8 46 bd 80 68 c0 bc
       -0.07974428 -0.036058005 -0.048576374 -0.02348733
000150 0f 98 50 3d 8f 81 27 3c 70 df 93 bd 24 ee c8 bb
       0.050926264 0.01022376 -0.07220352 -0.006131904
000160 0e f5 91 bc 6c e2 ae bb c4 49 54 bc 61 61 92 3d
       -0.017817046 -0.00533705 -0.01295704 0.0714748
000170 f4 6d 94 3b d4 dd 90 3b 1e 64 84 3d 41 20 a5 3d
       0.004529709 0.004420975 0.06464408 0.080627926
