checkpoints/long_term_forecast_ETTh1_96_96_DLinear_ETTh1_ftM_sl96_ll48_pl96_dm512_nh8_el2_dl1_df2048_fc3_ebtimeF_dtTrue_Exp_0/checkpoint.pth (torch, 76367 bytes, 4 tensors)

Linear_Seasonal.weight f4 [96, 96]
0.040810034 0.0283766 0.0056880508 -0.010811747 -0.018489359 -0.023317171 -0.01730654 -0.013990973
-0.014881416 -0.009611693 -0.0026238344 0.00068758894 -0.003399845 0.0024876825 0.0049008178 0.0013420024
-0.0033130501 2.6438527e-05 -0.0039086468 -0.00900001 -0.0022568686 0.0051964205 0.0123497825 0.026969494
0.040562257 0.034179386 0.023210136 0.016085358 0.009615229 -0.004863079 -0.0036868115 -0.00079709856
-0.0036941797 -0.00092494476 0.0054537943 0.0039535407 -0.0019872312 0.0026737098 0.004585144 -0.00031776231
-0.008207399 -0.0063041155 -0.008914858 -0.012758241 -0.0027785245 0.0062101767 0.015671428 0.030755628
0.045408774 0.038557682 0.028908713 0.02234 0.015006455 -0.0005661068 -0.0039264695 -0.0032805756
-0.008701536 -0.0035721522 0.0017608029 0.0026433326 -0.0012276535 0.005290242 0.0086556105 0.0052001243
0.00036400487 0.00048054877 -0.0045925598 -0.011257549 -0.0042030425 0.0027459238 0.011020295 0.025003573
0.038758438 0.032575633 0.021955445 0.013349399 0.0038762346 -0.012128042 -0.014427191 -0.014293852
-0.018720564 -0.020135755 -0.020362603 -0.023976572 -0.029379645 -0.02940707 -0.030026024 -0.03309613
-0.037491295 -0.036131024 -0.035984013 -0.035717845 -0.020815197 0.01901472 0.050553884 0.06550799
0.030728867 0.052369248 0.040179037 0.019535137 0.0040371954 -0.010842186 -0.019171659 -0.014865441
-0.012491249 -0.01396896 -0.007154413 0.0014424799 0.002877778 -0.0017502429 0.004727257 0.0062722424
0.0009555158 -0.0034575728 -0.002239698 -0.007928434 -0.014972844 -0.0062483842 0.0014430512 0.011936279
0.03157185 0.044459254 0.036910877 0.025103135 0.017077688 0.008836291 -0.006434687 -0.005177339
-0.003435864 -0.0060875043 -0.0007684002 0.005842904 0.0034334837 -0.0015879167 0.003377299 0.004660679
-0.0026394115 -0.009966942 -0.009858159 -0.014165966 -0.017510943 -0.007018343 0.0027033647 0.0152095305
0.03655213 0.04902349 0.04247995 0.032107044 0.024571951 0.015260474 -0.002540875 -0.0051594772
-0.00676016 -0.011242237 -0.004614134 0.0013524644 0.0009792204 -0.0014472757 0.00536122 0.007922361
0.0029539843 -0.0014845376 -0.0031606925 -0.009583424 -0.016377728 -0.008622014 -0.0012703234 0.010003555
0.029554581 0.042312603 0.03551524 0.024277065 0.01544611 0.0043489872 -0.012136822 -0.013205011
-0.013343452 -0.018246539 -0.01734954 -0.017190736 -0.021252917 -0.025379809 -0.023168845 -0.024226448
-0.029783977 -0.03460945 -0.032794822 -0.030480582 -0.026073802 0.009916628 0.045432977 0.06177164
0.016031457 0.045805555 0.05599628 0.045460097 0.028330078 0.012150864 -0.004174368 -0.016605014
-0.014063409 -0.011788988 -0.0120139085 -0.003972995 0.0029459945 0.004139714 0.00021229887 0.005688097
0.0055931103 0.0007291275 -0.005085778 -0.0057795825 -0.0129284365 -0.017977327 -0.010558673 0.0014448297
0.018161684 0.035800315 0.046100415 0.037968915 0.02537768 0.016295094 0.0068350653 -0.0074608866
-0.007819167 -0.006385198 -0.00573831 -0.00059868355 0.004942648 0.0033169112 -0.0012349372 0.0027781124
0.001712176 -0.004483958 -0.012767234 -0.013716866 -0.017822498 -0.020597938 -0.010893555 0.0034064665
0.023264252 0.04131898 0.051760264 0.044349924 0.033746228 0.024292562 0.01360447 -0.0035412095
-0.008830535 -0.0090961885 -0.012539284 -0.0052775512 -0.0006791928 0.0005786997 -0.0012335024 0.004592632
00000000: 6c28 273d 0b76 e83c d462 ba3b c123 31bc
00000010: ff76 97bc a703 bfbc 72c6 8dbc 653a 65bc
00000020: 2fd1 73bc 5d7a 1dbc a3f4 2bbb 503f 343a
00000030: efcf 5ebb 6308 233b 0a97 a03b 21e6 af3a
00000040: c21f 59bb 4ec8 dd37 1b14 80bb c774 13bc
00000050: f9e7 13bb bc46 aa3b be56 4a3c 21ef dc3c
00000060: 9c24 263d afff 0b3d 2f23 be3c 71c5 833c
00000070: 3289 1d3c 775a 9fbb 6f9e 71bb 61f4 50ba
00000080: 0d1a 72bb fe77 72ba beb5 b23b b48c 813b
00000090: 353c 02bb 6839 2f3b fa3e 963b 5699 a6b9
000000a0: 5478 06bc c192 cebb a00f 12bc f107 51bc
000000b0: e817 36bb bd7e cb3b 5e61 803c 3af3 fb3c
000000c0: 8dfe 393d a9ee 1d3d f7d1 ec3c 6002 b73c
000000d0: a2dd 753c c966 14ba 9da9 80bb edfe 56bb
000000e0: e390 0ebc c51a 6abb beca e63a c33b 2d3b
000000f0: 37e9 a0ba c459 ad3b 43d0 0d3c ce65 aa3b
00000100: e8d7 be39 2af2 fb39 2f7d 96bb 9571 38bc
00000110: adb9 89bb f5f4 333b 788e 343c 4bd4 cc3c
00000120: 2bc1 1e3d 076e 053d e8db b33c 70b7 5a3c
00000130: 6d08 7e3b b2b4 46bc 0660 6cbc c330 6abc
00000140: de5b 99bc bdf3 a4bc 79cf a6bc 846a c4bc
00000150: 95ad f0bc 18e7 f0bc 23f9 f5bc cf8f 07bd
00000160: 7990 19bd 20fe 13bd f963 13bd e04c 12bd
00000170: a284 aabc c2c4 9b3c 9711 4f3d 0e29 863d
00000180: 1bbb fb3c 2381 563d c692 243d 2708 a03c
00000190: 734a 843b 6da3 31bc e20d 9dbc 2e8e 73bc
000001a0: 18a8 4cbc 11de 64bc 916f eabb 9811 bd3a
000001b0: 1a99 3c3b 6868 e5ba 1be7 9a3b 6287 cd3b
000001c0: 947b 7a3a 7298 62bb e6c7 12bb 43e6 01bc
000001d0: a950 75bc 3fbf ccbb c324 bd3a 6290 433c
000001e0: 7c51 013d e81a 363d dc2f 173d 17a5 cd3c
000001f0: 82e6 8b3c 17c6 103c 11da d2bb aba6 a9bb
00000200: 3c2c 61bb b079 c7bb 776e 49ba d575 bf3b
00000210: 4c04 613b a521 d0ba ad55 5d3b 9cb8 983b
00000220: faf9 2cbb 624c 23bc 1e84 21bc 5e18 68bc
00000230: 1c73 8fbc 21fa e5bb ef2a 313b 6531 793c
00000240: b0b7 153d dbcc 483d 75ff 2d3d ad82 033d
00000250: 1e4b c93c 1107 7a3c cf84 26bb d510 a9bb
00000260: 5584 ddbb 5c31 38bc 2932 97bb 2d45 b13a
00000270: 2f59 803a 84b2 bdba 2cad af3b cacc 013c
00000280: a297 413b d194 c2ba 9f23 4fbb cb03 1dbc
00000290: 962a 86bc 5943 0dbc fb80 a6ba f3e5 233c
000002a0: 731c f23c fb4f 2d3d 6e78 113d b2e0 c63c
000002b0: ae11 7d3c f381 8e3b 85d9 46bc d559 58bc
000002c0: 7e9e 5abc c479 95bc 9f20 8ebc 96d3 8cbc
000002d0: 991a aebc 51e9 cfbc 97cc bdbc 8b76 c6bc
000002e0: 87fd f3bc a3c2 0dbd dd53 06bd 6ab2 f9bc
000002f0: ba98 d5bc 5a79 223c ee17 3a3d 4204 7d3d
00000300: 6754 833c 9b9e 3b3d 5b5c 653d 5e34 3a3d
00000310: 7b14 e83c 6b14 473c 23c9 88bb 3d07 88bc
00000320: 366a 66bc 9926 41bc fcd5 44bc e62f 82bb
00000330: 9611 413b 70a6 873b 8b9c 5e39 3763 ba3b
00000340: 6946 b73b eb22 3f3a 99a6 a6bb a762 bdbb
00000350: cbd1 53bc 3045 93bc 49fe 2cbc 7160 bd3a
00000360: d0c7 943c 5aa3 123d cad3 3c3d 4b85 1b3d
00000370: dae4 cf3c 4a7d 853c aff8 df3b 747a f4bb
00000380: f71b 00bc ec3a d1bb 6f08 bcbb f9f0 1cba
00000390: f0f5 a13b 8960 593b 9edd a1ba fe10 363b
000003a0: 186b e03a 2aee 92bb a92d 51bc b5bc 60bc
000003b0: 7d00 92bc 02bd a8bc e27a 32bc 063f 5f3b
000003c0: ac94 be3c 173e 293d 9202 543d 44a8 353d
000003d0: 7c39 0a3d 3201 c73c 48e5 5e3c a313 68bb
000003e0: f3ad 10bc 2e08 15bc 9271 4dbc 4fef acbb
000003f0: db0b 32ba e1b3 173a 79ad a1ba ca7d 963b

Linear_Seasonal.bias f4 [96]
0.07016412 -0.058067843 -0.026417425 0.07232602 0.045115005 0.011647936 -0.08743624 0.052974414
-0.050569523 -0.054585345 0.006723296 0.007403056 -0.056584936 0.010300954 0.04587342 -0.044192545
0.0871885 0.0030334743 0.0026382243 -0.042704497 0.02483612 0.05508499 0.010917423 -0.09546775
0.009186022 0.03162798 -0.04624655 0.039690405 -0.0044247713 -0.08566091 -0.0030417617 -0.012203156
0.0042188726 -0.013625055 -0.05933387 0.028205626 0.029524801 0.0035398293 -0.03655012 0.029196754
0.06880948 0.021928657 0.023561954 0.076212764 0.023822822 0.019657765 -0.019212421 -0.01497152
0.03506096 0.045242846 0.020104907 -0.06589198 0.005614563 0.03854186 -0.09455442 -0.03337273
0.036790118 -0.027424552 0.020227287 0.04246094 0.026874062 -0.0023040848 -0.0235117 0.018595539
-0.03750846 -0.006431648 -0.049276806 -0.08089585 0.020073412 0.011615317 0.06790918 -0.038765665
-0.075633116 0.00032921517 0.05952484 0.015147954 -0.093798876 -0.10494369 0.036736824 -0.035630826
0.06689671 0.0045700865 0.028212037 -0.010261732 -0.076306745 -0.0002592929 0.0449632 0.01983898
-0.0054169963 -0.010440016 -0.038397983 -0.08663748 -0.011042583 -0.026697243 -0.080208324 -0.09456996
00000000: 35b2 8f3d 8cd8 6dbd 5b69 d8bc aa1f 943d
00000010: 83ca 383d fcd6 3e3c c511 b3bd b3fb 583d
00000020: fd21 4fbd e294 5fbd 184f dc3b 5695 f23b
00000030: 9bc5 67bd 55c5 283c c4e5 3b3d 3e03 35bd
00000040: e28f b23d 41cd 463b 0fe6 2c3b e9ea 2ebd
00000050: 1e75 cb3c cca0 613d fede 323c 9984 c3bd
00000060: f880 163c 578c 013d 066d 3dbd 6892 223d
00000070: acfd 90bb fd6e afbd 4b58 47bb bfef 47bc
00000080: 783e 8a3b 9f3b 5fbc 1208 73bd 7c0f e73c
00000090: ffdd f13c 7bfc 673b 94b5 15bd 082e ef3c
000000a0: fceb 8c3d baa3 b33c 0005 c13c 7015 9c3d
000000b0: 1428 c33c 5209 a13c 5e63 9dbc 1b4b 75bc
000000c0: 159c 0f3d 9050 393d 0cb3 a43c 60f2 86bd
000000d0: 5efa b73b 12de 1d3d bfa5 c1bd d8b1 08bd
000000e0: 3cb1 163d 74a9 e0bc b2b3 a53c 86eb 2d3d
000000f0: fe26 dc3c 2100 17bb 9c9b c0bc ac55 983c
00000100: 79a2 19bd 93c0 d2bb 7ad6 49bd b9ac a5bd
00000110: ff70 a43c 2c4e 3e3c f813 8b3d bfc8 1ebd
00000120: 89e5 9abd 839a ac39 52d0 733d 202f 783c
00000130: a019 c0bd b8ec d6bd 5a79 163d a1f1 11bd
00000140: 2401 893d aac0 953b ee1c e73c d320 28bc
00000150: b646 9cbd b4f1 87b9 552b 383d 5b85 a23c
00000160: 0f81 b1bb 9a0c 2bbc 3447 1dbd fe6e b1bd
00000170: f3eb 34bc 2db4 dabc 4344 a4bd e5ad c1bd

Linear_Trend.weight f4 [96, 96]
0.030165145 0.028761994 0.027051833 0.024749838 0.02170285 0.018252952 0.014307711 0.010011994
0.0058637992 0.0019206961 -0.0012396397 -0.003180034 -0.0037250537 -0.004984137 -0.0063456236 -0.007140767
-0.0075853704 -0.007986492 -0.007960961 -0.007878805 -0.007817514 -0.0074314508 -0.006950921 -0.0066728266
-0.0066273743 -0.0062017017 -0.0059108315 -0.0058916924 -0.006014778 -0.0058048894 -0.0057255146 -0.0056720735
-0.0053311563 -0.0047170594 -0.00364612 -0.0015223412 0.001301613 0.0016949095 0.0016456378 0.0018960652
0.0021944004 0.0023022846 0.0027271623 0.0029894714 0.002872083 0.0031191914 0.0034853432 0.0036283936
0.003631226 0.00405323 0.0043497644 0.004564782 0.004601999 0.005036607 0.0051884963 0.0050431564
0.005109817 0.0051785414 0.005390123 0.0058926786 0.006372993 0.0041024485 0.0018033669 0.00019428348
-0.001054225 -0.002119106 -0.00257987 -0.002890828 -0.003180139 -0.002885188 -0.0025020326 -0.0022291888
-0.0020772405 -0.0013746063 -0.00059952994 0.00016322413 0.0011668808 0.0034461487 0.0067645414 0.011206261
0.017312678 0.024704946 0.032702338 0.04116213 0.047434535 0.051921517 0.055749293 0.058944207
0.061387487 0.063151315 0.06434889 0.06508905 0.0655321 0.06581966 0.06600582 0.06610521
0.024486246 0.023323251 0.02207579 0.02054513 0.018429134 0.015765583 0.0129456995 0.009872883
0.0066353637 0.0036476643 0.0010556076 -0.000900735 -0.001400074 -0.00054451084 -0.0020487504 -0.0036391781
-0.004591303 -0.0052706357 -0.0058267885 -0.006161366 -0.0061829137 -0.00623178 -0.0059288503 -0.0055600093
-0.0054920455 -0.0056025567 -0.005350344 -0.0053018443 -0.0055394834 -0.005805223 -0.005746134 -0.005821388
-0.0058883806 -0.005538642 -0.0048984797 -0.0036829375 -0.0011586823 0.001737833 0.0021232313 0.0022342743
0.0024376397 0.0026064143 0.0027706837 0.0032296525 0.0034740146 0.0033957209 0.0037270403 0.004160782
0.004337877 0.004396897 0.004878749 0.0051751877 0.005160642 0.005256777 0.0057174037 0.0058177696
0.005664232 0.0057765353 0.005944541 0.006364407 0.0074337334 0.007947217 0.005687048 0.0032636863
0.0017688766 0.0006064532 -0.00024145927 -0.0004958903 -0.0005828197 -0.0005410383 7.114621e-05 0.00077610346
0.0013041078 0.0017557727 0.0027368544 0.0036763079 0.0044517885 0.005709134 0.007961132 0.011119482
0.015381584 0.021050585 0.027752819 0.035376806 0.04157741 0.046104036 0.04937683 0.05250971
0.055430237 0.05786837 0.05974185 0.06108849 0.061938185 0.062474914 0.062855214 0.06307613
0.018507164 0.017872892 0.016949398 0.015998788 0.0147890635 0.013150013 0.011136275 0.009138525
0.007020939 0.0048261452 0.002862297 0.0013651722 0.00076652964 0.0016155125 0.0021002856 0.0002792794
-0.0015228865 -0.002748868 -0.0035521607 -0.0042043086 -0.0043656593 -0.004446565 -0.0045165364 -0.004280366
-0.004077837 -0.0041207084 -0.0043432717 -0.004304525 -0.004465023 -0.0048306645 -0.0052624485 -0.0054101506
-0.005635621 -0.0057534915 -0.005475086 -0.0047420454 -0.0031321142 -0.00048364577 0.0023945868 0.0028098058
0.0027385948 0.002874515 0.0031400812 0.0033428161 0.0037679616 0.004027057 0.00401494 0.004387534
0.004809472 0.0050140065 0.005105507 0.0055627264 0.0058091 0.005827013 0.005928115 0.0063412846
0.006465226 0.0063851285 0.006590008 0.0069868676 0.0078109945 0.008892153 0.009283542 0.006990671
00000000: e51c f73c 469e eb3c ce9b dd3c 2cc0 ca3c
00000010: 2dca b13c 3787 953c e46a 6a3c 5909 243c
00000020: 1d25 c03b debf fb3a 687b a2ba 1e68 50bb
00000030: 0820 74bb f951 a3bb f3ee cfbb 18fd e9bb
00000040: b38e f8bb c6d9 02bc b16e 02bc 1a16 01bc
00000050: 0815 00bc 8783 f3bb 8dc4 e3bb baa7 dabb
00000060: 722a d9bb a537 cbbb a6af c1bb 190f c1bb
00000070: 9d17 c5bb f136 bebb 199d bbbb cddc b9bb
00000080: fbb0 aebb 9091 9abb bef3 6ebb 4b89 c7ba
00000090: e39a aa3a ba27 de3a 71b2 d73a 6485 f83a
000000a0: eecf 0f3b ede1 163b 31ba 323b 02eb 433b
000000b0: 8f39 3c3b 596b 4c3b 5b6a 643b 58ca 6d3b
000000c0: ddf9 6d3b f5d0 843b 7888 8e3b 2b94 953b
000000d0: 5ecc 963b 1f0a a53b 4304 aa3b 1041 a53b
000000e0: 4070 a73b c1b0 a93b a19f b03b 5f17 c13b
000000f0: 8ad4 d03b d56d 863b f45e ec3a 93b8 4b39
00000100: ec2d 8aba b3e0 0abb 0913 29bb 0c74 3dbb
00000110: e169 50bb 6c15 3dbb 24f9 23bb 9517 12bb
00000120: 5022 08bb 222c b4ba c629 1dba 2527 2b39
00000130: 06f2 983a c8d8 613b 16a9 dd3b 779a 373c
00000140: 51d3 8d3c 0762 ca3c e3f2 053d 9f99 283d
00000150: b74a 423d a8ab 543d 5f59 643d 7b6f 713d
00000160: 7271 7b3d 7a55 813d 5ac9 833d 684d 853d
00000170: b235 863d 75cc 863d 0f2e 873d 2b62 873d
00000180: 6197 c83c 6710 bf3c 4ad8 b43c 434e a83c
00000190: b2f8 963c d326 813c 331a 543c dfc1 213c
000001a0: 776d d93b a70d 6f3b 505c 8a3a 4d1f 6cba
000001b0: b082 b7ba 81bd 0eba 5444 06bb 477f 6ebb
000001c0: a472 96bb 4cb5 acbb a5ee bebb 49e5 c9bb
000001d0: 0a9a cabb f633 ccbb cd46 c2bb bd30 b6bb
000001e0: 9ef6 b3bb a795 b7bb f051 afbb 18bb adbb
000001f0: 8e84 b5bb bd39 bebb 114a bcbb 58c1 bebb
00000200: 51f3 c0bb 7f7d b5bb 6d83 a0bb 705d 71bb
00000210: edde 97ba 00c8 e33a e925 0b3b e76c 123b
00000220: cfc0 1f3b 60d0 2a3b 5c94 353b 94a8 533b
00000230: 4bac 633b be8a 5e3b 5c41 743b 2b57 883b
00000240: c024 8e3b d813 903b eadd 9f3b 9f94 a93b
00000250: 9a1a a93b 0b41 ac3b 0f59 bb3b fda2 be3b
00000260: 069b b93b 1749 bd3b 6dca c23b 848c d03b
00000270: ad96 f33b 0b35 023c 6b5a ba3b 92e3 553b
00000280: a6d9 e73a 63fa 1e3a 3b30 7db9 a2fe 01ba
00000290: 5ec8 18ba 77d4 0dba 5534 9538 6c73 4b3a
000002a0: 99ee aa3a f521 e63a cc5c 333b 36ee 703b
000002b0: 4fe0 913b b013 bb3b 686f 023c 7d2e 363c
000002c0: 0a03 7c3c 4772 ac3c e159 e33c 45e7 103d
000002d0: 134d 2a3d 96d7 3c3d 5c3f 4a3d 6c14 573d
000002e0: d10a 633d 6207 6d3d dfb3 743d ed37 7a3d
000002f0: e5b2 7d3d b2e5 7f3d 3cba 803d 0f2e 813d
00000300: 569c 973c 2c6a 923c 77d9 8a3c e40f 833c
00000310: d44d 723c 2773 573c ec74 363c c1b9 153c
00000320: e80f e63b a424 9e3b 6095 3b3b 94ef b23a
00000330: eff0 483a 9bbf d33a f2a4 093b 3f6c 9239
00000340: 979b c7ba 5a26 34bb 5ecb 68bb 4cc4 89bb
00000350: ce0d 8fbb 7eb4 91bb 74ff 93bb 5042 8cbb
00000360: 609f 85bb 0207 87bb 0152 8ebb f90c 8dbb
00000370: 544f 92bb 8d4a 9ebb 9e70 acbb a247 b1bb
00000380: 04ab b8bb c987 bcbb 5a68 b3bb 2963 9bbb
00000390: 2844 4dbb d691 fdb9 80ee 1c3b b824 383b
000003a0: ff79 333b 5c62 3c3b d2c9 4d3b 2613 5b3b
000003b0: e8ef 763b 67f5 833b c28f 833b 4ec5 8f3b
000003c0: c698 9d3b 894c a43b 194c a73b 8847 b63b
000003d0: 435a be3b 87f0 be3b a240 c23b 8dca cf3b
000003e0: 3fda d33b 573a d13b fef0 d73b 18f2 e43b
000003f0: 5ff3 ff3b 65b0 113c ff19 183c 0012 e53b

Linear_Trend.bias f4 [96]
-0.07362083 0.061438393 0.024115866 -0.074874625 -0.05690842 -0.018874109 0.08487054 -0.05490251
0.05630954 0.05089339 0.007002572 0.0028620963 0.052357826 -0.0010760566 -0.05211151 0.019648867
-0.094493255 -0.012596013 -0.048435975 0.038830485 -0.030171942 -0.04682559 -0.027664922 0.08911487
-0.037909385 -0.0010207479 0.036592796 -0.0470735 0.015076905 0.07430057 -0.0029215391 0.011188616
-0.019029135 -0.04177587 0.04567799 0.012792459 -0.034382146 -0.004727984 0.03190592 -0.05676757
-0.069757186 0.030372472 0.011458742 -0.08940942 -0.026442211 -0.035296667 -0.043808576 -0.034700826
-0.060353685 -0.032330837 0.014211679 0.060723517 0.005739675 -0.04937403 0.08202762 -0.020389639
-0.031942062 -0.024154814 -0.020885322 -0.019192627 -0.019202407 -0.020708458 -0.0011128921 -0.057287782
0.042286236 0.0011268763 0.041194692 0.063355274 0.02871868 -0.03751454 -0.080783606 0.02167535
0.059245683 -0.016666088 -0.0615564 -0.02910663 0.07843001 0.0895924 -0.051735867 0.03209461
-0.079744086 -0.036057856 -0.048576135 -0.0234872 0.05092635 0.010223928 -0.07220338 -0.0061317855
-0.017816903 -0.0053368206 -0.01295701 0.071474984 0.0045298967 0.0044211117 0.064644255 0.08062804
00000000: 85c6 96bd d3a6 7b3d a38e c53c de57 99bd
00000010: ce18 69bd e09d 9abc 9bd0 ad3d 74e1 60bd
00000020: d5a4 663d 9675 503d d575 e53b 0292 3b3b
00000030: 2975 563d 780a 8dba e172 55bd a9f6 a03c
00000040: ae85 c1bd 825f 4ebc cd64 46bd b70c 1f3d
00000050: 262b f7bc 31cc 3fbd 8ca1 e2bc db81 b63d
00000060: df46 1bbd 9eca 85ba 54e2 153d 24d0 40bd
00000070: 1f05 773c e62a 983d 4b77 3fbb 7550 373c
00000080: fde2 9bbc 2d1d 2bbd d818 3b3d 7697 513c
00000090: 4bd4 0cbd 34ed 9abb c8af 023d 1d85 68bd
000000a0: dbdc 8ebd b1cf f83c 73bd 3b3c 491c b7bd
000000b0: 569d d8bc 3d93 10bd 9f70 33bd 7422 0ebd
000000c0: 6d35 77bd 576d 04bd 1ad8 683c 39b9 783d
000000d0: e213 bc3b 6c3c 4abd 19fe a73d 2c08 a7bc
000000e0: aed5 02bd 51e0 c5bc b217 abbc db39 9dbc
000000f0: 5e4e 9dbc c9a4 a9bc 76de 91ba 98a6 6abd
00000100: 5534 2d3d b2b3 933a c4bb 283d 69c0 813d
00000110: 7043 eb3c d9a8 19bd e071 a5bd 8190 b13c
00000120: 9aab 723d 5287 88bc 9022 7cbd 0771 eebc
00000130: ea9f a03d 387c b73d fde8 53bd a375 033d
00000140: de50 a3bd 67b1 13bd c5f7 46bd 3a68 c0bc
00000150: 2698 503d 4382 273c 5edf 93bd 25ed c8bb
00000160: c1f4 91bc 7fe0 aebb a449 54bc 7a61 923d
00000170: 876f 943b f9de 903b 3564 843d 5020 a53d
