checkpoints/long_term_forecast_ETTh1_48_24_DLinear_ETTh1_ftM_sl48_ll48_pl24_dm512_nh8_el2_dl1_df2048_fc3_ebtimeF_dtTrue_Exp_0/checkpoint.pth (torch, 11279 bytes, 4 tensors)

Linear_Seasonal.weight f4 [24, 48]
000000 d2 ef 7f 3d 65 06 5d 3d 2a 6c 06 3d 14 dc 30 3c
       0.06248457 0.053961176 0.032817997 0.010794658
000010 ba 14 3c bc 34 8b a2 bc f9 e2 9a bc ee d0 89 bc
       -0.011479551 -0.019841768 -0.018907057 -0.016823258
000020 b0 11 92 bc e9 ea 51 bc 8c f9 c9 bb de 82 11 bb
       -0.0178307 -0.012812355 -0.0061637815 -0.0022203247
000030 4a ed 4c bb 3c d6 00 3b a2 9f a5 3b c8 78 ce 3a
       -0.0031269365 0.0019658944 0.00505443 0.0015752548
000040 b5 08 32 bb 39 6f 4e bb 70 b0 b0 bb 92 56 72 bb
       -0.0027165834 -0.00314994 -0.0053921267 -0.003697787
000050 e0 ed 6a 3c 4a 8b e3 3c 96 90 1f 3d 6e 03 51 3d
       0.01433894 0.02777638 0.038956247 0.05102866
000060 bb 65 7a 3d 28 36 6b 3d 50 6d 4a 3d 05 df 2a 3d
       0.061132174 0.057424694 0.049420655 0.041716594
000070 1b fb ef 3c 64 bb c9 3b 25 ff 9b bb b4 46 06 bc
       0.029294541 0.006156372 -0.00476064 -0.008195568
000080 e3 e9 4f bc 5a 98 50 bc 0d b6 49 bc 09 4f 80 bc
       -0.01269004 -0.012731636 -0.012311471 -0.015662687
000090 17 ae a5 bc 00 bb b0 bc c2 17 c4 bc 22 bc e5 bc
       -0.020224614 -0.021573544 -0.02393711 -0.02804381
0000a0 2f 1a 0a bd cc 17 0d bd dd 29 10 bd f5 76 0c bd
       -0.033716377 -0.034446523 -0.035196174 -0.034293134
0000b0 15 ab 8d bc d0 ab ee 3c 37 e2 82 3d 9e 1f a1 3d
       -0.017293492 0.029134661 0.06390803 0.078673586
0000c0 49 9b 5c 3d a4 06 93 3d bc 73 82 3d 61 20 43 3d
       0.05385903 0.07179001 0.06369731 0.0476383
0000d0 3c 55 e5 3c d3 c5 75 3a 81 23 80 bc 18 69 81 bc
       0.027994744 0.00093754864 -0.01564193 -0.015797183
0000e0 1e a7 84 bc 3e e4 89 bc b2 58 2d bc 9e 81 3a bb
       -0.016192969 -0.016832467 -0.010580229 -0.0028458606
0000f0 e9 3a 3a ba de 31 27 bb cf 98 63 3b 60 57 9a 3b
       -0.0007104115 -0.00255119 0.0034728532 0.004710123
000100 18 dc e6 b9 f3 7b bc bb 16 62 ef bb 7c 65 3a bc
       -0.00044033 -0.0057520806 -0.007305394 -0.011376735
000110 1b 6e 3e bc 2f b1 bf 3b 58 48 b7 3c c1 d1 17 3d
       -0.011622931 0.0058499794 0.022373363 0.03706527
000120 3b 49 5e 3d fc 69 83 3d 44 05 76 3d 7b 37 54 3d
       0.054269057 0.06416699 0.060063615 0.051810723
000130 1a 6d 32 3d 76 84 f5 3c 8b ec cf 3b 2a 73 95 bb
       0.04356108 0.029970389 0.006345337 -0.0045608478
000140 59 30 11 bc cb 6a 49 bc 27 73 30 bc e1 77 2e bc
       -0.008861625 -0.012293528 -0.010769642 -0.010648699
000150 b5 d4 5c bc 53 85 92 bc f8 22 8f bc 77 83 a0 bc
       -0.013478448 -0.01788584 -0.01747273 -0.019593937
000160 cb 77 d8 bc 74 c6 02 bd 99 17 03 bd 53 a0 01 bd
       -0.02642431 -0.03192754 -0.032004926 -0.031647038
000170 1f e7 e2 bc 5d 7b 3c 3c bb 2a 69 3d e7 55 99 3d
       -0.027698098 0.0115040215 0.056925517 0.07487088
000180 87 34 1f 3d c6 eb 8a 3d dc 39 9b 3d 22 76 8e 3d
       0.038868453 0.067832515 0.07579395 0.06956126
000190 99 0a 65 3d 6d 83 1a 3d c2 58 45 3c e2 d9 1f bc
       0.05591831 0.037722994 0.012045087 -0.009756537
0001a0 a4 c8 6f bc 4f e1 7a bc 66 3e 80 bc ec 3f 07 bc
       -0.014635239 -0.015312507 -0.015654754 -0.008254986
0001b0 21 43 10 bb ef f6 e5 b9 14 61 9f b9 ff 1b 68 3b
       -0.0022012668 -0.00043862264 -0.00030399172 0.0035417078
0001c0 8f 9b 57 3b 29 5d 43 bb 55 7a 12 bc a6 e3 4c bc
       0.0032899117 -0.0029810166 -0.008940299 -0.0125054475
0001d0 0f 0d 85 bc 68 f9 8f bc be 6c c1 3a 82 0b ba 3c
       -0.016241578 -0.01757498 0.0014757139 0.022710565
0001e0 9d 5e 30 3d af d4 6e 3d 27 7b 87 3d de e4 7c 3d
       0.04305898 0.0583083 0.06615286 0.061741702
0001f0 68 9c 59 3d 3b 83 30 3d f4 f1 e8 3c 60 62 af 3b
       0.053127676 0.0430939 0.028435685 0.0053523034
000200 7f dd a8 bb 18 de 11 bc 31 36 31 bc 7d 9f 25 bc
       -0.0051533575 -0.008903049 -0.010816143 -0.010108826
000210 aa 38 11 bc 8e 6c 34 bc b7 f4 5f bc 13 f4 55 bc
       -0.008863607 -0.01101221 -0.013669184 -0.01305868
000220 47 64 90 bc de 2b c9 bc d6 14 f9 bc 38 10 f5 bc
       -0.017625941 -0.02455705 -0.030405443 -0.02991496
000230 11 12 d3 bc ae c6 e7 bb e8 67 42 3d 33 36 93 3d
       -0.02576545 -0.007073245 0.047462374 0.07188072
000240 d2 a1 75 3c 2d b3 69 3d fd ac 92 3d 60 33 9f 3d
       0.014992194 0.05705564 0.07161901 0.07773471
000250 1a 8a 92 3d 65 5f 6c 3d 68 9a 2a 3d 8b 0a 95 3c
       0.07155247 0.057708163 0.04165116 0.018193504
000260 39 9c 11 bc 15 22 77 bc 47 0e 7a bc 6e 36 75 bc
       -0.008887344 -0.015083809 -0.015262193 -0.01496659
000270 c3 ff 08 bc c0 8b 0d bb 75 7a 8e 3a 78 0c ab ba
       -0.00836176 -0.002159819 0.0010870235 -0.0013049981
000280 8e 6f d7 3a 24 5c 13 3a 36 ab c0 bb 20 5f 5f bc
       0.0016436444 0.0005621335 -0.005879785 -0.013633519
000290 c7 b4 84 bc 71 6f a9 bc 20 d2 ac bc ad 7e fc 3a
       -0.016199483 -0.020683022 -0.02109629 0.0019263827
0002a0 8f 63 f2 3c 6e d5 41 3d 68 3d 76 3d e0 ee 88 3d
       0.029588489 0.047322683 0.060117155 0.06686187
0002b0 46 8e 7c 3d 58 4b 55 3d f7 2b 2c 3d 4f 2b e3 3c
       0.06165912 0.052073807 0.042034116 0.027730612
0002c0 f8 14 85 3b 33 24 eb bb c1 ad 07 bc 61 83 34 bc
       0.0040613376 -0.007175946 -0.008281172 -0.011017651
0002d0 99 cd 12 bc ef 02 e0 bb db c5 de bb 51 65 24 bc
       -0.008960151 -0.006836287 -0.0067984886 -0.010033921
0002e0 6b a4 37 bc 03 a3 7b bc c8 e1 b6 bc 6b 81 f4 bc
       -0.011208634 -0.015358689 -0.022324458 -0.029846868
0002f0 dc f2 d6 bc d0 c4 5a bc a3 cb 03 3d ea a7 8c 3d
       -0.026238851 -0.013352588 0.032176625 0.068679646
000300 e3 e5 5c bc 09 48 30 3d 77 83 7c 3d 8c 48 94 3d
       -0.013482544 0.043037448 0.061648812 0.072404
000310 e3 e3 9d 3d 6b 63 8e 3d 49 c2 69 3d 57 3e 2e 3d
       0.077094816 0.06952556 0.05707005 0.04253992
000320 b3 a2 9f 3c 2c 75 f3 bb 76 0c 71 bc 11 e5 71 bc
       0.01948676 -0.0074297395 -0.014712444 -0.014764086
000330 99 35 76 bc a8 6c 09 bc 81 5b 92 ba 8c d4 04 ba
       -0.015027427 -0.008387722 -0.0011166186 -0.00050670723
000340 5b 82 30 bb 3f e2 ec b9 25 08 0a bb 59 ac 1a bc
       -0.0026933167 -0.00045181994 -0.0021061983 -0.009440505
000350 9e 5f 7e bc 0b d9 9c bc 77 fa bb bc ea 9b a0 bc
       -0.015525727 -0.019146463 -0.02294658 -0.019605596
000360 0a ca 37 3c d4 e6 09 3d 60 24 46 3d aa 7c 76 3d
       0.011217603 0.0336674 0.048374534 0.060177483
000370 99 57 87 3d 36 e8 78 3d b9 d6 52 3d b1 27 2b 3d
       0.06608505 0.06076833 0.051474307 0.0417859
000380 2d 22 d9 3c 4d bb 4a 3b 03 08 ae bb 30 05 06 bc
       0.026505554 0.0030934394 -0.0053110137 -0.008179948
000390 6c cf 20 bc 59 7b e1 bb 13 02 27 bb 8f 91 53 bb
       -0.009815078 -0.0068811593 -0.0025483414 -0.0032282805
0003a0 0d e2 03 bc 4c 2d 04 bc 6c 16 3b bc c8 4a a0 bc
       -0.0080495 -0.00806744 -0.01141892 -0.019566908
0003b0 9a 85 d4 bc b6 d7 83 bc b9 4b d2 3c bb 9d 84 3d
       -0.025942612 -0.01609407 0.025670873 0.06475397
0003c0 3c ae b6 bc ba 70 93 3c af a5 4d 3d 07 54 82 3d
       -0.022299878 0.017998088 0.050206836 0.06363683
0003d0 dc ab 93 3d c9 50 9b 3d 2e 00 8d 3d a8 46 6a 3d
       0.07210514 0.07583768 0.068848 0.05719629
0003e0 f9 c0 2b 3d 2a 63 ab 3c 60 c3 b2 bb 33 09 56 bc
       0.04193208 0.020921309 -0.0054554194 -0.013063717
0003f0 8f bf 6e bc 88 88 7f bc 62 3d f9 bb 9a a4 20 bb
       -0.014572038 -0.015596516 -0.0076061944 -0.0024512173

Linear_Seasonal.bias f4 [24]
000000 0f ad 16 bd e2 20 93 bd d9 b3 33 3c 52 3d 98 3d
       -0.036786135 -0.07184006 0.010968172 0.07433571
000010 00 8e 9c 3d ac aa 4d 3d a0 67 3f bd d5 2c f6 bd
       0.07644272 0.050211594 -0.046729684 -0.1202027
000020 e6 cc 9a bd a9 3b 8d bd a6 77 ea bd 9f 9b 74 bd
       -0.075586125 -0.06896145 -0.114486024 -0.059718724
000030 b2 59 a0 bc 27 46 41 3c ce 15 54 bd c3 a1 09 bd
       -0.01957402 0.011796511 -0.051778607 -0.033601534
000040 43 fe 76 3d e1 1a 50 bc 66 fd 93 bc ff 41 b9 3c
       0.060301077 -0.012701721 -0.018065166 0.022614477
000050 9b cf 91 bb d3 6a ca bd bf e0 df bd 5f 94 fb bc
       -0.0044497973 -0.09883656 -0.10931539 -0.030710397

Linear_Trend.weight f4 [24, 48]
000000 d1 2e 46 3d 5d 72 3b 3d a3 49 2d 3d 03 26 1a 3d
       0.04838449 0.045763362 0.042306554 0.037633907
000010 21 21 02 3d e5 e6 ce 3c f2 a1 97 3c 3a e5 43 3c
       0.031769875 0.025256583 0.018509839 0.011956507
000020 a9 33 cf 3b 49 48 e1 3a 8e 82 e7 ba b9 c7 7e bb
       0.006323297 0.001718768 -0.001766281 -0.0038876368
000030 ec 72 9b bb bd 6f c9 bb b0 3c f9 bb 95 01 0d bc
       -0.0047439244 -0.0061473534 -0.0076061115 -0.008606334
000040 4e 40 1a bc 63 99 26 bc 4b ec 2b bc 61 56 2e bc
       -0.0094147455 -0.010168406 -0.010493348 -0.0106407115
000050 3f ae 2f bc 50 29 2b bc f7 37 26 bc 84 38 24 bc
       -0.010722696 -0.010446861 -0.010145179 -0.01002324
000060 7e 01 25 bc 38 0d 21 bc 6f c1 1e bc a1 77 1f bc
       -0.010071157 -0.009829812 -0.009689673 -0.009733112
000070 51 50 1e bc e4 63 0d bc 95 77 d9 bb f0 03 59 bb
       -0.009662704 -0.008629773 -0.0066365697 -0.003311392
000080 56 bd 1e 3b 2c 43 31 3c 06 f4 b2 3c 41 c0 0f 3d
       0.002422174 0.010819238 0.021844875 0.035095457
000090 5d 80 39 3d 05 d5 57 3d d5 61 72 3d cc b7 84 3d
       0.045288432 0.052693386 0.05917533 0.06480369
0000a0 94 da 8d 3d 32 9a 94 3d 5c 3a 99 3d ad 31 9c 3d
       0.06926456 0.07255973 0.07481834 0.076266624
0000b0 35 05 9e 3d 88 26 9f 3d e1 c5 9f 3d cf 06 a0 3d
       0.07715837 0.07771021 0.07801414 0.07813799
0000c0 ce d3 32 3d 34 b1 29 3d 5e e1 1e 3d 39 49 11 3d
       0.043659024 0.04142876 0.038789146 0.03547022
0000d0 b9 fe fe 3c b7 cf d3 3c 79 b4 a5 3c 73 2d 6e 3c
       0.03112732 0.025855882 0.020227658 0.014537203
0000e0 82 29 16 3c c2 a5 9a 3b dc 32 a5 3a 31 6d 87 ba
       0.00916517 0.004719467 0.0012603658 -0.0010332224
0000f0 b3 5f d9 ba a1 55 83 ba 2b a5 27 bb 40 4a 88 bb
       -0.0016584307 -0.0010020026 -0.0025580626 -0.004159242
000100 3a dc ad bb 9f 2f cf bb 81 da e8 bb fd b6 f0 bb
       -0.005305794 -0.0063228155 -0.007106126 -0.0073460327
000110 41 ff f2 bb ad fa ef bb 41 85 de bb 26 b3 cb bb
       -0.0074156825 -0.007323584 -0.0067907874 -0.0062164245
000120 2b 7e c1 bb 84 68 bc bb 65 73 af bb 1f 0f a9 bb
       -0.005904933 -0.005749764 -0.0053543323 -0.0051592733
000130 07 a5 aa bb 9f 46 a6 bb 5a c8 7f bb 3c 76 e0 ba
       -0.005207661 -0.0050743367 -0.003902933 -0.001712508
000140 6e 5b 10 3b ad a1 0e 3c dc 09 92 3c b5 77 f3 3c
       0.0022027153 0.008705539 0.017826967 0.029720167
000150 5a e0 21 3d aa 31 3f 3d 51 87 52 3d b6 c2 65 3d
       0.0395206 0.046678223 0.05139858 0.056093894
000160 0c f8 78 3d a0 e2 84 3d 40 91 8b 3d f8 94 90 3d
       0.06078343 0.06488538 0.068148136 0.070596635
000170 43 ed 93 3d 36 15 96 3d 9f 80 97 3d fd 3d 98 3d
       0.072229885 0.073282644 0.073975794 0.07433698
000180 b0 47 17 3d dc 61 0f 3d 49 e3 05 3d ce d5 f6 3c
       0.0369336 0.035005435 0.03268746 0.030131247
000190 c6 49 de 3c 52 94 c0 3c e3 03 9f 3c c6 61 7a 3c
       0.027134787 0.023508225 0.019411033 0.0152821
0001a0 aa 22 39 3c e7 21 fa 3b 7b 80 9b 3b a0 30 37 3b
       0.011299768 0.007633436 0.0047455407 0.0027952567
0001b0 79 37 0f 3b be 7b 4f 3b 71 40 70 3b f7 62 02 3b
       0.0021853133 0.003165945 0.0036659504 0.0019895413
0001c0 7b c4 5b 39 2b ac 91 ba 30 76 07 bb 19 f0 32 bb
       0.00020958662 -0.0011113932 -0.002066981 -0.0027303754
0001d0 82 4d 3a bb ad 63 2c bb f3 e5 13 bb 66 94 c0 ba
       -0.0028427546 -0.0026304529 -0.002256748 -0.0014692664
0001e0 cb 28 38 ba b3 ae c8 b8 e9 3a 9b 39 83 af 6c 3a
       -0.00070251216 -9.5692834e-05 0.00029607795 0.0009028839
0001f0 87 7a a7 3a 5e d6 c5 3a 40 44 01 3b a8 c6 67 3b
       0.0012777605 0.0015093794 0.0019724518 0.003536621
000200 36 21 cf 3b 6c b7 2f 3c f0 fa 8f 3c 74 9b db 3c
       0.0063210977 0.0107248835 0.017575711 0.026807524
000210 7e 11 0e 3d 86 18 26 3d ac 09 36 3d 50 33 3f 3d
       0.03468465 0.04055073 0.044442818 0.046679795
000220 50 a6 4a 3d 90 e5 58 3d cc fc 67 3d 40 ad 76 3d
       0.049475014 0.052953303 0.05663757 0.060223818
000230 5f bc 81 3d 3f ae 86 3d a6 53 8a 3d 14 e8 8c 3d
       0.06334757 0.065762036 0.06754236 0.06880203
000240 22 e9 fe 3c 1f d6 f2 3c 5d d6 e5 3c d8 29 d6 3c
       0.031117026 0.029643117 0.028056318 0.026143
000250 15 74 c5 3c 22 a1 b2 3c 7e e7 9b 3c 78 24 82 3c
       0.024103204 0.02180535 0.019031283 0.01588653
000260 58 f8 51 3c c0 7d 22 3c 0b 29 ef 3b 7f 1a b6 3b
       0.012815557 0.009917676 0.007298594 0.005557358
000270 93 63 a4 3b 17 13 be 3b 34 e4 de 3b 5a f8 ec 3b
       0.005016753 0.0058006155 0.0068021063 0.0072317543
000280 63 43 b0 3b 9f 22 5f 3b 05 c5 09 3b 22 65 98 3a
       0.005379127 0.0034047735 0.0021021974 0.001162682
000290 a0 08 10 3a 6b b8 24 3a a9 b9 8b 3a f5 8c dc 3a
       0.0005494449 0.0006283584 0.001066019 0.0016826676
0002a0 19 e6 32 3b 40 d6 7c 3b 37 34 9b 3b c3 71 af 3b
       0.0027297793 0.0038579851 0.004736449 0.0053541376
0002b0 ab ba c9 3b 78 0d df 3b 54 59 f0 3b 82 74 05 3c
       0.0061562858 0.0068070255 0.0073348675 0.008145453
0002c0 c0 d1 28 3c 4a 61 61 3c 99 e4 9a 3c ff 99 d9 3c
       0.010303915 0.013756106 0.018907832 0.026562689
0002d0 aa 8d 07 3d 43 1e 1c 3d 0f 2c 2a 3d f0 10 31 3d
       0.033094086 0.038114797 0.041545924 0.043229043
0002e0 49 6a 32 3d f7 b2 36 3d 99 56 3f 3d 2f db 4a 3d
       0.043558393 0.044604268 0.046713445 0.049525436
0002f0 7d c3 57 3d c0 ba 64 3d 3a 07 70 3d 5e 26 79 3d
       0.052676667 0.05584216 0.05860064 0.060827605
000300 f2 80 d8 3c 96 56 cd 3c 7b 4b c3 3c 2e c6 b8 3c
       0.026428673 0.025065701 0.023839703 0.022555437
000310 0e 36 ac 3c 1a d6 9f 3c cf 4d 92 3c 36 be 81 3c
       0.021021869 0.019511271 0.017859368 0.01583777
000320 03 dc 5e 3c a8 9d 3c 3c db 37 1d 3c 55 98 04 3c
       0.01360226 0.011512198 0.0095958365 0.008092959
000330 56 cd f9 3b d9 04 07 3c cb e6 12 3c ba 00 22 3c
       0.007623355 0.008240902 0.008966158 0.009887869
000340 4a 42 28 3c ac 8c 0a 3c 66 e9 da 3b c2 cd b4 3b
       0.010269711 0.00845639 0.0066806553 0.0055176923
000350 a9 45 9a 3b fd de 8d 3b 70 5f 99 3b 66 b0 af 3b
       0.004708011 0.004329561 0.0046805665 0.0053616045
000360 2b c2 ca 3b 2e ad f6 3b ba 87 11 3c c0 50 23 3c
       0.0061876974 0.007527969 0.008882457 0.009967983
000370 88 ad 30 3c 6e c1 42 3c 12 b9 52 3c 65 54 61 3c
       0.010783561 0.011886938 0.012861507 0.013753031
000380 38 39 77 3c 8a 39 91 3c ff 21 b1 3c 73 e0 de 3c
       0.015089326 0.017727632 0.021622656 0.027206635
000390 ae 55 04 3d c6 8f 14 3d 68 12 20 3d 8e 4f 26 3d
       0.032308273 0.036269926 0.039080054 0.040603213
0003a0 49 fa 25 3d 51 56 20 3d 4a df 1d 3d f2 62 20 3d
       0.040521894 0.039144818 0.038543023 0.03915686
0003b0 bf cd 26 3d 5f 3a 30 3d 9f 8f 3b 3d 36 6e 46 3d
       0.04072356 0.043024417 0.045791265 0.04844495
0003c0 13 0d ac 3c f9 71 a3 3c 3d 72 9c 3c 31 3d 97 3c
       0.021002328 0.019951807 0.019097442 0.018461796
0003d0 41 ff 91 3c c4 6f 8b 3c 54 7f 85 3c 9a 1a 7d 3c
       0.01782191 0.017021067 0.016296066 0.015448237
0003e0 6b f3 69 3c cf 66 53 3c 3e a0 3e 3c 4a 0e 2e 3c
       0.014279227 0.012902929 0.011634884 0.010623524
0003f0 fe 2a 26 3c 06 63 2d 3c 86 6c 35 3c fe 6a 3f 3c
       0.010142086 0.010582691 0.011073237 0.011683224

Linear_Trend.bias f4 [24]
000000 1f c6 28 bd ac 94 90 3d 0d a9 94 bd 67 fc 98 bd
       -0.041204568 0.07059607 -0.072588064 -0.07470017
000010 69 7d f1 3c 86 b6 66 bd 19 2a b9 bc 56 d0 ec 3d
       0.029478746 -0.05632641 -0.022603082 0.115631744
000020 52 61 9b 3d 5a 82 36 3d 0e cf ea 3d c9 87 85 bd
       0.07586922 0.044557907 0.11465274 -0.065200396
000030 d6 86 18 3d 55 16 66 bc 24 51 78 3d bb 17 52 3d
       0.037237965 -0.01404341 0.060624257 0.051292162
000040 21 96 a6 bd fa 97 26 3d 1d 1f c1 3c 1a bc 9a bd
       -0.081341036 0.04067228 0.023574406 -0.07555409
000050 e0 14 13 ba 5b 4a a9 3d 95 f7 d7 3d 8f 91 97 bc
       -0.00056107156 0.08266135 0.105452694 -0.018502025
