checkpoints/long_term_forecast_ETTh1_48_120_DLinear_ETTh1_ftM_sl48_ll48_pl120_dm512_nh8_el2_dl1_df2048_fc3_ebtimeF_dtTrue_Exp_0/checkpoint.pth (torch, 48911 bytes, 4 tensors)

Linear_Seasonal.weight f4 [120, 48]
000000 fa 14 7d 3d 37 3b 58 3d 9d 93 05 3d e1 f8 2b 3c
       0.061787583 0.052790847 0.032611478 0.010496349
000010 5c e9 53 bc 9f db b0 bc 0d 49 9e bc 31 4a 88 bc
       -0.012934055 -0.021589098 -0.019321943 -0.01663694
000020 6f d9 8e bc dd 18 4c bc a3 83 ce bb 85 12 4d bb
       -0.017437665 -0.0124571 -0.0063023134 -0.0031291556
000030 76 05 60 bb 0a ab ec 3a 05 27 97 3b fd cf 9d 3a
       -0.0034182942 0.0018056345 0.004612806 0.0012040135
000040 1e 49 59 bb 1f d1 2c bb 25 42 a3 bb 7e 4d e1 bb
       -0.0033155154 -0.0026369763 -0.0049822503 -0.006875693
000050 c6 d6 61 3c de 88 e6 3c f4 7b 1d 3d a2 6b 50 3d
       0.013784116 0.028141435 0.03844829 0.050883897
000060 a2 2e 79 3d 6b 6a 67 3d 22 2a 4a 3d c7 f2 2a 3d
       0.06083549 0.056497972 0.049356587 0.041735437
000070 1c 0d f1 3c a4 97 a8 3b 38 45 8f bb a7 1f 06 bc
       0.029425196 0.00514503 -0.004372265 -0.008186257
000080 6a ec 55 bc 01 d8 52 bc 5a 40 59 bc dc 4a 88 bc
       -0.013056854 -0.012868882 -0.0132599715 -0.016637258
000090 bb 79 a9 bc 1f 3e b0 bc 77 18 c4 bc d0 25 e7 bc
       -0.020687928 -0.021513997 -0.023937447 -0.028216273
0000a0 f2 09 07 bd 2f d1 07 bd 4d d1 09 bd c7 5c 0a bd
       -0.03296847 -0.033158477 -0.03364687 -0.033779886
0000b0 59 b2 9a bc f7 e3 f7 3c ab 0d 82 3d a0 07 9f 3d
       -0.01888387 0.03026007 0.06350263 0.07765126
0000c0 99 01 5d 3d 3e b4 90 3d 9b 60 82 3d 76 ea 43 3d
       0.0539566 0.070656285 0.06366082 0.04783102
0000d0 83 56 e7 3c f3 df b0 b8 73 8f 80 bc 60 a3 82 bc
       0.028239494 -8.434048e-05 -0.015693402 -0.015947044
0000e0 30 06 86 bc f1 21 8b bc 7b 0c 2d bc a6 5c 5e bb
       -0.016360372 -0.016983958 -0.010562058 -0.0033929734
0000f0 85 ac 60 ba f0 7f 11 bb 52 c7 5a 3b e6 aa 92 3b
       -0.0008570629 -0.00222015 0.0033382964 0.004475939
000100 16 1e 25 ba ff d2 b4 bb 4a dc f1 bb 7a ce 4f bc
       -0.00062987336 -0.0055183168 -0.007380997 -0.012683505
000110 58 9d 68 bc da 1c c7 3b 51 b8 b6 3c 36 85 17 3d
       -0.01419767 0.0060764374 0.022304686 0.036992274
000120 54 cc 5e 3d e4 17 82 3d 84 c0 75 3d e8 c7 54 3d
       0.05439408 0.06352213 0.05999805 0.051948458
000130 62 ce 33 3d 91 09 f5 3c 68 55 bf 3b b1 e1 9f bb
       0.043897994 0.029911788 0.0058390386 -0.0048791994
000140 e1 ac 12 bc 8f 92 4e bc df 45 41 bc b7 e7 38 bc
       -0.00895235 -0.0126081845 -0.011796444 -0.011285714
000150 d8 aa 60 bc ab fc 8e bc 9c d3 8d bc 78 da a2 bc
       -0.013712607 -0.017454466 -0.017312817 -0.019879565
000160 59 c1 d4 bc 5d ea fd bc 39 b9 f9 bc 60 fd f9 bc
       -0.025971102 -0.030995542 -0.030483829 -0.030516326
000170 a7 b8 e3 bc 3c 1b 4e 3c 8d 8f 67 3d 1a 17 98 3d
       -0.02779801 0.012579735 0.056533385 0.07426281
000180 4a 42 1c 3d ae 63 89 3d 73 d1 9b 3d a4 59 8e 3d
       0.038149156 0.067084655 0.07608309 0.06950691
000190 c9 35 67 3d 83 4d 1e 3d 0a ed 44 3c b2 bc 2f bc
       0.056447778 0.03864814 0.012019405 -0.010726141
0001a0 39 e1 84 bc ea c9 7d bc b3 d9 7c bc 7c f1 05 bc
       -0.016220676 -0.015490035 -0.015432763 -0.00817525
0001b0 71 ef e7 ba 18 5c ec b8 eb bf 74 ba 63 8a 4a 3b
       -0.001769526 -0.00011270511 -0.00093364593 0.0030905239
0001c0 50 c5 38 3b 92 f4 26 bb 83 73 0d bc c6 d0 54 bc
       0.002819378 -0.0025475365 -0.008633497 -0.012989229
0001d0 73 10 97 bc d6 fe 96 bc ba 04 70 3a cd 90 b3 3c
       -0.01844046 -0.018432062 0.0009155978 0.021919632
0001e0 b1 86 2e 3d c8 26 6d 3d 29 78 87 3d a3 e1 7b 3d
       0.04260892 0.057898313 0.066147156 0.06149448
0001f0 e0 53 59 3d 93 6f 32 3d d0 10 ec 3c a9 23 a6 3b
       0.053058505 0.043563437 0.02881661 0.005070169
000200 f0 2d ee bb 54 fb 1e bc 05 3e 45 bc ad f2 2b bc
       -0.00726866 -0.009703476 -0.012038712 -0.01049487
000210 fe ba 17 bc 1e 2f 32 bc 08 ce 62 bc 09 ad 5f bc
       -0.009260891 -0.010875491 -0.013843067 -0.013652095
000220 09 08 91 bc f5 a8 c4 bc cc 51 ef bc 69 90 e9 bc
       -0.017704027 -0.024006346 -0.029213808 -0.028511243
000230 f6 87 df bc 69 15 18 bc dc 14 44 3d 08 25 92 3d
       -0.02728651 -0.009282448 0.047871456 0.071359694
000240 c6 5f 77 3c 5d 5a 66 3d 84 a9 92 3d bc b0 9e 3d
       0.015098518 0.05623852 0.07161239 0.07748553
000250 2d 60 91 3d d4 49 6e 3d 7a 5c 2b 3d 0e e0 96 3c
       0.07098422 0.058175877 0.04183624 0.018417384
000260 27 0e 18 bc 8a d2 75 bc d5 25 70 bc 50 0c 74 bc
       -0.009280718 -0.01500381 -0.014657457 -0.014895514
000270 3c 62 05 bc 71 da 02 bb d7 b7 66 3a 6b b2 ad ba
       -0.008141097 -0.0019966627 0.0008801198 -0.0013252025
000280 09 9c d8 3a 3b 57 a0 3a 82 df b3 bb 3c e6 5b bc
       0.0016525994 0.0012233028 -0.0054892907 -0.013421591
000290 70 11 8d bc 93 9e b7 bc 3d 62 ac bc 01 40 f6 3a
       -0.017220229 -0.022414481 -0.021042937 0.0018787385
0002a0 34 f8 ed 3c eb 65 40 3d ae 93 78 3d da c3 89 3d
       0.029049017 0.046972197 0.060687713 0.06726809
0002b0 62 74 7f 3d b9 a1 57 3d 05 2b 2c 3d d5 94 e0 3c
       0.06236685 0.052644465 0.042033214 0.027414719
0002c0 4c 9a 1c 3b 71 09 d2 bb 42 f7 0e bc 07 12 33 bc
       0.002389568 -0.006409817 -0.008725943 -0.010929591
0002d0 b2 27 12 bc 82 34 d7 bb 2f 10 e3 bb 56 66 29 bc
       -0.008920597 -0.0065675387 -0.0069294195 -0.01033934
0002e0 54 60 38 bc 32 8d 73 bc c0 ec b1 bc 2f 75 e9 bc
       -0.011253435 -0.014865207 -0.021719337 -0.02849826
0002f0 7f a5 d6 bc 94 fa 62 bc 20 24 03 3d 58 fb 8b 3d
       -0.026201962 -0.013853688 0.032016873 0.068350494
000300 d4 b9 3a bc e2 7c 2e 3d 4d 25 7c 3d f9 a4 93 3d
       -0.011396844 0.042599566 0.06155901 0.072092004
000310 53 df 9d 3d eb 90 8f 3d d5 68 6c 3d c2 e0 2e 3d
       0.07708611 0.07010063 0.057717163 0.042694815
000320 da 21 9f 3c 43 d6 cb bb a7 95 54 bc c7 c6 61 bc
       0.019425321 -0.0062206103 -0.012975133 -0.013780302
000330 f5 24 71 bc 1d 4e 08 bc b6 5d a4 ba 36 23 9b b8
       -0.014718284 -0.008319405 -0.0012540135 -7.3975345e-05
000340 fc 1c 26 bb 31 6e 04 3a c0 22 92 ba 71 75 16 bc
       -0.0025346866 0.000505182 -0.0011149272 -0.009183274
000350 41 33 81 bc a2 38 a6 bc d6 9f c3 bc 46 6e 98 bc
       -0.01577151 -0.020290677 -0.023879927 -0.01860727
000360 53 10 35 3c c6 67 0a 3d 1b 5f 49 3d f7 fc 79 3d
       0.011051255 0.033790372 0.049162965 0.06103226
000370 46 f2 89 3d e1 31 7c 3d f4 fa 52 3d eb 94 29 3d
       0.06735663 0.061571006 0.05150886 0.041401785
000380 f0 a2 cf 3c 52 2b 2b 3b 32 64 b0 bb 93 34 f7 bb
       0.02534625 0.002611835 -0.005383038 -0.007544109
000390 dc 15 1c bc 9c de d8 bb b9 b9 2a bb 7a 99 52 bb
       -0.009526696 -0.006618334 -0.002605064 -0.0032134936
0003a0 df 40 08 bc c0 e2 f6 bb 88 11 32 bc 7d 90 9f bc
       -0.008316248 -0.007534355 -0.010868438 -0.019478077
0003b0 b7 d7 d8 bc 04 67 7e bc 10 11 d7 3c 4e ff 83 3d
       -0.026470048 -0.0155274905 0.026253253 0.0644518
0003c0 41 f4 b0 bc 13 35 92 3c 5c 6c 4c 3d 01 e0 7f 3d
       -0.021600844 0.017847573 0.049908027 0.062469486
0003d0 00 2e 92 3d b3 7b 9a 3d dc e1 8c 3d fe b2 6a 3d
       0.0713768 0.07543125 0.06879017 0.057299607
0003e0 35 76 2c 3d dd bc ad 3c 3a 8d 8d bb b5 92 56 bc
       0.04210492 0.021208221 -0.004319814 -0.013096501
0003f0 e9 0c 68 bc 2b 44 77 bc 87 a2 00 bc 94 4e 06 bb
       -0.014163234 -0.015091936 -0.00785125 -0.0020493614

Linear_Seasonal.bias f4 [120]
000000 e5 ff 71 bd 1a f6 95 bd a3 3c df 3b 2d ae 9a bd
       -0.05908193 -0.07322331 0.0068126484 -0.07552753
000010 bc b4 74 bd 03 ec a6 bd 54 95 73 bb ae 7a ad bd
       -0.059742674 -0.081504844 -0.0037167864 -0.08470665
000020 3b 7a 2a bd 47 83 03 be d0 77 29 bd 13 71 a6 bb
       -0.041620474 -0.12843047 -0.041374028 -0.0050793975
000030 59 e4 0d be 88 2f db bc 9a 20 78 bb b6 01 4f 3d
       -0.13856639 -0.026756063 -0.003786123 0.05053874
000040 e7 53 f8 3a ed 3f f0 bd a2 58 dd 3d 80 46 13 3d
       0.0018945903 -0.11730943 0.10807921 0.035955906
000050 aa 00 88 3d a0 20 82 bd 76 5c 6b 3d 1f ec 6a bd
       0.06640752 -0.06353879 0.057461224 -0.05735409
000060 c9 f1 51 bd a0 b6 2d 3d 5b b2 48 3d 3f 98 71 bd
       -0.051255975 0.042410493 0.048998218 -0.058983084
000070 01 3f da 3c 85 81 25 3c 4a 09 a0 bd fe 17 5f 3d
       0.02664137 0.010101681 -0.07814272 0.05446624
000080 2f 39 8a bd 8c e5 1a bd 03 7e 7f bc 4b 73 bb bd
       -0.06749188 -0.03781657 -0.015594008 -0.0915285
000090 87 e1 ba 3b e0 20 9d bd fa ca 74 3d 96 05 71 3b
       0.0057031545 -0.07672286 0.059763886 0.003677701
0000a0 bd e0 1d bd 6d 58 b0 bd 14 98 e5 bb b7 91 b5 3d
       -0.038544405 -0.08610616 -0.0070066545 0.088656835
0000b0 f6 5b af bd 4c e6 16 3d a9 40 b1 bd 26 a3 e0 3d
       -0.08562462 0.036840722 -0.08654911 0.10968618
0000c0 cf bc 91 bc c9 0c dc 3c 56 41 3d 3c a0 37 19 bd
       -0.017790226 0.026861565 0.011551222 -0.037406564
0000d0 3d 4c 78 3d b4 fb a9 3d 08 84 af bd dd 82 4e bd
       0.06061958 0.08299962 -0.08570105 -0.05041777
0000e0 7b ff 20 bd 7d c8 8e 3d 2f 0d 3f 3d df e7 d7 bd
       -0.039306145 0.06971834 0.046643432 -0.10542273
0000f0 53 c9 cd bc 98 f2 93 3d 7a aa 12 3d 79 26 5a bd
       -0.025120413 0.072240055 0.03580711 -0.053259347
000100 ab e8 dc bc 8c 43 04 3d 95 38 af bc c7 b3 84 bd
       -0.026966413 0.03229098 -0.021389285 -0.06479602
000110 97 d7 02 be f7 6c 91 bd 05 e1 31 3d 73 cf f2 bc
       -0.12777553 -0.071008615 0.043427486 -0.029639935
000120 35 7e a5 3c 2a 62 0a 3d 3c 5b bd 3d 30 59 72 bd
       0.020201782 0.033785023 0.09245917 -0.059167087
000130 18 93 c5 bc 56 bc 85 bd 48 5a 01 bd 7d 73 10 be
       -0.024117991 -0.06530063 -0.03158024 -0.14106555
000140 cf 41 c3 bd e8 7f 15 bd 94 81 6a bd aa 4f 8e bd
       -0.09534036 -0.036498934 -0.05725248 -0.069487885
000150 e3 96 62 ba 4d e4 95 bd c2 90 c4 3c 7b 05 65 bd
       -0.00086436997 -0.073189355 0.023994807 -0.05591343
000160 27 fd 92 bd 8a 39 b3 bd fa 3b 58 bd 92 a9 2f bd
       -0.07177191 -0.08751209 -0.052791573 -0.042886324
000170 49 fd dd 3c 50 2d 3a 3d c1 3c 57 3d a4 94 72 3d
       0.027098315 0.04545337 0.052548174 0.059223786
000180 bd 50 36 3d 32 05 af bb 57 69 98 bc 8e 3e c1 bc
       0.04451059 -0.0053411955 -0.018604917 -0.023589399
000190 dc dd 8d bd 25 77 de bb 20 12 c6 3c 95 f6 b1 bd
       -0.06927082 -0.0067891055 0.024178565 -0.0868961
0001a0 27 ff ba bc a6 2b bc 3d 06 bf 0c 3b 70 c6 36 bd
       -0.022826744 0.09188013 0.0021476164 -0.04462284
0001b0 da e2 e1 3c c4 48 8e bd d9 7b 93 3d 9e c3 9b bd
       0.027573992 -0.06947473 0.072013564 -0.076056704
0001c0 2c 1a 80 bd b8 05 fc bc a2 02 85 bd 3e 5c b0 bd
       -0.06254992 -0.030764446 -0.06494643 -0.08611344
0001d0 c6 64 b5 bd 56 a3 a7 3d 43 f4 5b 3c 45 a6 c5 3b
       -0.08857112 0.08185451 0.013424936 0.0060317838

Linear_Trend.weight f4 [120, 48]
000000 39 ce 45 3d 94 15 3d 3d d9 bf 30 3d f2 69 20 3d
       0.048292372 0.046163157 0.04315171 0.039163537
000010 23 f8 09 3d 43 19 dd 3c 2d 52 9f 3c e8 1c 42 3c
       0.033683907 0.026989585 0.019448364 0.011847712
000020 2a 6e b1 3b 85 ef b5 39 dd dc 5a bb 4f e3 b0 bb
       0.005414744 0.00034701466 -0.0033395805 -0.005398191
000030 1b 43 c6 bb 47 d3 ec bb 09 4b 0c bc 4e 50 1c bc
       -0.00605048 -0.0072273347 -0.008562812 -0.0095406305
000040 65 a4 29 bc 34 ff 34 bc 3d a5 38 bc 22 a3 39 bc
       -0.010354136 -0.011047173 -0.011269865 -0.011330398
000050 86 66 3a bc 9a 78 34 bc 99 34 2e bc df e1 2a bc
       -0.011376983 -0.011015082 -0.010632657 -0.010429828
000060 a9 78 2a bc dc d6 25 bc 96 7e 23 bc c1 ef 23 bc
       -0.010404744 -0.010122027 -0.009978911 -0.010005892
000070 5d 9d 22 bc 14 9b 11 bc 34 c5 dd bb e3 ca 4a bb
       -0.009925214 -0.008887071 -0.006767893 -0.0030943684
000080 c7 ae 48 3b 54 be 40 3c 70 c0 be 3c 3a f4 16 3d
       0.0030621754 0.011764128 0.02328512 0.036854006
000090 6a 9d 40 3d 15 37 5e 3d 7d 12 78 3d b3 e3 86 3d
       0.04702512 0.05425175 0.060564507 0.06586399
0000a0 05 1e 8f 3d 1a 07 95 3d 41 60 99 3d 5e ba 9b 3d
       0.06988148 0.07276745 0.07489062 0.07603906
0000b0 dc 14 9d 3d 4c e8 9d 3d 40 54 9e 3d 81 81 9e 3d
       0.07669994 0.07710323 0.07730913 0.07739545
0000c0 db cb 2e 3d f1 dc 26 3d 3c 98 1d 3d 63 be 11 3d
       0.04267488 0.04073805 0.03847526 0.035581958
0000d0 cc 82 01 3d e4 ae d9 3c 7d ef aa 3c 79 f4 72 3c
       0.03161888 0.026572652 0.02086615 0.014828795
0000e0 7c 00 14 3c 3b d7 8a 3b b4 db 1a 3a 27 04 e4 ba
       0.009033319 0.0042370833 0.0005907372 -0.0017396257
0000f0 ba 99 15 bb 9c 81 ba ba bd 42 41 bb ce 2a 97 bb
       -0.0022827224 -0.00142293 -0.0029489242 -0.004613257
000100 a1 db bb bb 03 05 da bb e3 37 f1 bb 81 63 f6 bb
       -0.005732969 -0.0066534295 -0.0073613985 -0.007519186
000110 e4 61 f4 bb b4 6b ed bb d0 8d d8 bb 0a c2 c1 bb
       -0.0074579585 -0.007245505 -0.0066087022 -0.005913024
000120 20 0e b3 bb d3 92 aa bb 85 b2 98 bb 64 5a 8c bb
       -0.0054643303 -0.005205491 -0.004659953 -0.0042832363
000130 2e 83 88 bb dd de 80 bb 2e 8c 26 bb e7 d1 90 b8
       -0.0041660285 -0.0039328174 -0.0025413143 -6.9055524e-05
000140 81 0e 83 3b 2a 9c 2c 3c ba d1 9f 3c d7 77 fc 3c
       0.0039995317 0.010535279 0.019509185 0.030818863
000150 50 a4 23 3d 9b ea 3d 3d ef 40 50 3d f6 5c 62 3d
       0.039951622 0.046366315 0.050843176 0.055264436
000160 e2 4b 74 3d 2a 24 82 3d 44 bb 88 3d 00 aa 8d 3d
       0.05964268 0.06354554 0.06676343 0.069171906
000170 47 06 91 3d 97 bb 93 3d c4 4e 95 3d a3 40 96 3d
       0.070812754 0.07213514 0.07290414 0.07336547
000180 53 99 14 3d 33 87 0e 3d 82 cb 06 3d 75 bf fb 3c
       0.036279034 0.034796905 0.032908924 0.030730942
000190 34 57 e5 3c 3f 07 c8 3c 4b 95 a4 3c ad 19 7e 3c
       0.027995683 0.024417518 0.02009072 0.015509051
0001a0 b4 9b 34 3c d7 e1 e2 3b c5 c7 76 3b a1 08 e2 3a
       0.011023451 0.006923895 0.0037655693 0.0017245003
0001b0 53 ed 9b 3a f5 7e 21 3b f4 97 4a 3b 1a e7 a0 3a
       0.001189629 0.0024642323 0.0030913325 0.0012275905
0001c0 35 e7 2c ba a1 cb 04 bb 65 b2 47 bb a1 4a 75 bb
       -0.0006595732 -0.0020262974 -0.0030471322 -0.0037428515
0001d0 4b 67 7c bb da a2 6d bb 12 72 54 bb bd 0b 18 bb
       -0.0038513716 -0.0036260397 -0.0032416624 -0.0023200356
0001e0 6c dc bc ba 08 40 48 ba 2e 39 a3 b9 61 60 c5 39
       -0.0014408953 -0.0007638936 -0.00031132385 0.00037646576
0001f0 ad 31 4a 3a b5 82 7e 3a dd ac c0 3a a9 46 55 3b
       0.0007713091 0.0009708808 0.0014699955 0.0032543337
000200 3a af d2 3b bc 3c 3a 3c bd e3 9a 3c 5f 47 eb 3c
       0.00642958 0.011367019 0.018907422 0.028720556
000210 04 95 16 3d 1c 87 2e 3d ca 80 3d 3d b6 17 46 3d
       0.036763206 0.04260932 0.0462654 0.048362456
000220 9b 94 50 3d 57 b5 5d 3d 63 8a 6b 3d b1 6b 78 3d
       0.05092297 0.054128017 0.057505023 0.060649578
000230 60 d1 81 3d 15 2c 86 3d 06 66 89 3d 77 2a 8c 3d
       0.06338763 0.06551377 0.067089126 0.06844037
000240 63 99 01 3d 1a 20 f8 3c 1f de eb 3c 3e 72 dc 3c
       0.03164042 0.030288745 0.028792439 0.026909944
000250 4c 5f cb 3c 6a 4a b7 3c 83 28 9e 3c f4 28 81 3c
       0.024825715 0.02237435 0.019306427 0.015766598
000260 b0 f1 49 3c 1f b0 15 3c d7 bb cf 3b 59 22 94 3b
       0.012325689 0.009136229 0.006339531 0.004520696
000270 51 6a 84 3b f0 9f a3 3b 47 42 ca 3b e1 2c db 3b
       0.004040994 0.0049934313 0.0061724517 0.0066886996
000280 c3 df 9b 3b 9d 19 33 3b ed 96 b1 3a 55 b2 db 39
       0.004756899 0.00273285 0.0013549008 0.00041903803
000290 a8 33 40 b9 0c 2c 04 b8 b6 91 e7 39 6d bc 92 3a
       -0.0001832979 -3.1512274e-05 0.00044168317 0.0011195071
0002a0 65 a9 12 3b 2b 7f 60 3b 1f 51 8f 3b 22 78 a4 3b
       0.00223788 0.0034255486 0.004373684 0.0050192038
0002b0 10 95 bf 3b 19 44 d5 3b bc e6 e6 3b 23 ce 01 3c
       0.005846627 0.006508362 0.0070465486 0.007922682
0002c0 63 9f 27 3c 8b cb 63 3c f5 b7 9e 3c 81 bd e0 3c
       0.010230872 0.013903509 0.019374827 0.027434113
0002d0 ab fe 0b 3d ec a5 20 3d 10 56 2e 3d 08 8e 34 3d
       0.034178417 0.039220735 0.042562544 0.044080764
0002e0 08 66 35 3d f2 6a 39 3d 52 e4 41 3d 0e fc 4c 3d
       0.044286758 0.045268007 0.047336884 0.050045066
0002f0 79 96 59 3d 25 49 66 3d 11 24 71 3d e1 d2 79 3d
       0.053122018 0.0562221 0.058872286 0.060992125
000300 14 c8 df 3c 92 54 d4 3c 60 e7 c9 3c a5 d5 be 3c
       0.027317084 0.025919233 0.024646461 0.023295233
000310 dd 3a b1 3c ac a5 a3 3c 92 87 94 3c e1 f6 81 3c
       0.021634514 0.01997646 0.018131051 0.015864791
000320 64 22 5b 3c 10 58 35 3c c6 28 13 3c 06 49 f0 3b
       0.013374899 0.011068359 0.008981889 0.007332924
000330 58 d4 df 3b a4 b1 f6 3b 8e 9a 08 3c 6e 48 19 3c
       0.0068307333 0.0075285006 0.00833763 0.0093556475
000340 8e 73 20 3c 59 39 fe 3b c7 eb bb 3b d2 c5 90 3b
       0.009793175 0.007758301 0.005734894 0.0044181133
000350 b1 71 67 3b 82 b9 4e 3b a4 35 67 3b c2 38 8c 3b
       0.0035315568 0.0031543677 0.0035279775 0.004279227
000360 0a 7d a9 3b d2 6f d9 3b 21 38 05 3c 88 c1 18 3c
       0.0051723765 0.0066356445 0.008131058 0.009323485
000370 b4 b5 26 3c d1 ab 39 3c a1 7d 4a 3c b1 03 5a 3c
       0.010175157 0.011332468 0.012359054 0.013306544
000380 1e 6b 71 3c 7a 7d 90 3c fb fe b3 3c 55 15 e7 3c
       0.014735011 0.017637957 0.02197217 0.028208414
000390 c7 84 0a 3d 7e cc 1b 3d 77 49 27 3d e0 b3 2c 3d
       0.033818033 0.038036816 0.040841546 0.04216373
0003a0 68 04 2b 3d 07 e9 23 3d 96 7f 20 3d 2f 6d 22 3d
       0.04175225 0.040017154 0.039184175 0.039654907
0003b0 7c a5 28 3d 62 3e 32 3d b5 b9 3d 3d c1 a9 48 3d
       0.041173443 0.043516524 0.046319682 0.048990015
0003c0 9f 92 b2 3c 48 e3 a8 3c 13 c1 a0 3c 45 82 9a 3c
       0.02179843 0.020616189 0.019623315 0.018860945
0003d0 a4 32 94 3c dd 3b 8c 3c ff e5 84 3c ef e5 78 3c
       0.018090554 0.017118389 0.016222952 0.015191539
0003e0 95 98 62 3c 18 f5 48 3c 05 22 32 3c ca 20 20 3c
       0.013830324 0.012265466 0.010872369 0.0097734425
0003f0 07 72 18 3c 11 80 21 3c 8f b3 2b 3c a0 9d 37 3c
       0.00930453 0.009857194 0.010479822 0.011207014

Linear_Trend.bias f4 [120]
000000 e1 72 7b 3d 1b 6f 92 3d 3e 35 88 ba c1 23 93 3d
       0.061388854 0.07150098 -0.0010391844 0.07184554
000010 bc 7b 13 3d 22 88 a6 3d 3c 04 a8 3d 54 4e 9e 3d
       0.036006674 0.08131434 0.08203933 0.07729784
000020 89 09 b1 3d b3 c6 00 3e f9 4c 65 3d 0d f2 1b 3a
       0.08644397 0.12575798 0.05598161 0.0005948849
000030 ed 13 0c 3e e1 2b 0a 3c 05 aa 72 bd d2 c8 34 bc
       0.13679476 0.008433313 -0.059244175 -0.011034207
000040 ff 4f db 3c 38 3c e7 3d ba cd d7 bd 1e 9f 97 bd
       0.026771544 0.11290783 -0.10537286 -0.07403396
000050 2d dd 95 bc 75 78 15 3d 32 c4 43 bd d4 9a 53 3d
       -0.018293941 0.03649183 -0.04779453 0.051661327
000060 cf 07 71 3d 5d fa 73 3d 28 e9 26 bd e0 1c 6a bd
       0.058845337 0.059564937 -0.0407497 -0.057156444
000070 ba d6 4c 3d 8a 19 8d bc 5e d4 a2 bc c8 3f b2 bd
       0.050009467 -0.017224092 -0.019876655 -0.087035716
000080 e1 00 80 3d 60 02 f1 3b 5c 71 57 bc cf d7 bd 3d
       0.06250168 0.0073550195 -0.013149586 0.09269678
000090 f9 02 77 3b 75 51 6b bd 1b 04 83 bd 2e ca 79 bc
       0.003769098 -0.05745073 -0.063972674 -0.015245957
0000a0 d9 33 b9 3c 1e dd d9 3c 7b 5f 7c bd 59 ba ac bd
       0.02260773 0.026594695 -0.061614495 -0.084339805
0000b0 4b 14 98 3d 52 ac ad bd 56 e9 90 3d c0 33 d5 bd
       0.074257456 -0.08480133 0.07075755 -0.10410261
0000c0 56 48 70 bc 3d b6 5c bd 12 28 a6 bd 82 70 aa 39
       -0.014665684 -0.053884733 -0.081131116 0.00032508752
0000d0 ad 59 94 bd 33 c4 b3 bd 11 97 b3 3d 57 f6 2e 3d
       -0.07243667 -0.087776564 0.08769048 0.042715397
0000e0 9f 89 e0 3c fb a9 a3 bd 61 7a 8a bd 88 11 b2 3d
       0.027409373 -0.079914056 -0.06761623 0.0869475
0000f0 f6 4e 61 3d 57 2d 4d bd dd 3b 04 bd d5 47 85 3d
       0.055006944 -0.050092068 -0.032283653 0.065078415
000100 b1 37 91 3c 05 30 36 bd 65 65 8b 3c 1e ec a3 39
       0.017726751 -0.04447939 0.017016122 0.00031265704
000110 a2 65 e6 3d 2b fe 0c bd 5b 56 6e bd 29 b2 ba bb
       0.11249854 -0.03442208 -0.058187824 -0.005697508
000120 57 89 25 3d 65 ca 25 bd a5 4a b3 bd 73 96 b9 bc
       0.04041418 -0.04047622 -0.08754472 -0.022654748
000130 fc c2 08 3d 95 13 43 3d 62 e5 a7 3c fd 1e 05 3e
       0.033389077 0.047626097 0.02049512 0.13000102
000140 9d bb bf 3d bb 57 e2 3c 11 20 f3 bc f2 65 a5 3d
       0.09361956 0.027629724 -0.029678376 0.08076085
000150 1b 8e ea 3b 26 7e 76 3b 36 7e 8a 3d 43 ee a5 3c
       0.0071580536 0.0037611811 0.06762354 0.020255214
000160 c0 2c 35 3d 67 ae 7b 3d 7d 94 b6 bc 7c a1 f3 3c
       0.04423213 0.06144562 -0.022287602 0.029740088
000170 91 47 27 bd 57 a9 70 bc 47 97 93 3c e3 9b 70 bd
       -0.040839735 -0.014688811 0.01801647 -0.058742415
000180 6e 97 5a 3d f8 93 73 3b a6 d7 bd 3c de d1 d0 3b
       0.05336707 0.0037167054 0.023174118 0.0063726744
000190 e8 2d ab 3d 9e 54 95 bc c2 ec 22 bd bb f2 d9 3c
       0.08358365 -0.018228825 -0.03977657 0.026605
0001a0 01 ac fe 3b 43 5b ad bd 3e 63 a5 3d d7 74 1e 3d
       0.0077719693 -0.084646724 0.080755696 0.038685646
0001b0 14 f2 71 bd c6 d3 96 3c de 7f 03 3d fb 80 58 3d
       -0.059068754 0.018411528 0.032104366 0.05285738
0001c0 1c 4b 20 3d 2c 79 ab bb f3 f5 0a bb 5f 2a b5 3d
       0.03913413 -0.0052329507 -0.0021203726 0.08845972
0001d0 c6 f0 90 3d 0d 65 ba bd e9 d0 ec bc 71 0b db 3b
       0.07077174 -0.09101305 -0.02890821 0.0066847135
