checkpoints/long_term_forecast_ETTh1_96_192_DLinear_ETTh1_ftM_sl96_ll48_pl192_dm512_nh8_el2_dl1_df2048_fc3_ebtimeF_dtTrue_Exp_0/checkpoint.pth (torch, 150863 bytes, 4 tensors)

Linear_Seasonal.weight f4 [192, 96]
0	0x3d28ac07	0.041179683
1	0x3ceb8573	0.028750157
2	0x3bcb1e8b	0.0061987094
3	0xbc1c4437	-0.009537748
4	0xbc8bdcf9	-0.017073141
5	0xbcb4ec29	-0.022085266
6	0xbc91a641	-0.017779471
7	0xbc6ca2ec	-0.0144431405
8	0xbc76b5c0	-0.015057981
9	0xbc1b8d64	-0.009494159
10	0xbb193920	-0.0023379996
11	0x3a5d4663	0.00084409694
12	0xbb529b35	-0.0032135968
13	0x3b1a614c	0.0023556529
14	0x3ba2b96c	0.0049659517
15	0x3ab63a40	0.0013902858
16	0xbb5ec56b	-0.0033992182
17	0xbaa93989	-0.0012910824
18	0xbb8eacaa	-0.0043540793
19	0xbc0510e2	-0.008121701
20	0xbb0ffc75	-0.0021970544
21	0x3bb6d86a	0.005579998
22	0x3c557f08	0.013030775
23	0x3cdbfc3f	0.026853679
24	0x3d25e3ec	0.040500566
25	0x3d09b59b	0.033620458
26	0x3cbe68fc	0.02324342
27	0x3c82c196	0.01596145
28	0x3c143d26	0.009047782
29	0xbb911042	-0.004426987
30	0xbb8e0e4f	-0.004335202
31	0xbab47ffd	-0.0013771054
32	0xbb8296de	-0.00398527
33	0xba5a97d5	-0.0008338665
34	0x3b9a5a25	0.004710453
35	0x3b728828	0.0037007425
36	0xbb146a21	-0.0022646266
37	0x3b134bf9	0.0022475703
38	0x3b8ef277	0.0043624
39	0xba21a1f4	-0.00061657955
40	0xbc04fe7f	-0.008117317
41	0xbbe18025	-0.006881731
42	0xbc1e9a80	-0.00968039
43	0xbc4404ee	-0.011964066
44	0xbb087a47	-0.0020824836
45	0x3bf94feb	0.007608404
46	0x3c88cc8f	0.016699104
47	0x3d02828b	0.031862777
48	0x3d3ad6b7	0.045614924
49	0x3d20cffe	0.039260857
50	0x3cf606f0	0.030032605
51	0x3cba8ce1	0.022772254
52	0x3c69eb3c	0.014277276
53	0xbace4f81	-0.0015740247
54	0xbb91fd29	-0.004455228
55	0xbb8b9043	-0.0042591407
56	0xbc1ab947	-0.009443588
57	0xbb752978	-0.003740875
58	0x3a88f724	0.001044963
59	0x3b091a4c	0.0020920215
60	0xbaf01688	-0.0018317262
61	0x3b905610	0.0044047907
62	0x3bf8c924	0.007592337
63	0x3b90a9d9	0.0044147787
64	0xb908b776	-0.00013038315
65	0xb9f1df3d	-0.00046133428
66	0xbbb7b672	-0.005606466
67	0xbc4452ad	-0.011982602
68	0xbba78f69	-0.0051135314
69	0x3b433eb4	0.0029792013
70	0x3c47492e	0.0121634435
71	0x3cd2d6b8	0.025737152
72	0x3d1de7a7	0.038551
73	0x3d043c41	0.032284025
74	0x3cb8512c	0.022499643
75	0x3c67a5ad	0.014138621
76	0x3b830e5a	0.0039995136
77	0xbc456fa3	-0.012050542
78	0xbc6fc9f2	-0.01463555
79	0xbc5e6349	-0.013573476
80	0xbc95095d	-0.018192941
81	0xbc9926a0	-0.018695176
82	0xbc9ed520	-0.019388735
83	0xbcba64f4	-0.022753216
84	0xbce6b41c	-0.028162055
85	0xbce5b2ff	-0.028039454
86	0xbcf2fbfb	-0.02966117
87	0xbd04647e	-0.0323224
88	0xbd1677b2	-0.036735244
89	0xbd128d6d	-0.035779405
90	0xbd115567	-0.035481837
91	0xbd1498c8	-0.036278516
92	0xbca33c65	-0.01992626
93	0x3ca3643f	0.019945262
94	0x3d4db26e	0.050218992
95	0x3d836159	0.06415052
96	0x3d0128a0	0.031532884
97	0x3d550f46	0.05201652
98	0x3d23e8df	0.040017005
99	0x3ca53839	0.02016841
100	0x3b687e1c	0.0035475558
101	0xbc16df93	-0.009208578
102	0xbc97a6a8	-0.018512085
103	0xbc75fc21	-0.0150137255
104	0xbc50f930	-0.012754723
105	0xbc5e5bde	-0.0135717075
106	0xbbda9231	-0.0066702594
107	0x3ab775ea	0.0013996933
108	0x3b172a23	0.0023065887
109	0xbaeba337	-0.0017977719
110	0x3b9f118e	0.0048543876
111	0x3bcd671b	0.0062683946
112	0x3a338e2a	0.0006849492
113	0xbb987e5d	-0.0046537356
114	0xbb0cbda9	-0.002147535
115	0xbbea1440	-0.0071435273
116	0xbc482999	-0.012216949
117	0xbbded696	-0.006800483
118	0x3ade66c1	0.0016967879
119	0x3c488062	0.01223764
120	0x3d020d98	0.031751245
121	0x3d326e3e	0.043562166
122	0x3d15cf9b	0.03657494
123	0x3cccf75b	0.025020292
124	0x3c8b2143	0.016983634
125	0x3c034642	0.008012356
126	0xbbcd0e1d	-0.006257786
127	0xbbc0bf3a	-0.005882171
128	0xbb7a3c5b	-0.0038182947
129	0xbbaffc6e	-0.005370668
130	0xba8e4150	-0.0010853205
131	0x3bb76938	0.00559726
132	0x3b33bb66	0.002742493
133	0xbb0b00e0	-0.0021210238
134	0x3b6083ac	0.003425817
135	0x3b94c3b0	0.0045399293
136	0xbb33b363	-0.0027420155
137	0xbc2d340e	-0.010571493
138	0xbc2eaf99	-0.010661983
139	0xbc693021	-0.014232666
140	0xbc858161	-0.016297044
141	0xbbd533e2	-0.006506429
142	0x3b6d3920	0.003619738
143	0x3c8625f1	0.016375514
144	0x3d177b18	0.036982626
145	0x3d49f282	0.04930354
146	0x3d30f9de	0.043207042
147	0x3d06da72	0.03292317
148	0x3ccbd355	0.024881044
149	0x3c69aaa8	0.014261879
150	0xbb4161aa	-0.0029507675
151	0xbbc86927	-0.0061160508
152	0xbbf67d2e	-0.007522247
153	0xbc35bab1	-0.011091874
154	0xbbac3a51	-0.0052559753
155	0x3a584166	0.0008249491
156	0x3925dcac	0.00015817833
157	0xbb039e9f	-0.002008356
158	0x3b9e3343	0.004827888
159	0x3bf82ac1	0.007573456
160	0x3b25aead	0.0025281117
161	0xbb095aee	-0.002095874
162	0xbb7ce143	-0.0038586415
163	0xbc34030b	-0.010987054
164	0xbc8d782a	-0.017269213
165	0xbc107653	-0.008817273
166	0xb998f5eb	-0.00029174922
167	0x3c319a2f	0.010839983
168	0x3cf69919	0.0301023
169	0x3d2a8fdd	0.041641105
170	0x3d114bc0	0.03547263
171	0x3cc94c9c	0.024572663
172	0x3c82f51b	0.015986016
173	0x3b8503ae	0.0040592765
174	0xbc4afb34	-0.012388993
175	0xbc5d0db4	-0.013492037
176	0xbc604ee3	-0.013690683
177	0xbc8ec22e	-0.017426576
178	0xbc889b20	-0.016675532
179	0xbc85f2b4	-0.016351081
180	0xbca77555	-0.02044169
181	0xbcc6fd67	-0.024290754
182	0xbcb9d65b	-0.02268522
183	0xbcc2ffb2	-0.023803566
184	0xbcf08017	-0.029357953
185	0xbd0e8c3f	-0.034801718
186	0xbd0595cb	-0.032613557
187	0xbd02e4b1	-0.03195638
188	0xbcd1c65b	-0.025607279
189	0x3c32e5f1	0.01091908
190	0x3d3a942a	0.045551457
191	0x3d7847ce	0.060615353
192	0x3c890e07	0.016730322
193	0x3d39b6e7	0.045340445
194	0x3d62fe06	0.055418037
195	0x3d399d80	0.04531622
196	0x3ce0108f	0.027351646
197	0x3c3882c8	0.011261649
198	0xbb4417ad	-0.0029921338
199	0xbc84319e	-0.01613694
200	0xbc625695	-0.013814588
201	0xbc395473	-0.011311638
202	0xbc38f0f6	-0.011287918
203	0xbb7571e3	-0.0037451915
204	0x3b15a76e	0.0022835392
205	0x3b7396e5	0.0037168798
206	0x3a1caa37	0.0005976292
207	0x3bbf999e	0.00584717
208	0x3bb7427a	0.0055926414
209	0x398e7440	0.00027170964
210	0xbb9cf890	-0.004790373
211	0xbbc74ee1	-0.006082401
212	0xbc350ab6	-0.011049917
213	0xbc8a9a9e	-0.01691943
214	0xbc23d60f	-0.009999766
215	0x3acf3d32	0.0015811084
216	0x3c974218	0.018464133
217	0x3d1176b0	0.03551358
218	0x3d3b65ba	0.04575131
219	0x3d1b7aea	0.037959017
220	0x3cd194eb	0.025583705
221	0x3c7d97c8	0.015478082
222	0x3bd7de74	0.006587798
223	0xbc042771	-0.008066044
224	0xbc0b433a	-0.008499915
225	0xbbc95971	-0.0061446954
226	0xbbc5f6ac	-0.0060413685
227	0xba50149e	-0.00079376425
228	0x3b889390	0.0041679814
229	0x3b30220a	0.0026875758
230	0xba8d9e44	-0.0010804613
231	0x3b44850c	0.0029986529
232	0x3b017721	0.0019754844
233	0xbba0570d	-0.0048931898
234	0xbc611f9a	-0.013740445
235	0xbc6ff0c7	-0.014644808
236	0xbc92d265	-0.01792259
237	0xbca9558e	-0.020670678
238	0xbc138bb3	-0.009005475
239	0x3b9409f1	0.0045177867
240	0x3cc2999d	0.02375489
241	0x3d2ad67a	0.041708447
242	0x3d55c0e3	0.052185904
243	0x3d396c37	0.045269217
244	0x3d0c021d	0.034181703
245	0x3cc93728	0.024562433
246	0x3c5a0e0d	0.013309014
247	0xbb7ecb6e	-0.0038878578
248	0xbc16767a	-0.00918352
249	0xbc18c3f6	-0.0093240645
250	0xbc503906	-0.012708908
251	0xbbb62100	-0.005558133
252	0xbaa230ef	-0.0012374202
253	0x3991c85a	0.0002780583
254	0xbaa5ac42	-0.0012639838
255	0x3b93fad3	0.0045159846

Linear_Seasonal.bias f4 [192]
0	0x3cce709b	0.025200179
1	0x3cce295d	0.025166208
2	0xbc64eb78	-0.013972156
3	0xbd128b44	-0.035777345
4	0xbd45ea77	-0.048319306
5	0x3d8d4a01	0.06898881
6	0xbd0924ce	-0.033482365
7	0x3d3a7800	0.045524597
8	0xbb85a175	-0.004078085
9	0x3cc84e29	0.024451332
10	0x3b3c109e	0.0028696428
11	0xbc7741fc	-0.0150914155
12	0xbd87b603	-0.06626513
13	0xbd28267e	-0.041052334
14	0xbb8ee26b	-0.004360487
15	0x3d8fb109	0.07016189
16	0xbd6fc451	-0.05853683
17	0xbcedf6c3	-0.02904833
18	0xbdbe8838	-0.093033254
19	0x3d44461f	0.047918435
20	0xbd388530	-0.045048892
21	0xbdbeed79	-0.09322638
22	0x3d4a1903	0.04934026
23	0xbc8ec6d7	-0.017428799
24	0xbbebc4a5	-0.0071950727
25	0xbaba0926	-0.00141934
26	0x3bac45ff	0.0052573676
27	0xba60c9bd	-0.0008574983
28	0xbd956853	-0.07295289
29	0x3ce59925	0.028027127
30	0xbcba8f72	-0.022773478
31	0xbd323588	-0.043508083
32	0xbd05808f	-0.032593306
33	0xbd866387	-0.06561952
34	0x3cfc6e4a	0.030814309
35	0xbd239971	-0.039941255
36	0xbd64f994	-0.05590208
37	0xbc1b0f51	-0.009464101
38	0x3d594ff8	0.05305478
39	0xbd2c379c	-0.04204522
40	0x3a5caeb2	0.00084183656
41	0xbc639a75	-0.013891806
42	0xbd02f3bc	-0.031970724
43	0xbd06eec0	-0.032942533
44	0x3da9fdf3	0.0830039
45	0x3d8b43c5	0.068000354
46	0xbc8bcbd9	-0.017064976
47	0x3d3951a7	0.045243885
48	0x3c6dc009	0.014511117
49	0xbc61ea80	-0.013788819
50	0xbd205ca1	-0.039150838
51	0x3cd3e437	0.025865657
52	0xbd37444b	-0.044742864
53	0x3c3a5b4b	0.011374305
54	0x3c9d996a	0.019238193
55	0xbd17deeb	-0.037077826
56	0x3d3e4fe6	0.046462916
57	0x3b16c7b9	0.0023007228
58	0x3b919fd5	0.0044441023
59	0xbd0838a0	-0.033257127
60	0xbd24ae88	-0.04020551
61	0xbce862a1	-0.028367342
62	0x3d3e64da	0.0464829
63	0xbd0c3ef6	-0.03423973
64	0xbd39a55c	-0.045323715
65	0x3d15c069	0.03656045
66	0x3be4ed02	0.0069862613
67	0x3c69ee56	0.014278015
68	0x3ccb9bb2	0.024854515
69	0x3b801fba	0.003910032
70	0xbd52221b	-0.051302057
71	0x3d85af1c	0.0652754
72	0x3d2a9023	0.041641366
73	0x3cd43dac	0.025908314
74	0xbd37563b	-0.04475997
75	0xbd0c51e9	-0.034257803
76	0xbc86830b	-0.016419908
77	0xbd06a24d	-0.032869626
78	0x3d879237	0.06619685
79	0x3d8cba90	0.068715215
80	0x3ce434dc	0.027857237
81	0x3d6c1ed5	0.05764659
82	0x3da2a99a	0.07942505
83	0xbd7c8ba5	-0.061656613
84	0xbaef8044	-0.0018272479
85	0xbcba097c	-0.0227096
86	0x3d186aa6	0.037211083
87	0xbd855f8a	-0.06512363
88	0xbd82f0d0	-0.063935876
89	0x3b62a2e7	0.003458196
90	0x3d379998	0.044824213
91	0xbd18b6c2	-0.037283666
92	0x3ccfadbb	0.025351396
93	0x3cae59ba	0.02128302
94	0xbcb53189	-0.022118347
95	0xbced83fe	-0.028993603
96	0xbd09ca54	-0.03364022
97	0x3da813e4	0.08206919
98	0x3c9d0586	0.019167673
99	0xbd9da205	-0.076969184
100	0xbd2f7b77	-0.042842355
101	0xbbf517a8	-0.0074796267
102	0x3d78ea59	0.060770366
103	0xbd0f4c04	-0.034984604
104	0x3daa7155	0.083223976
105	0x3d5a6d4b	0.053326886
106	0x3af57b26	0.0018728718
107	0x3c26d44d	0.010182452
108	0x3c7f915e	0.015598623
109	0x392d7ffb	0.00016546242
110	0xbc962456	-0.018327873
111	0x3af7bf20	0.0018901564
112	0xbdb98307	-0.090581946
113	0x3b6fdcc1	0.0036600085
114	0xbdc2dbf4	-0.09514609
115	0x3c39b2e8	0.0113341585
116	0xbc8b5f6a	-0.01701327
117	0xbd1ed451	-0.0387767
118	0xbd91f4f9	-0.07126803
119	0x3db40245	0.087894954
120	0xbd9840ab	-0.074342094
121	0x3d0d44c5	0.03448941
122	0xbb87d84e	-0.0041456586
123	0xbb31d977	-0.0027137676
124	0x3d43ab5e	0.04777085
125	0x3c81ada8	0.015829876
126	0xbc411cea	-0.011786679
127	0x3d3ed805	0.04659273
128	0xbd0ad26c	-0.03389208
129	0xbd2af339	-0.04173586
130	0xb97c4c7a	-0.00024061083
131	0x3d2f8cf4	0.042859033
132	0xbd3a5aff	-0.045496937
133	0xbc4a6a56	-0.012354454
134	0x3d334223	0.043764245
135	0xbd5d9874	-0.05410047
136	0xbc9a315a	-0.01882236
137	0x3ce59f28	0.028029993
138	0x3c1e6abf	0.009669005
139	0xbd65326b	-0.055956285
140	0x3cc5217a	0.024063814
141	0xbcd4909c	-0.025947861
142	0xbd35102b	-0.044204872
143	0xbda25104	-0.07925609
144	0xbd51d1b3	-0.051225375
145	0xbd07481f	-0.033027764
146	0x3d0066ed	0.031348158
147	0x3d419589	0.04726175
148	0x3ce4c5fc	0.027926438
149	0xbbde100b	-0.006776815
150	0x3d1f798f	0.038934287
151	0xbd8fc825	-0.070205964
152	0xbc4e5330	-0.012593076
153	0xbd0431bc	-0.032273993
154	0xbd05991b	-0.032616716
155	0x3cf8b47e	0.030359503
156	0x3b219eb2	0.002466124
157	0xbd93b579	-0.072123475
158	0xbc800f32	-0.015632246
159	0xbd3ea820	-0.046547055
160	0x3cefaf33	0.029258346
161	0x3d374e1c	0.044752225
162	0x3cd6f2c5	0.026238808
163	0x3ce6ecd3	0.028189098
164	0x3cf8b4b3	0.030359602
165	0xbd6d95a6	-0.058004044
166	0xbd92a218	-0.07159823
167	0x3d03a629	0.032140885
168	0x3b831570	0.0040003583
169	0xbd3a413d	-0.045472372
170	0xbd44dd4e	-0.048062615
171	0xbb67217f	-0.0035267768
172	0x3cee2a0c	0.029072784
173	0x3d863aeb	0.065542065
174	0x39b80456	0.00035098445
175	0x3c5649a2	0.013079079
176	0xbd3333d1	-0.043750588
177	0xbd95c512	-0.07312979
178	0xbd69a90a	-0.057045974
179	0xbd86fc30	-0.0659107
180	0xbc56f2dd	-0.013119427
181	0x3d42495e	0.04743325
182	0xbdd8a342	-0.10578014
183	0xb8a3bdb7	-7.807783e-05
184	0xbd0e840b	-0.034793895
185	0xbd2fc261	-0.042909984
186	0xbd622d4f	-0.05521899
187	0x3cd4587b	0.025921097
188	0xbbccfca4	-0.006255703
189	0xbc849630	-0.016184896
190	0x3d889846	0.06669669
191	0x3d66fa13	0.056390833

Linear_Trend.weight f4 [192, 96]
0	0x3cf3fc98	0.029783532
1	0x3ce72dfa	0.028220166
2	0x3cd764c7	0.026293172
3	0x3cc2f0b0	0.02379641
4	0x3ca94456	0.020662468
5	0x3c8d35ea	0.017237622
6	0x3c5c74c4	0.0134555735
7	0x3c19dfda	0.009391749
8	0x3bb4971b	0.0055111772
9	0x3b05bd4f	0.0020407026
10	0xba5f69a8	-0.0008522519
11	0xbb2b2226	-0.0026112883
12	0xbb4c8a7f	-0.003121048
13	0xbb8d5054	-0.0043125544
14	0xbbb77792	-0.0055989707
15	0xbbd20e5f	-0.0064104046
16	0xbbe2d494	-0.006922314
17	0xbbf2e988	-0.007413093
18	0xbbf31875	-0.007418687
19	0xbbf17514	-0.007368693
20	0xbbf23ed3	-0.007392743
21	0xbbe88f73	-0.0070971786
22	0xbbdb93f0	-0.006700985
23	0xbbd3e786	-0.0064668087
24	0xbbd3d75c	-0.006464882
25	0xbbc7675e	-0.0060853204
26	0xbbbf0358	-0.005829256
27	0xbbbea8ab	-0.0058184466
28	0xbbc14edc	-0.0058992933
29	0xbbba5bb9	-0.0056872037
30	0xbbb8c5f5	-0.0056388327
31	0xbbb6d072	-0.005579048
32	0xbbaa1c6d	-0.005191377
33	0xbb950261	-0.0045474027
34	0xbb672c72	-0.0035274294
35	0xbacd47d0	-0.001566166
36	0x3a84fd3f	0.0010146274
37	0x3abbc125	0.0014324529
38	0x3abd8083	0.0014457855
39	0x3ae13431	0.0017181692
40	0x3b05ccda	0.002041629
41	0x3b10bf7d	0.0022086792
42	0x3b2eae9f	0.0026654375
43	0x3b43dcd4	0.0029886262
44	0x3b42c345	0.002971844
45	0x3b57221b	0.0032826725
46	0x3b713155	0.0036803086
47	0x3b7cf8c6	0.003860043
48	0x3b7c0254	0.0038453536
49	0x3b8ab396	0.004232834
50	0x3b92f63a	0.004484919
51	0x3b928084	0.0044708867
52	0x3b92d8bb	0.0044814027
53	0x3b9effec	0.0048522856
54	0x3ba11d17	0.004916798
55	0x3b9aeb70	0.0047277734
56	0x3b9c7c2a	0.0047755437
57	0x3b9f41b4	0.0048601273
58	0x3ba6329a	0.00507195
59	0x3bbc0a97	0.005738567
60	0x3bcbad29	0.0062157107
61	0x3b88a7ac	0.0041703787
62	0x3b0a57f8	0.0021109562
63	0x3a2cd47f	0.00065929437
64	0xb9f22bff	-0.00046190617
65	0xbabb45d1	-0.0014287775
66	0xbaeb39b5	-0.0017946275
67	0xbb0136f5	-0.0019716595
68	0xbb0a3c63	-0.0021093122
69	0xbae16eb4	-0.001719913
70	0xbaa217fc	-0.0012366767
71	0xba5b7a18	-0.00083723804
72	0xba0ed8d2	-0.0005449179
73	0x3990d2e5	0.0002762295
74	0x3a95fbe2	0.0011442865
75	0x3b0560dd	0.0020351924
76	0x3b504331	0.003177833
77	0x3bb3fa76	0.0054925038
78	0x3c0f0dfc	0.0087313615
79	0x3c541456	0.012944302
80	0x3c97d89d	0.018535906
81	0x3ccd2c3d	0.025045509
82	0x3d04a811	0.032386843
83	0x3d247c4d	0.040157605
84	0x3d3c1edc	0.045927867
85	0x3d4d0cb6	0.05006095
86	0x3d5bbc8a	0.0536466
87	0x3d680566	0.056645773
88	0x3d717185	0.05894615
89	0x3d7841fb	0.0606098
90	0x3d7dcbcb	0.06196193
91	0x3d806f04	0.062711746
92	0x3d816a6a	0.06319125
93	0x3d821ce3	0.06353166
94	0x3d829838	0.0637669
95	0x3d82e3a3	0.063910745
96	0x3cca7233	0.024712658
97	0x3cbf3856	0.023342293
98	0x3cb35482	0.021890882
99	0x3ca575be	0.020197745
100	0x3c936527	0.01799257
101	0x3c7b0cd4	0.015322883
102	0x3c4dc55d	0.012559262
103	0x3c1cbd5f	0.009566634
104	0x3bd26640	0.0064208806
105	0x3b678122	0.0035324772
106	0x3a89fac1	0.0010527001
107	0xba514316	-0.0007982714
108	0xbaa94281	-0.0012913496
109	0xba10badf	-0.000552101
110	0xbb012f24	-0.0019711936
111	0xbb6350e1	-0.0034685659
112	0xbb91b19b	-0.004446221
113	0xbba91afb	-0.005160687
114	0xbbbaa4bb	-0.005695907
115	0xbbbd380d	-0.005774504
116	0xbbbf5d5e	-0.0058399877
117	0xbbc25acd	-0.0059312345
118	0xbbba1ba2	-0.0056795636
119	0xbbaf52b4	-0.005350435
120	0xbbae6b12	-0.0053228224
121	0xbbb1213e	-0.005405574
122	0xbba8d1d8	-0.0051519684
123	0xbba6320c	-0.005071884
124	0xbbab9050	-0.0052357092
125	0xbbb242bb	-0.005440084
126	0xbbb0a337	-0.0053905505
127	0xbbb37f3f	-0.0054778154
128	0xbbb53bf4	-0.0055308286
129	0xbbaa220e	-0.005192048
130	0xbb96c8cb	-0.004601573
131	0xbb641dba	-0.0034807757
132	0xba8f83cd	-0.0010949314
133	0x3ad74393	0.0016423337
134	0x3b0304a9	0.0019991791
135	0x3afc44b8	0.0019246554
136	0x3b0e36cc	0.0021700142
137	0x3b1e4268	0.0024148468
138	0x3b2b2cb0	0.0026119165
139	0x3b4d0841	0.0031285437
140	0x3b60d6dc	0.0034307754
141	0x3b5fd52b	0.0034154158
142	0x3b7861e6	0.003790015
143	0x3b8b1922	0.0042449394
144	0x3b9024e4	0.004398929
145	0x3b926cbd	0.004468529
146	0x3ba18aa5	0.004929858
147	0x3baa73b9	0.0052017835
148	0x3ba9bb21	0.005179778
149	0x3bac9dba	0.005267826
150	0x3bb9c7a3	0.0056695505
151	0x3bbbcac9	0.005730961
152	0x3bb5f7a2	0.005553202
153	0x3bb9adf0	0.005666487
154	0x3bbea8d0	0.005818464
155	0x3bcbcc59	0.0062194285
156	0x3bede616	0.0072600944
157	0x3bfe836d	0.007767132
158	0x3bb8ebfb	0.0056433654
159	0x3b693a13	0.0035587593
160	0x3b0cd345	0.002148823
161	0x3a884756	0.0010397236
162	0x39696c0f	0.00022260867
163	0x385e5d9d	5.301611e-05
164	0x389758e6	7.2168e-05
165	0x39482bd0	0.00019089808
166	0x3a6d301b	0.0009048001
167	0x3ae1ec2e	0.0017236525
168	0x3b1afda3	0.0023649714
169	0x3b40b300	0.0029403567
170	0x3b841782	0.0040311227
171	0x3ba6ff1e	0.0050963303
172	0x3bc51bba	0.006015268
173	0x3bebf20b	0.0072004846
174	0x3c1b8d9d	0.009494212
175	0x3c4e0a5c	0.012575712
176	0x3c87bc5a	0.016569305
177	0x3cb36a3d	0.021901244
178	0x3ce6cc35	0.028173545
179	0x3d103546	0.035207056
180	0x3d27514e	0.040849023
181	0x3d37f24f	0.044908818
182	0x3d44128c	0.04786925
183	0x3d4f8fb0	0.05067414
184	0x3d5a3abc	0.05327867
185	0x3d6310fa	0.055436112
186	0x3d69f5b9	0.057119105
187	0x3d6f1fe5	0.058380026
188	0x3d728d1b	0.0592166
189	0x3d75b964	0.059991255
190	0x3d777999	0.0604187
191	0x3d789986	0.060693286
192	0x3c9c575c	0.019084625
193	0x3c959dd9	0.018263744
194	0x3c8a9cbc	0.01692044
195	0x3c81272a	0.015765745
196	0x3c6c1982	0.014410378
197	0x3c50573c	0.012716111
198	0x3c2fd204	0.010731224
199	0x3c102a00	0.008799076
200	0x3bdcfe7d	0.0067442046
201	0x3b96cb78	0.004601892
202	0x3b31b280	0.002711445
203	0x3aaa0063	0.0012970086
204	0x3a455df8	0.0007528956
205	0x3ac7e4f9	0.0015250734
206	0x3b025dda	0.0019892366
207	0x398f43ad	0.00027325508
208	0xbabf4e19	-0.0014595418
209	0xbb2f60fe	-0.0026760693
210	0xbb62bbd7	-0.0034596825
211	0xbb84e0fb	-0.00405514
212	0xbb8b20ca	-0.004245852
213	0xbb8ed349	-0.0043586832
214	0xbb926c2a	-0.0044684606
215	0xbb8c440b	-0.0042805723
216	0xbb871802	-0.004122735
217	0xbb881fe2	-0.0041541914
218	0xbb8ed8e0	-0.0043593496
219	0xbb8c58ce	-0.0042830473
220	0xbb8edf0a	-0.0043600844
221	0xbb97feb6	-0.004638518
222	0xbba39e06	-0.004993203
223	0xbba6405c	-0.00507359
224	0xbbabcbaa	-0.0052427845
225	0xbbae1a0a	-0.0053131627
226	0xbba36a7e	-0.00498706
227	0xbb8b6722	-0.0042542377
228	0xbb337af2	-0.0027386514
229	0xb99b5a68	-0.00029631262
230	0x3b197a93	0.0023419007
231	0x3b3006dd	0.002685956
232	0x3b2d4824	0.0026440704
233	0x3b38ed1a	0.0028217495
234	0x3b4a610f	0.0030880605
235	0x3b59b480	0.0033219159
236	0x3b775384	0.0037738988
237	0x3b8519be	0.0040619066
238	0x3b863b40	0.0040964186
239	0x3b923328	0.0044616647
240	0x3b9effa4	0.004852252
241	0x3ba61cce	0.0050693518
242	0x3ba91e8d	0.0051611126
243	0x3bb77961	0.0055991863
244	0x3bbfbac6	0.0058511226
245	0x3bc0e713	0.005886921
246	0x3bc415d9	0.0059840498
247	0x3bd1033b	0.006378559
248	0x3bd41bea	0.006473054
249	0x3bd10ffb	0.006380079
250	0x3bd6e8d9	0.0065585193
251	0x3be25e88	0.0069082417
252	0x3bfbb5aa	0.007681568
253	0x3c0ec8c5	0.008714859
254	0x3c15b921	0.009138376
255	0x3be42470	0.0069623515

Linear_Trend.bias f4 [192]
0	0xbb1105f1	-0.0022128785
1	0xbbc8feb9	-0.006133881
2	0x3c3efb8a	0.011656651
3	0x3d4f2177	0.050569024
4	0x3d139199	0.036027525
5	0xbd9602f4	-0.07324782
6	0x3cb35448	0.021890774
7	0xbd16bb2e	-0.036799602
8	0x3d41fae6	0.047358416
9	0xbd23d1e5	-0.039995093
10	0xbb266c2b	-0.0025394063
11	0x3c83e530	0.016100496
12	0x3d8e1cbc	0.069390744
13	0x3cd3daae	0.02586111
14	0x3c85b334	0.016320802
15	0xbda24e0d	-0.07925043
16	0x3d514899	0.051094625
17	0xbb3887e8	-0.0028157178
18	0x3db00a5b	0.08595725
19	0xbd3b1008	-0.045669585
20	0x3cf85cb1	0.030317636
21	0x3db43e69	0.08800966
22	0xbcf5fb6d	-0.030027116
23	0x3cbc328a	0.022973318
24	0x3c707622	0.014676603
25	0xbc3636eb	-0.011121492
26	0xbd1fee1c	-0.03904544
27	0x3d2ef147	0.04271057
28	0x3d944732	0.07240142
29	0x3c9b91c7	0.01899041
30	0x3cc2c433	0.023775196
31	0x3c9f1385	0.019418487
32	0x3ccf5ab0	0.025311798
33	0x3d323f2c	0.043517277
34	0xbd2ff87d	-0.042961586
35	0x3d013b3e	0.03155064
36	0x3d3c67e5	0.04599752
37	0xbbeaf21e	-0.007169976
38	0xbd89410f	-0.06701862
39	0x3c3a42ca	0.011368463
40	0xbb977f2a	-0.0046233134
41	0x3d2c753e	0.042104
42	0xbc99f1f6	-0.018792134
43	0x3d2c04aa	0.041996635
44	0xbdbe3659	-0.0928771
45	0xbda05f86	-0.0783072
46	0xbc828ea5	-0.015937159
47	0xbd0bfd90	-0.034177363
48	0x3d2624ed	0.04056256
49	0xb950b88b	-0.00019905173
50	0x3c2cba90	0.010542527
51	0x3d222062	0.039581664
52	0xbcd78fd9	-0.02631371
53	0xbcb8dfdf	-0.022567688
54	0xbd212487	-0.039341476
55	0x3cb0cf88	0.021583334
56	0xbd773240	-0.060350657
57	0xbb4c24fe	-0.0031149979
58	0xbc2d97a5	-0.010595237
59	0xbcbefae6	-0.023312997
60	0xbced7c82	-0.028990034
61	0xbc177113	-0.009243268
62	0xbd3ea4a0	-0.046543717
63	0x3c8130d7	0.015770359
64	0xbceab754	-0.02865187
65	0xbd03bc39	-0.032161925
66	0x3c358a49	0.011080333
67	0xbd00dd2d	-0.03146093
68	0xbc9e8932	-0.01935253
69	0x3cdcacb2	0.026937816
70	0x3d000b56	0.03126081
71	0xbd9c2949	-0.07625062
72	0xbd591ec5	-0.05300786
73	0xbcf03b6e	-0.029325213
74	0x3d23edab	0.04002158
75	0x3c8e6485	0.017381916
76	0xbc72fe7a	-0.01483118
77	0xbbe92517	-0.007115017
78	0xbdaa8d19	-0.083276935
79	0xbd9ea289	-0.07745845
80	0xbb752177	-0.003740398
81	0xbd6d4b2f	-0.05793303
82	0xbdba34e4	-0.09092119
83	0x3d1ed465	0.038776774
84	0xbad736a8	-0.0016419487
85	0xba2faf78	-0.0006701867
86	0x3d11613c	0.03549312
87	0x3d557b90	0.05211979
88	0x3d3df705	0.046378154
89	0xbca72759	-0.020404505
90	0xbd84113d	-0.064486004
91	0x3c9a183c	0.018810384
92	0xbd4adfa1	-0.049529675
93	0xbd46697a	-0.048440434
94	0xbc5b081d	-0.013368634
95	0x3d0246a5	0.031805653
96	0xbc8d9d16	-0.017286818
97	0xbdcd2046	-0.10015921
98	0xbd12aab2	-0.03580732
99	0x3d738771	0.05945534
100	0xbc204100	-0.009781122
101	0xbcc90893	-0.024540221
102	0xbd801356	-0.06253688
103	0x3c49d84e	0.012319637
104	0xbdd3e579	-0.10346503
105	0xbd967a06	-0.07347493
106	0x3c435586	0.011922246
107	0xbc992750	-0.018695503
108	0xbb137cfe	-0.002250492
109	0xbb475ba3	-0.003041961
110	0xbc8ccae2	-0.017186586
111	0xbd015a03	-0.031579982
112	0x3d890577	0.066904955
113	0xbd1d0f7e	-0.038344853
114	0x3d915a57	0.07097309
115	0xbb88bf4d	-0.0041731955
116	0xbbd0abd5	-0.00636814
117	0x3cee321c	0.029076628
118	0x3d553dd8	0.052060932
119	0xbdda917d	-0.10672281
120	0x3d48e1fb	0.049043637
121	0xbd57f39f	-0.05272257
122	0x3b83ecf9	0.004026052
123	0xbd148fac	-0.03626983
124	0xbd8eedd7	-0.06978958
125	0x3b9cfee4	0.0047911275
126	0xbb0dfa04	-0.0021663914
127	0xbd9432e7	-0.07236271
128	0x3befe617	0.00732113
129	0xbd299c79	-0.04140899
130	0xbc5c5ef6	-0.013450375
131	0xbd7210ce	-0.059098057
132	0x3d1b1d96	0.037870012
133	0x3c05400c	0.008132946
134	0xbd88c18c	-0.06677541
135	0x3b74ed6c	0.003737296
136	0xbc4f7ea1	-0.012664468
137	0x3d18c8c0	0.037300825
138	0x3ce624ac	0.028093658
139	0x3bbb299b	0.005711747
140	0xbd6a1ecb	-0.057158273
141	0xbc1f7054	-0.009731371
142	0xbd393ccd	-0.045224
143	0x3d4e10d1	0.050309006
144	0xbb3bff27	-0.0028686018
145	0x3d1fba85	0.03899624
146	0xbd1f9e55	-0.038969357
147	0xbd46767d	-0.048452843
148	0xbd450a3a	-0.048105456
149	0xbd05bbc2	-0.032649763
150	0xbc30d48c	-0.010792863
151	0x3d296bac	0.04136245
152	0xbc104ac4	-0.008806888
153	0xbcb71f34	-0.022353746
154	0x3d2cf587	0.04222634
155	0xbd710d88	-0.058850795
156	0xbcc75d72	-0.02433655
157	0x3d52f853	0.05150635
158	0xbc92efab	-0.017936548
159	0xbd2eb558	-0.04265341
160	0xbb6f6539	-0.003652884
161	0xbda167d9	-0.078811355
162	0xbd0a63cd	-0.033786584
163	0xbd41eab4	-0.04734297
164	0x3c048562	0.008088442
165	0x3cd22b49	0.025655406
166	0x3d30f0c5	0.043198366
167	0xbd87cc7f	-0.066308014
168	0x3d29e295	0.04147585
169	0x3cfe68de	0.031055864
170	0x3cdbc1c4	0.026825793
171	0xbcf54574	-0.029940344
172	0x3cad25b9	0.021136152
173	0xbda64008	-0.08117682
174	0xbd6df4a8	-0.05809465
175	0x3c3cc78a	0.011522183
176	0x3c05ed6b	0.008174281
177	0x3d316f90	0.043319285
178	0x3cd361e8	0.025803521
179	0x3d177c78	0.036983937
180	0x3bc6533a	0.006052402
181	0xbd9b8c1c	-0.07595083
182	0x3d9c1f28	0.0762313
183	0xbbc17b67	-0.0059046033
184	0x3b3c0e28	0.0028694961
185	0x3d4edceb	0.050503653
186	0x3cb32759	0.021869348
187	0x3d118be5	0.035533804
188	0x3a982371	0.0011607242
189	0xbc5bf5d1	-0.013425306
190	0xbdc21215	-0.09476105
191	0xbd6ac9f9	-0.057321522
