checkpoints/long_term_forecast_ETTh1_96_192_DLinear_ETTh1_ftM_sl96_ll48_pl192_dm512_nh8_el2_dl1_df2048_fc3_ebtimeF_dtTrue_Exp_0/checkpoint.pth (torch, 150927 bytes, 4 tensors)

Linear_Seasonal.weight f4 [192, 96]
000000 ea ab 28 3d e6 84 eb 3c 87 21 cb 3b 6c 42 1c bc
       0.041179575 0.028749894 0.006199065 -0.009537321
000010 72 dd 8b bc c6 ea b4 bc d4 a5 91 bc 23 a3 6c bc
       -0.017073367 -0.022084605 -0.017779268 -0.014443192
000020 a2 b4 76 bc af 8c 1b bc c8 3a 19 bb 7e 54 5d 3a
       -0.015057715 -0.009493991 -0.0023380984 0.0008443071
000030 17 9d 52 bb 4e 64 1a 3b 44 bb a2 3b 6f 3e b6 3a
       -0.003213709 0.0023558321 0.0049661715 0.0013904105
000040 b4 c0 5e bb 0d 27 a9 ba 57 ae 8e bb fb 0d 05 bc
       -0.0033989372 -0.0012905315 -0.004354279 -0.008121009
000050 7a ee 0f bb 3c d8 b6 3b 01 80 55 3c 3c fc db 3c
       -0.0021962211 0.0055799764 0.013031007 0.026853673
000060 04 e4 25 3d e6 b5 09 3d 56 6a be 3c 7b c2 82 3c
       0.040500656 0.033620737 0.023244064 0.015961876
000070 5e 40 14 3c ea 0d 91 bb e3 0b 8e bb 5b 6e b4 ba
       0.009048549 -0.0044267075 -0.004334913 -0.0013765799
000080 ba 94 82 bb b3 84 5a ba b2 5e 9a 3b 91 93 72 3b
       -0.0039850147 -0.0008335814 0.0047109956 0.0037014226
000090 bf 66 14 bb df 51 13 3b d4 f6 8e 3b 63 7b 21 ba
       -0.002264425 0.002247922 0.0043629203 -0.00061600487
0000a0 e8 fc 04 bc 84 7d e1 bb 59 99 1e bc 0a 03 44 bc
       -0.008116938 -0.0068814177 -0.009680116 -0.011963615
0000b0 9e 75 08 bb de 4c f9 3b ab cb 88 3c 56 82 02 3d
       -0.0020822058 0.0076080402 0.016698679 0.03186258
0000c0 6a d6 3a 3d ae cf 20 3d 7d 06 f6 3c 04 8c ba 3c
       0.045614637 0.03926056 0.03003239 0.022771843
0000d0 c3 ea 69 3c 98 64 ce ba bc 01 92 bb 54 91 8b bb
       0.014277163 -0.0015746532 -0.004455773 -0.004259268
0000e0 6a b8 1a bc 14 27 75 bb 64 f2 88 3a 3d 1f 09 3b
       -0.009443382 -0.0037407326 0.0010448215 0.002092316
0000f0 4c 0c f0 ba 32 58 90 3b 77 ca f8 3b 49 aa 90 3b
       -0.0018314212 0.004405045 0.007592495 0.004414831
000100 8a 77 08 b9 65 d6 f1 b9 06 b7 b7 bb 0c 53 44 bc
       -0.00013014502 -0.00046126838 -0.005606535 -0.011982691
000110 77 92 a7 bb 8b 3d 43 3b 14 4a 47 3c 4b d6 d2 3c
       -0.0051138955 0.002979132 0.012163658 0.025736948
000120 75 e7 1d 3d 30 3c 04 3d d4 51 b8 3c a4 a7 67 3c
       0.038550813 0.03228396 0.022499956 0.01413909
000130 3f 15 83 3b 77 6f 45 bc db ca 6f bc c3 64 5e bc
       0.0040003355 -0.012050501 -0.014635767 -0.013573828
000140 e9 09 95 bc 74 27 99 bc b9 d5 9e bc 5c 65 ba bc
       -0.018193202 -0.01869557 -0.01938902 -0.02275341
000150 04 b4 e6 bc 58 b3 e5 bc 4c fc f2 bc 7f 64 04 bd
       -0.02816201 -0.02803962 -0.02966132 -0.032322403
000160 ca 77 16 bd c6 8d 12 bd e9 55 11 bd 4b 99 14 bd
       -0.036735334 -0.035779737 -0.03548232 -0.036279004
000170 ba 3b a3 bc df 63 a3 3c 6b b2 4d 3d 61 61 83 3d
       -0.01992594 0.019945083 0.05021898 0.06415058
000180 11 28 01 3d 30 0f 55 3d 03 e9 23 3d 67 39 a5 3c
       0.03153235 0.052016437 0.04001714 0.020168973
000190 de 77 68 3b ae df 16 bc e2 a6 97 bc 31 fc 75 bc
       0.0035471837 -0.009208603 -0.018512193 -0.01501374
0001a0 d0 f6 50 bc 25 5c 5e bc 18 92 da bb 4b 66 b7 3a
       -0.012754157 -0.013571774 -0.0066702478 0.0013992278
0001b0 7c 2b 17 3b 4d a2 eb ba be 14 9f 3b 8d 68 cd 3b
       0.002306669 -0.0017977447 0.0048547676 0.006268567
0001c0 ad 9c 33 3a 4d 7b 98 bb 74 b5 0c bb 2b 16 ea bb
       0.00068516546 -0.0046533705 -0.002147046 -0.007143756
0001d0 df 28 48 bc 2a d8 de bb 5b 60 de 3a a1 81 48 3c
       -0.012216776 -0.006800671 0.0016965972 0.012237937
0001e0 87 0d 02 3d 85 6e 32 3d fc cf 15 3d 78 f8 cc 3c
       0.031751182 0.04356243 0.036575302 0.025020823
0001f0 c9 21 8b 3c 91 48 03 3c 49 08 cd bb 04 bb c0 bb
       0.016983883 0.008012907 -0.006257091 -0.005881669
000200 18 34 7a bb c2 f9 af bb 14 30 8e ba 5f 6f b7 3b
       -0.0038178023 -0.0053703496 -0.0010848069 0.0055979933
000210 e3 c7 33 3b 4a fd 0a bb 6c 88 60 3b 25 c8 94 3b
       0.0027432374 -0.00212081 0.0034261001 0.0045404606
000220 d2 ab 33 bb af 32 2d bc 57 ad 2e bc 49 2e 69 bc
       -0.0027415645 -0.010571166 -0.010661445 -0.014232227
000230 41 81 85 bc ec 34 d5 bb 07 37 6d 3b d4 25 86 3c
       -0.016296985 -0.006506553 0.003619613 0.01637546
000240 d3 7a 17 3d 34 f2 49 3d f6 f9 30 3d 32 da 06 3d
       0.03698237 0.04930325 0.04320713 0.03292293
000250 66 d3 cb 3c 9e aa 69 3c 3a 72 41 bb 0d 6d c8 bb
       0.024881076 0.01426187 -0.0029517547 -0.0061165155
000260 4b 7f f6 bb b9 ba 35 bc b2 39 ac bb c1 3a 58 3a
       -0.0075224987 -0.011091881 -0.0052559013 0.0008248501
000270 32 2b 26 39 90 9f 03 bb 11 34 9e 3b 34 29 f8 3b
       0.00015847085 -0.002008412 0.004827984 0.007573271
000280 78 ab 25 3b 2d 5e 09 bb f4 e1 7c bb a7 03 34 bc
       0.0025279205 -0.0020960674 -0.0038586827 -0.010987199
000290 84 79 8d bc a7 79 10 bc e9 e9 98 b9 29 9b 31 3c
       -0.017269857 -0.008818067 -0.00029165976 0.010840216
0002a0 fc 98 f6 3c af 8f 2a 3d b8 4b 11 3d f7 4c c9 3c
       0.030102246 0.041640934 0.0354726 0.024572833
0002b0 45 f6 82 3c 7b 06 85 3b 98 fc 4a bc 43 0f 5d bc
       0.015986571 0.0040596104 -0.012389325 -0.013492408
0002c0 08 4f 60 bc 65 c2 8e bc a0 9b 88 bc 17 f3 85 bc
       -0.0136907175 -0.017426679 -0.01667577 -0.016351266
0002d0 5e 75 a7 bc 15 fe c6 bc f8 d6 b9 bc e6 ff c2 bc
       -0.020441707 -0.024291078 -0.022685513 -0.023803663
0002e0 a7 80 f0 bc 31 8c 0e bd fe 95 05 bd 24 e5 02 bd
       -0.029358221 -0.034801666 -0.032613747 -0.031956807
0002f0 e9 c5 d1 bc 27 e5 32 3c 8c 94 3a 3d ff 47 78 3d
       -0.025607066 0.010918892 0.04555182 0.060615536
000300 e5 0c 89 3c e9 b6 39 3d 0d fe 62 3d ea 9d 39 3d
       0.016729781 0.045340452 0.055418063 0.045316614
000310 12 10 e0 3c 5e 82 38 3c 8d 14 44 bb 8b 32 84 bc
       0.027351413 0.011261551 -0.0029919476 -0.016137382
000320 00 56 62 bc e5 52 39 bc 26 f0 38 bc 53 76 75 bb
       -0.013814449 -0.0113112675 -0.011287725 -0.003745456
000330 ba a8 15 3b e1 93 73 3b 7d aa 1c 3a 04 9a bf 3b
       0.0022836165 0.0037167 0.00059763325 0.0058472175
000340 65 44 b7 3b 78 90 8e 39 a0 f4 9c bb ad 49 c7 bb
       0.00559287 0.00027191988 -0.0047899038 -0.006081781
000350 3e 0b 35 bc c3 9a 8a bc 45 d4 23 bc 2a 41 cf 3a
       -0.011050044 -0.0169195 -0.0099993395 0.0015812267
000360 fa 41 97 3c d0 76 11 3d 10 66 3b 3d 92 7b 1b 3d
       0.018464077 0.0355137 0.04575163 0.037959643
000370 ec 96 d1 3c 21 9a 7d 3c ae e1 d7 3b 28 26 04 bc
       0.02558466 0.015478642 0.0065881824 -0.008065738
000380 fb 42 0b bc b0 55 c9 bb ad f1 c5 bb 65 dc 4f ba
       -0.008499856 -0.006144248 -0.006040773 -0.00079292647
000390 25 96 88 3b c7 28 30 3b 8e 9e 8d ba 6b 8c 44 3b
       0.0041682892 0.0026879774 -0.0010804699 0.0029990922
0003a0 92 7d 01 3b 1b 54 a0 bb 60 1e 61 bc 3a ee 6f bc
       0.0019758684 -0.0048928387 -0.013740152 -0.0146442
0003b0 b3 d1 92 bc f7 54 a9 bc de 8b 13 bc 2f 09 94 3b
       -0.017922258 -0.020670397 -0.009005515 0.0045176963
0003c0 3a 99 c2 3c 02 d6 2a 3d 0d c1 55 3d 2b 6c 39 3d
       0.023754705 0.041708 0.05218606 0.045269173
0003d0 47 02 0c 3d f1 37 c9 3c f4 0c 5a 3c 87 dc 7e bb
       0.03418186 0.024562808 0.013308752 -0.0038888769
0003e0 f9 79 16 bc 3e c6 18 bc 80 38 50 bc c4 1f b6 bb
       -0.009184354 -0.009324608 -0.012708783 -0.005557986
0003f0 7b 39 a2 ba 2f d9 91 39 01 ad a5 ba 4e fc 93 3b
       -0.001237675 0.0002781837 -0.001264006 0.004516161

Linear_Seasonal.bias f4 [192]
000000 62 70 ce 3c 6b 29 ce 3c 9f eb 64 bc 4c 8b 12 bd
       0.025200073 0.025166234 -0.013972192 -0.035777375
000010 7c ea 45 bd f8 49 8d 3d fd 24 09 bd e6 77 3a 3d
       -0.048319325 0.06898874 -0.03348254 0.0455245
000020 f4 a1 85 bb c0 4d c8 3c 0b 0e 3c 3b a5 42 77 bc
       -0.004078144 0.024451137 0.0028694894 -0.015091573
000030 17 b6 87 bd 8c 26 28 bd 4f e3 8e bb fc b0 8f 3d
       -0.06626528 -0.041052386 -0.0043605934 0.07016179
000040 79 c4 6f bd bb f6 ed bc 48 88 be bd 0a 46 44 3d
       -0.05853698 -0.029048314 -0.09303337 0.047918357
000050 4e 85 38 bd 90 ed be bd ee 18 4a 3d 0d c7 8e bc
       -0.045049004 -0.09322655 0.04934018 -0.0174289
000060 9e c4 eb bb 80 0b ba ba 75 45 ac 3b e9 d0 60 ba
       -0.0071950695 -0.0014194101 0.0052573034 -0.0008576052
000070 6e 68 95 bd 12 99 e5 3c c9 8f ba bc b3 35 32 bd
       -0.07295309 0.028027091 -0.02277364 -0.043508243
000080 c7 80 05 bd 9d 63 86 bd 00 6e fc 3c a7 99 23 bd
       -0.032593515 -0.065619685 0.03081417 -0.039941456
000090 b6 f9 64 bd 02 10 1b bc bc 4f 59 3d cd 37 2c bd
       -0.055902205 -0.009464266 0.053054556 -0.042045403
0000a0 90 a1 5c 3a e9 9a 63 bc d6 f3 02 bd e6 ee 06 bd
       0.00084164087 -0.013891914 -0.03197082 -0.032942675
0000b0 d8 fd a9 3d a5 43 8b 3d e0 cb 8b bc 9d 51 39 3d
       0.0830037 0.068000115 -0.017064989 0.045243848
0000c0 c1 bf 6d 3c a7 ea 61 bc b9 5c 20 bd 28 e4 d3 3c
       0.01451105 -0.013788856 -0.039150927 0.02586563
0000d0 63 44 37 bd 80 5a 3a 3c 01 99 9d 3c 2c df 17 bd
       -0.044742953 0.011374116 0.019237997 -0.037078068
0000e0 c6 4f 3e 3d 27 c5 16 3b ad 9e 91 3b b1 38 08 bd
       0.046462797 0.0023005696 0.0044439645 -0.03325719
0000f0 95 ae 24 bd d4 62 e8 bc c6 64 3e 3d 27 3f 0c bd
       -0.040205557 -0.028367437 0.046482824 -0.034239914
000100 57 a5 39 bd 4b c0 15 3d c9 eb e4 3b a6 ed 69 3c
       -0.045323696 0.036560338 0.0069861156 0.014277851
000110 5b 9b cb 3c 41 1f 80 3b 4d 22 52 bd 0b af 85 3d
       0.024854353 0.0039099758 -0.051302243 0.065275274
000120 27 90 2a 3d 79 3d d4 3c 53 56 37 bd 04 52 0c bd
       0.04164138 0.025908219 -0.04476006 -0.034257904
000130 4b 83 86 bc 65 a2 06 bd 21 92 87 3d 80 ba 8c 3d
       -0.016420027 -0.032869715 0.06619669 0.068715096
000140 8e 34 e4 3c a2 1e 6c 3d 7c a9 a2 3d c0 8b 7c bd
       0.027857091 0.0576464 0.07942483 -0.061656713
000150 ae 83 ef ba ba 09 ba bc 8e 6a 18 3d a4 5f 85 bd
       -0.0018273497 -0.022709716 0.037210993 -0.065123826
000160 e8 f0 82 bd 07 a0 62 3b 5d 99 37 3d f7 b6 18 bd
       -0.063936055 0.0034580247 0.044823993 -0.037283864
000170 81 ad cf 3c 6f 59 ae 3c ae 31 b5 bc 2f 84 ed bc
       0.025351288 0.02128288 -0.022118416 -0.028993694
000180 5f ca 09 bd d4 13 a8 3d 4b 05 9d 3c 1d a2 9d bd
       -0.03364026 0.08206907 0.019167563 -0.07696936
000190 94 7b 2f bd b0 18 f5 bb 24 ea 78 3d 39 4c 0f bd
       -0.042842463 -0.0074797496 0.06077017 -0.0349848
0001a0 3c 71 aa 3d 01 6d 5a 3d f2 78 f5 3a a7 d3 26 3c
       0.08322379 0.05332661 0.0018728061 0.010182298
0001b0 e1 90 7f 3c 5f 5d 2d 39 9e 24 96 bc 3d bb f7 3a
       0.015598507 0.00016533349 -0.018328007 0.0018900406
0001c0 1b 83 b9 bd eb d9 6f 3b 0b dc c2 bd 3d b2 39 3c
       -0.090582095 0.0036598395 -0.09514626 0.011333999
0001d0 c9 5f 8b bc 62 d4 1e bd 0b f5 91 bd 41 02 b4 3d
       -0.017013447 -0.038776763 -0.07126816 0.087894924
0001e0 ae 40 98 bd d5 44 0d 3d 0f d9 87 bb 53 db 31 bb
       -0.07434212 0.03448947 -0.0041457484 -0.0027138784
0001f0 1e ab 43 3d aa ad 81 3c 57 1d 41 bc c8 d7 3e 3d
       0.047770612 0.01582988 -0.01178678 0.046592504
000200 8f d2 0a bd 58 f3 2a bd d9 67 7c b9 de 8c 2f 3d
       -0.03389221 -0.041735977 -0.00024071279 0.04285895
000210 17 5b 3a bd 8d 6a 4a bc ff 41 33 3d 7e 98 5d bd
       -0.045497026 -0.012354505 0.04376411 -0.054100506
000220 93 31 9a bc f4 9e e5 3c 8c 6a 1e 3c 76 32 65 bd
       -0.018822467 0.028029896 0.009668957 -0.055956326
000230 25 21 c5 3c ef 90 d4 bc 2c 10 35 bd 03 51 a2 bd
       0.024063656 -0.025948016 -0.044204876 -0.07925608
000240 b6 d1 51 bd 13 48 07 bd ec 66 00 3d 76 95 41 3d
       -0.051225387 -0.03302772 0.031348154 0.047261678
000250 d7 c5 e4 3c a1 10 de bb 69 79 1f 3d 34 c8 8f bd
       0.027926369 -0.0067768847 0.038934145 -0.070206076
000260 e4 53 4e bc ea 31 04 bd 2c 99 05 bd 2a b4 f8 3c
       -0.012593243 -0.032274164 -0.03261678 0.030359346
000270 92 9d 21 3b 8c b5 93 bd 51 0f 80 bc 26 a8 3e bd
       0.002466057 -0.07212362 -0.015632303 -0.046547078
000280 03 af ef 3c ff 4d 37 3d bc f2 d6 3c a0 ec e6 3c
       0.029258257 0.044752117 0.026238792 0.028189003
000290 c0 b4 f8 3c cd 95 6d bd 13 a2 92 bd 30 a6 03 3d
       0.030359626 -0.05800419 -0.071598195 0.03214091
0002a0 3d 15 83 3b 41 41 3a bd 6e dd 44 bd 4c 22 67 bb
       0.0040003345 -0.045472387 -0.048062734 -0.0035268245
0002b0 f7 29 ee 3c e6 3a 86 3d a0 f7 b7 39 42 49 56 3c
       0.029072745 0.06554203 0.00035088975 0.013078989
0002c0 04 34 33 bd 33 c5 95 bd 2c a9 69 bd 35 fc 86 bd
       -0.043750778 -0.073130034 -0.0570461 -0.065910734
0002d0 3b f3 56 bc 49 49 42 3d 58 a3 d8 bd 68 fc a3 b8
       -0.013119514 0.04743317 -0.1057803 -7.81946e-05
0002e0 3c 84 0e bd 7f c2 2f bd 63 2d 62 bd 51 58 d4 3c
       -0.034794077 -0.042910095 -0.055219065 0.025921019
0002f0 56 fd cc bb 67 96 84 bc 3d 98 88 3d 0d fa 66 3d
       -0.006255786 -0.016184999 0.06669662 0.05639081

Linear_Trend.weight f4 [192, 96]
000000 a9 fd f3 3c 3f 2e e7 3c 20 66 d7 3c 49 f0 c2 3c
       0.02978404 0.028220294 0.026293814 0.023796218
000010 13 44 a9 3c 58 35 8d 3c 35 78 5c 3c 81 db 19 3c
       0.020662343 0.01723735 0.013456394 0.009390713
000020 77 90 b4 3b 29 ba 05 3b b5 6e 5f ba 43 1b 2b bb
       0.0055103856 0.002040515 -0.00085232715 -0.0026108779
000030 62 85 4c bb df 52 8d bb 5b 7b b7 bb 3e 0f d2 bb
       -0.0031207432 -0.0043128575 -0.005599422 -0.0064105084
000040 8f d2 e2 bb 16 e9 f2 bb 4f 16 f3 bb 12 73 f1 bb
       -0.006922073 -0.00741304 -0.007418431 -0.007368454
000050 1f 40 f2 bb fe 8c e8 bb 64 90 db bb 47 eb d3 bb
       -0.0073928977 -0.0070968857 -0.0067005623 -0.006467256
000060 73 d6 d3 bb d6 67 c7 bb 97 00 bf bb a9 a4 be bb
       -0.0064647733 -0.0060853763 -0.0058289277 -0.005817969
000070 00 4f c1 bb ed 5b ba bb ac c8 b8 bb 40 d0 b6 bb
       -0.00589931 -0.005687228 -0.0056391563 -0.0055790246
000080 96 18 aa bb a5 01 95 bb 1d 2c 67 bb c2 4e cd ba
       -0.005190919 -0.004547315 -0.0035274096 -0.001566373
000090 8e ee 84 3a c4 c9 bb 3a 25 75 bd 3a 84 31 e1 3a
       0.0010141896 0.0014327099 0.0014454467 0.0017180895
0000a0 cc cf 05 3b 50 bd 10 3b 92 b4 2e 3b e4 db 43 3b
       0.0020418046 0.0022085495 0.0026657921 0.0029885704
0000b0 52 c0 42 3b 83 20 57 3b c2 3b 71 3b 20 fb 7c 3b
       0.0029716683 0.0032825775 0.00368093 0.003860183
0000c0 7b 0e 7c 3b e3 b9 8a 3b f1 fa 92 3b 86 83 92 3b
       0.003846078 0.004233585 0.004485481 0.004471245
0000d0 b6 dd 92 3b 8f 01 9f 3b 89 1e a1 3b 4c f1 9a 3b
       0.0044819964 0.0048524807 0.00491697 0.004728472
0000e0 3f 82 9c 3b 44 48 9f 3b 30 35 a6 3b 96 0f bc 3b
       0.0047762687 0.0048609097 0.0050722584 0.0057391627
0000f0 01 b1 cb 3b 70 ab 88 3b da 4e 0a 3b 6c a9 2c 3a
       0.006216169 0.0041708276 0.0021104128 0.0006586525
000100 77 66 f2 b9 22 6a bb ba 89 63 eb ba 4d 4d 01 bb
       -0.0004623418 -0.0014298598 -0.0017958741 -0.0019729913
000110 d4 54 0a bb c6 86 e1 ba f1 31 a2 ba 32 9e 5b ba
       -0.002110769 -0.0017206303 -0.0012374503 -0.000837776
000120 b2 f7 0e ba cf a5 90 39 9d f5 95 3a f9 5d 05 3b
       -0.00054537796 0.00027589357 0.0011440996 0.0020350202
000130 e7 45 50 3b 7f f6 b3 3b 2c 0c 0f 3c 56 12 54 3c
       0.0031779946 0.005492031 0.008730929 0.012943825
000140 9a d8 97 3c bc 2d cd 3c e7 a8 04 3d 5c 7d 24 3d
       0.0185359 0.025046222 0.03238764 0.040158615
000150 d1 1f 3c 3d 86 0d 4d 3d 86 bd 5b 3d eb 05 68 3d
       0.04592878 0.050061725 0.05364754 0.05664627
000160 4b 72 71 3d c6 42 78 3d 4e cc 7d 3d 4a 6f 80 3d
       0.05894689 0.060610555 0.06196242 0.06271227
000170 84 6a 81 3d f5 1c 82 3d 4c 98 82 3d b2 e3 82 3d
       0.06319144 0.06353179 0.063767046 0.06391086
000180 10 73 ca 3c 80 39 bf 3c a0 56 b3 3c 3d 74 a5 3c
       0.02471307 0.023342848 0.021891892 0.020197028
000190 cb 63 93 3c f4 0b 7b 3c 85 c5 4d 3c c7 b8 1c 3c
       0.017991921 0.015322674 0.012559299 0.009565539
0001a0 5d 66 d2 3b 14 74 67 3b eb f6 89 3a bc 27 51 ba
       0.006420894 0.003531699 0.0010525858 -0.0007978638
0001b0 41 36 a9 ba 8c ad 10 ba 04 35 01 bb 51 5d 63 bb
       -0.0012909846 -0.00055190246 -0.0019715438 -0.0034693072
0001c0 18 b1 91 bb 02 1a a9 bb da a5 ba bb f5 33 bd bb
       -0.00444616 -0.005160571 -0.0056960406 -0.005774016
0001d0 3e 5e bf bb 1b 5f c2 bb d6 18 ba bb 62 51 af bb
       -0.005840092 -0.0059317476 -0.00567923 -0.0053502778
0001e0 6d 6e ae bb 64 21 b1 bb ae d4 a8 bb 5e 2f a6 bb
       -0.0053232224 -0.005405592 -0.0051523065 -0.0050715646
0001f0 2e 8e ab bb 54 44 b2 bb f0 a5 b0 bb 11 86 b3 bb
       -0.005235455 -0.0054402743 -0.005390875 -0.0054786284
000200 fa 3c b5 bb 4b 22 aa bb ce c9 96 bb 53 21 64 bb
       -0.0055309506 -0.0051920763 -0.0046016937 -0.0034809902
000210 b2 93 8f ba 26 39 d7 3a db 07 03 3b e5 30 fc 3a
       -0.0010954051 0.001642023 0.0019993696 0.0019240646
000220 f7 32 0e 3b a1 44 1e 3b be 29 2b 3b a4 0d 4d 3b
       0.0021697858 0.0024149793 0.002611741 0.0031288648
000230 13 d6 60 3b dc cf 5f 3b ae 60 78 3b f7 1b 8b 3b
       0.0034307286 0.0034150993 0.0037899422 0.004245277
000240 9c 26 90 3b a0 73 92 3b 78 8f a1 3b 85 77 aa 3b
       0.004399134 0.00446935 0.004930433 0.005202236
000250 39 be a9 3b 65 a1 ac 3b 16 c8 b9 3b 8e cd bb 3b
       0.005180147 0.005268263 0.005669604 0.005731291
000260 e9 fa b5 3b f7 b4 b9 3b a3 ad be 3b 95 cf cb 3b
       0.0055535925 0.0056673246 0.005819039 0.006219814
000270 b5 eb ed 3b c6 87 fe 3b 2b f0 b8 3b fa 32 69 3b
       0.0072607645 0.0077676503 0.0056438646 0.0035583363
000280 6e c9 0c 3b bf 38 88 3a 20 37 68 39 b6 4c 58 38
       0.0021482366 0.0010392888 0.0002214578 5.1569856e-05
000290 86 fa 93 38 4d a1 46 39 ed fc 6c 3a 72 d8 e1 3a
       7.05617e-05 0.0001894284 0.00090403744 0.0017230643
0002a0 6f f7 1a 3b b5 ab 40 3b d2 15 84 3b 7b ff a6 3b
       0.0023646017 0.002939922 0.0040309215 0.0050963736
0002b0 42 1c c5 3b f5 f3 eb 3b fc 8b 1b 3c 3f 0a 4e 3c
       0.0060153315 0.007200713 0.009493824 0.012575685
0002c0 e5 ba 87 3c 3a 6a b3 3c af cc e6 3c dd 35 10 3d
       0.01656861 0.021901239 0.028173773 0.035207618
0002d0 8a 51 27 3d 99 f2 37 3d bc 12 44 3d 7e 8f 4f 3d
       0.040849246 0.044909094 0.04786943 0.050673954
0002e0 2f 3b 5a 3d 21 11 63 3d 25 f6 69 3d 1e 20 6f 3d
       0.053279098 0.055436257 0.057119507 0.05838024
0002f0 48 8d 72 3d 5c b9 75 3d 8c 79 77 3d 8c 99 78 3d
       0.059216768 0.059991226 0.06041865 0.06069331
000300 5c 56 9c 3c 17 9f 95 3c c3 9d 8a 3c 24 27 81 3c
       0.019084148 0.018264337 0.01692093 0.015765734
000310 de 19 6c 3c 2a 59 50 3c 15 d4 2f 3c 12 27 10 3c
       0.014410464 0.012716571 0.010731717 0.008798378
000320 dc fe dc 3b f3 c3 96 3b e3 ba 31 3b 1f 0a aa 3a
       0.006744249 0.0046009957 0.002711945 0.0012972987
000330 40 49 45 3a f6 ea c7 3a c4 5f 02 3b 1e e4 8e 39
       0.0007525869 0.0015252519 0.0019893507 0.0002725431
000340 ad 64 bf ba 7d 5f 2f bb e9 b9 62 bb 73 de 84 bb
       -0.0014602147 -0.0026759796 -0.0034595674 -0.0040548383
000350 ec 1d 8b bb 09 d5 8e bb 7b 6e 92 bb bf 41 8c bb
       -0.0042455103 -0.004358892 -0.0044687367 -0.0042802985
000360 de 15 87 bb b3 23 88 bb 56 d9 8e bb 57 58 8c bb
       -0.00412248 -0.0041546463 -0.0043594046 -0.004282992
000370 55 dd 8e bb 6a fb 97 bb cc 9e a3 bb 56 44 a6 bb
       -0.004359881 -0.004638125 -0.0049932953 -0.0050740642
000380 97 d0 ab bb df 1a ae bb be 68 a3 bb 46 66 8b bb
       -0.0052433717 -0.005313262 -0.0049868515 -0.0042541353
000390 58 7e 33 bb 28 6b 9b b9 3a 75 19 3b d2 06 30 3b
       -0.002738854 -0.0002964374 0.002341582 0.0026859534
0003a0 24 3f 2d 3b e0 ec 38 3b 29 63 4a 3b 96 b2 59 3b
       0.002643534 0.002821736 0.0030881858 0.0033218018
0003b0 5a 57 77 3b fb 18 85 3b 28 39 86 3b ac 2f 92 3b
       0.0037741275 0.004061816 0.004096169 0.0044612493
0003c0 94 02 9f 3b 07 20 a6 3b 76 24 a9 3b 42 7e b7 3b
       0.0048526023 0.005069736 0.005161817 0.005599768
0003d0 c1 be bf 3b 1a ea c0 3b 15 19 c4 3b 23 06 d1 3b
       0.005851597 0.005887282 0.0059844353 0.0063789054
0003e0 6a 1e d4 3b a5 15 d1 3b bd ef d6 3b f2 65 e2 3b
       0.006473352 0.006380754 0.0065593407 0.0069091255
0003f0 d7 ba fb 3b 65 cc 0e 3c 7c bc 15 3c b3 2c e4 3b
       0.007682185 0.008715724 0.009139176 0.0069633364

Linear_Trend.bias f4 [192]
000000 27 07 11 bb bf fe c8 bb 66 fb 3e 3c 68 21 4f 3d
       -0.0022129507 -0.0061338837 0.011656618 0.050568968
000010 95 91 13 3d fd 02 96 bd 11 54 b3 3c 40 bb 16 bd
       0.03602751 -0.07324789 0.021890672 -0.03679967
000020 dc fa 41 3d 18 d2 23 bd 05 6f 26 bb dc e4 83 3c
       0.04735838 -0.039995283 -0.0025395763 0.01610034
000030 a6 1c 8e 3d a3 da d3 3c 10 b3 85 3c 19 4e a2 bd
       0.06939058 0.02586109 0.016320735 -0.07925052
000040 6c 48 51 3d 97 87 38 bb 4b 0a b0 3d 2f 10 3b bd
       0.051094458 -0.002815699 0.08595713 -0.04566973
000050 82 5c f8 3c 52 3e b4 3d c0 fb f5 bc 46 32 bc 3c
       0.030317549 0.08800949 -0.03002727 0.022973191
000060 02 76 70 3c 32 37 36 bc 1b ee 1f bd 2a f1 2e 3d
       0.014676573 -0.011121558 -0.039045434 0.04271046
000070 1a 47 94 3d af 91 9b 3c de c3 c2 3c 1c 13 9f 3c
       0.07240124 0.018990366 0.023775037 0.019418292
000080 36 5a cf 3c fc 3e 32 3d a6 f8 2f bd 09 3b 01 3d
       0.02531157 0.043517098 -0.04296174 0.03155044
000090 c3 67 3c 3d 78 f3 ea bb 19 41 89 bd 8c 42 3a 3c
       0.045997392 -0.007170137 -0.067018695 0.011368405
0000a0 a6 80 97 bb 1f 75 2c 3d 29 f2 99 bc 89 04 2c 3d
       -0.0046234904 0.042103883 -0.018792229 0.041996513
0000b0 73 36 be bd a6 5f a0 bd b0 8e 82 bc a5 fd 0b bd
       -0.09287729 -0.078307435 -0.01593718 -0.03417744
0000c0 dc 24 26 3d be c5 50 b9 42 ba 2c 3c 51 20 22 3d
       0.040562496 -0.0001991009 0.010542454 0.0395816
0000d0 1a 90 d7 bc 37 e0 b8 bc c5 24 21 bd 15 cf b0 3c
       -0.02631383 -0.022567851 -0.039341707 0.02158312
0000e0 60 32 77 bd c0 27 4c bb 6e 98 2d bc 1e fb be bc
       -0.060350776 -0.0031151623 -0.010595424 -0.023313101
0000f0 ab 7c ed bc a0 71 17 bc b1 a4 3e bd 77 30 81 3c
       -0.02899011 -0.009243399 -0.04654378 0.01577018
000100 74 b7 ea bc 68 bc 03 bd 9b 89 35 3c 63 dd 00 bd
       -0.02865193 -0.0321621 0.011080171 -0.03146113
000110 8d 89 9e bc 7a ac dc 3c 32 0b 00 3d 59 29 9c bd
       -0.019352699 0.026937712 0.031260677 -0.07625074
000120 c1 1e 59 bd a0 3b f0 bc 9f ed 23 3d 4c 64 8e 3c
       -0.053007845 -0.029325306 0.040021535 0.01738181
000130 ee fe 72 bc 32 26 e9 bb 2f 8d aa bd 97 a2 9e bd
       -0.014831288 -0.007115149 -0.0832771 -0.07745855
000140 fe 22 75 bb 53 4b 6d bd 02 35 ba bd 4c d4 1e 3d
       -0.003740489 -0.057933163 -0.09092142 0.03877668
000150 2a 3a d7 ba 34 b7 2f ba 25 61 11 3d 5e 7b 55 3d
       -0.0016420532 -0.00067030196 0.035493035 0.052119605
000160 d3 f6 3d 3d b3 27 a7 bc 51 11 84 bd da 17 9a 3c
       0.046377968 -0.020404672 -0.06448615 0.018810201
000170 c9 df 4a bd 99 69 46 bd 51 08 5b bc 9a 46 02 3d
       -0.049529824 -0.04844055 -0.013368682 0.031805612
000180 3b 9d 8d bc 56 20 cd bd c9 aa 12 bd 4d 87 73 3d
       -0.017286887 -0.10015933 -0.035807405 0.059455205
000190 2f 41 20 bc d3 08 c9 bc 6d 13 80 bd 50 d7 49 3c
       -0.009781166 -0.02454034 -0.06253705 0.012319401
0001a0 92 e5 d3 bd 19 7a 96 bd 3e 55 43 3c 91 27 99 bc
       -0.103465214 -0.07347507 0.011922179 -0.018695625
0001b0 ab 7e 13 bb cc 5d 47 bb 2a cb 8c bc 24 5a 01 bd
       -0.002250592 -0.0030420898 -0.01718672 -0.031580105
0001c0 60 05 89 3d 96 0f 1d bd 40 5a 91 3d 62 c0 88 bb
       0.06690478 -0.038344942 0.07097292 -0.0041733244
0001d0 43 ad d0 bb fb 31 ee 3c c2 3d 55 3d 81 91 da bd
       -0.0063683107 0.029076567 0.05206085 -0.10672284
0001e0 dd e1 48 3d 8f f3 57 bd 2d ec 83 3b be 8f 14 bd
       0.049043525 -0.05272251 0.004025957 -0.036269896
0001f0 e3 ed 8e bd 1a ff 9c 3b dc fb 0d bb fd 32 94 bd
       -0.06978967 0.0047911527 -0.0021665012 -0.07236288
000200 8f e4 ef 3b 99 9c 29 bd 8f 5f 5c bc eb 10 72 bd
       0.0073209475 -0.04140911 -0.013450517 -0.059098165
000210 81 1d 1b 3d d5 3f 05 3c 9b c1 88 bd f1 ed 74 3b
       0.037869934 0.0081328945 -0.06677552 0.003737327
000220 0b 7f 4f bc a2 c8 18 3d a2 24 e6 3c 7c 29 bb 3b
       -0.012664567 0.037300713 0.02809364 0.0057117324
000230 e4 1e 6a bd ce 70 1f bc ce 3c 39 bd cc 10 4e 3d
       -0.057158366 -0.009731485 -0.045224003 0.050308987
000240 4d 00 3c bb 8b ba 1f 3d 5e 9e 1f bd a9 76 46 bd
       -0.0028686703 0.03899626 -0.03896939 -0.048453007
000250 42 0a 45 bd db bb 05 bd fa d4 30 bc 91 6b 29 3d
       -0.048105486 -0.032649856 -0.010792965 0.04136235
000260 6a 4b 10 bc 82 1f b7 bc 70 f5 2c 3d a5 0d 71 bd
       -0.008807043 -0.022353891 0.042226255 -0.058850903
000270 92 5d c7 bc 32 f8 52 3d ca ef 92 bc 65 b5 2e bd
       -0.02433661 0.05150623 -0.017936606 -0.04265346
000280 93 65 6f bb e2 67 a1 bd d7 63 0a bd cd ea 41 bd
       -0.0036529049 -0.07881142 -0.03378662 -0.047343064
000290 f2 84 04 3c 03 2b d2 3c ba f0 30 3d 88 cc 87 bd
       0.008088337 0.025655275 0.043198325 -0.06630808
0002a0 8d e2 29 3d cc 68 fe 3c 9e c1 db 3c 74 45 f5 bc
       0.04147582 0.03105583 0.026825722 -0.029940344
0002b0 97 25 ad 3c 11 40 a6 bd c0 f4 6d bd 34 c7 3c 3c
       0.021136088 -0.081176884 -0.05809474 0.011522103
0002c0 aa ec 05 3c 84 6f 31 3d c9 61 d3 3c 5f 7c 17 3d
       0.008174101 0.04331924 0.025803464 0.036983844
0002d0 87 52 c6 3b 2f 8c 9b bd 12 1f 9c 3d 44 7c c1 bb
       0.0060523185 -0.07595097 0.07623114 -0.005904706
0002e0 6f 0c 3c 3b ce dc 4e 3d 2c 27 b3 3c cc 8b 11 3d
       0.0028693934 0.050503545 0.021869265 0.03553371
0002f0 7f 21 98 3a 29 f6 5b bc 1e 12 c2 bd 02 ca 6a bd
       0.0011606662 -0.013425388 -0.09476112 -0.057321556
